Model/DDQ/[S0][onehot]net_Q(param).pt (torch, 542578 bytes, 6 tensors)

fc1.weight f4 [256, 264]
0	0xbc774b12	-0.015093582
1	0xbd37c350	-0.044864
2	0xbd6bd40d	-0.057575274
3	0xbd8a0120	-0.06738496
4	0xbc76f1f4	-0.015072335
5	0xbd2298be	-0.039696448
6	0xbd29f49f	-0.041493054
7	0x3d6ae11e	0.057343595
8	0x3d3b5c72	0.04574246
9	0xbc5b353d	-0.013379392
10	0x3d17568c	0.036947772
11	0xbd7fb56b	-0.062428873
12	0x3c836429	0.016038971
13	0x3cac4506	0.021029007
14	0xbc65df42	-0.01403028
15	0x3d3a950e	0.045552306
16	0x3ced0712	0.028934035
17	0x3cfb67f4	0.030689217
18	0x3cefb965	0.029263208
19	0x3c2ccd7d	0.010547039
20	0x3c8c158d	0.01710012
21	0xbc86b550	-0.016443878
22	0xbd4940b1	-0.04913396
23	0xbd68ab63	-0.056804072
24	0xbc86df6e	-0.016463961
25	0x3cfb2cd2	0.03066102
26	0xbd03006a	-0.031982817
27	0xbc3b9c5f	-0.011450856
28	0x3b1497ae	0.0022673416
29	0xbd0bfc19	-0.034175966
30	0xbd37bd4a	-0.044858254
31	0x3d567f71	0.05236763
32	0x3d118e53	0.03553612
33	0x3d5e024e	0.054201417
34	0xbd4acb26	-0.049510144
35	0xbd5eb64b	-0.054373067
36	0x38bef791	9.106019e-05
37	0xbd865d01	-0.06560708
38	0xbba46dca	-0.0050179707
39	0xbcff803e	-0.03118908
40	0x3d2a4d79	0.04157779
41	0xbd97aed3	-0.07406392
42	0xbd2d0065	-0.042236704
43	0xbd8e17b2	-0.06938113
44	0xbcb9c0e3	-0.022674983
45	0xbc18b747	-0.0093210405
46	0xbc515687	-0.012776977
47	0x3ca538e4	0.02016873
48	0x3c30285a	0.010751808
49	0x3ccb6f67	0.024833394
50	0x3bd22569	0.006413151
51	0x3cf6755c	0.030085258
52	0xbd809984	-0.06279281
53	0x3cd82d01	0.026388647
54	0x3d1aae0f	0.03776365
55	0x3d1a222c	0.037630245
56	0xbc7a7ae6	-0.01528809
57	0xbcfca7c4	-0.030841716
58	0x3d7be948	0.06150177
59	0xbcfe2304	-0.031022556
60	0xbb64f31d	-0.0034934946
61	0xbcfa5b5f	-0.030561147
62	0xbd725b11	-0.05916888
63	0x3cc1a88e	0.023639943
64	0xbc4961e3	-0.012291404
65	0xbc386938	-0.011255555
66	0xbaf04b77	-0.0018333037
67	0xbc49c558	-0.012315117
68	0x3bbc44a8	0.005745489
69	0xbcd56a20	-0.02605158
70	0xbbf96e05	-0.0076119923
71	0x3c985ea6	0.01859982
72	0xbd6e09f3	-0.058114957
73	0xbcfdc161	-0.030976
74	0x3d055aaa	0.032557167
75	0x3b231a7b	0.002488761
76	0xbbf73136	-0.007543708
77	0x3cc0e572	0.023546908
78	0x3d1d0965	0.038339037
79	0x3d69bcfb	0.05706499
80	0xbc833731	-0.016017528
81	0x3ac1fe00	0.0014800429
82	0x3cdc8f50	0.026923805
83	0xbbdd3b22	-0.006751434
84	0x3cdbb7b8	0.026821002
85	0x3c2839c6	0.0102676805
86	0xbd0e679e	-0.034766786
87	0xbccb73cf	-0.024835495
88	0xbc5bcb8d	-0.0134152295
89	0x3b9ec1cb	0.0048448793
90	0x3b9e2d68	0.00482719
91	0x3cdf92f1	0.027291747
92	0x3d5751a7	0.052568104
93	0x3afd55b5	0.0019327911
94	0xbcecbe7f	-0.02889943
95	0xbd2acbe8	-0.041698366
96	0x3d5588bf	0.052132364
97	0x3c53a42b	0.012917559
98	0xbd1a2c3d	-0.037639845
99	0x3b6edde2	0.003644817
100	0x3cbad4a9	0.022806482
101	0x3d28d050	0.041214287
102	0xbd414ffd	-0.047195423
103	0xbd2a1285	-0.041521568
104	0xbd272f13	-0.040816378
105	0xbc102a17	-0.0087990975
106	0xbbe0f253	-0.006864825
107	0xbc97667f	-0.018481491
108	0x3d6a3412	0.057178564
109	0x3d32f05c	0.043686256
110	0xbbedf431	-0.007261776
111	0x3b72ba6e	0.003703739
112	0xbced418b	-0.028961917
113	0x3bda8f16	0.006669889
114	0xba714947	-0.00092043396
115	0x3b83f7f0	0.004027359
116	0xbd01e036	-0.031707965
117	0xbd792065	-0.06082191
118	0xbbe5a609	-0.0070083183
119	0x3cb13f9a	0.021636773
120	0xbb6c4d50	-0.0036056824
121	0xbcaa9091	-0.020820888
122	0x3cf336a5	0.029689142
123	0x3c9237bd	0.017848844
124	0x3d3df2d9	0.046374176
125	0xbc5d1044	-0.013492648
126	0x3b91c9c0	0.0044490993
127	0xbda105c8	-0.07862431
128	0xbcf05568	-0.0293376
129	0xbd82184a	-0.06352289
130	0xbccfb7e7	-0.025356246
131	0xbd6d7e4e	-0.05798178
132	0xbd39adec	-0.04533188
133	0xbd70d671	-0.058798257
134	0x3d034d54	0.032056168
135	0x3ca92ef6	0.020652276
136	0x3cd1a965	0.025593469
137	0xbcf5d544	-0.03000892
138	0xbd3b47da	-0.04572282
139	0xbb8b6f6e	-0.004255227
140	0xbd29c09a	-0.041443445
141	0xbd89da87	-0.06731134
142	0x3d213f7e	0.03936719
143	0xbc07733e	-0.008267222
144	0xbd90af66	-0.070647046
145	0x3d325af9	0.04354379
146	0xbd11f26a	-0.035631575
147	0xbd82b5c1	-0.06382323
148	0x3d69cbca	0.057079114
149	0xbda78a62	-0.08180691
150	0xbd851266	-0.0649765
151	0xbd3c2261	-0.045931224
152	0x3d2d0d64	0.0422491
153	0x3d0a90bf	0.033829447
154	0x3b76660c	0.0037597446
155	0x3d43bd19	0.04778776
156	0xbccc4c98	-0.024938866
157	0x3d37e388	0.044894725
158	0xbafa1949	-0.0019081022
159	0x3d2288ab	0.039681118
160	0x3c493693	0.012281078
161	0xbd29a535	-0.04141732
162	0xbd3c9ace	-0.04604607
163	0xbd6007f3	-0.05469508
164	0x3d48e169	0.049043093
165	0x3ad61526	0.0016333207
166	0xbc62b32d	-0.013836664
167	0x3d94bcad	0.072625495
168	0x3d5dd117	0.05415448
169	0xbd6f0672	-0.058355756
170	0xbd751cad	-0.0598418
171	0x3cc517e5	0.024059245
172	0x3c6ce32e	0.014458461
173	0x3d53de78	0.051725835
174	0x3cee7d48	0.029112473
175	0xbc9649bb	-0.018345704
176	0x3c8f2c4b	0.017477175
177	0x3c1a61bf	0.009422719
178	0xbda71bd1	-0.081596024
179	0x3d815599	0.063151546
180	0x3cedb86e	0.029018607
181	0x3d459ab3	0.048243236
182	0x3d7e2cc5	0.062054414
183	0xbcf1304d	-0.029441977
184	0x3d4fa785	0.05069687
185	0xbd9ba264	-0.07599333
186	0xbd7c6098	-0.061615556
187	0x3c97f389	0.018548744
188	0x3d285059	0.04109225
189	0x3be86e2c	0.0070932116
190	0x3d06143d	0.032734144
191	0x3d277d59	0.040891025
192	0xbc2e277b	-0.01062953
193	0x3c9e0fa0	0.01929456
194	0xbce64130	-0.028107256
195	0xbd10a108	-0.03530982
196	0x3cfe43ac	0.031038128
197	0x3cfb20d3	0.0306553
198	0x3c9e4875	0.01932166
199	0x3d50e96e	0.051003866
200	0xbb80db1b	-0.0039323694
201	0x3c333d37	0.010939888
202	0x3d252044	0.040313974
203	0xbae110aa	-0.0017171104
204	0x3d01b262	0.03166426
205	0xbd75ae48	-0.05998066
206	0x3d70f7b5	0.05882998
207	0x3d31bf82	0.043395527
208	0x3c3fe41f	0.011712103
209	0x3d45c38f	0.048282202
210	0x3d2e819c	0.042604074
211	0x3d13463f	0.035955664
212	0x3c4bc493	0.012437004
213	0x3d42ddc6	0.04757478
214	0xbcc2d33e	-0.023782369
215	0x3ccc3da6	0.02493174
216	0x3bc34890	0.005959578
217	0x3d6a1684	0.05715038
218	0xbc7f8279	-0.015595072
219	0x3cd7b3df	0.026330886
220	0xbd3e38b0	-0.04644078
221	0xbd3babf8	-0.0458183
222	0x3d27c45a	0.04095874
223	0x3cb6e9ae	0.022328224
224	0xbd7050f1	-0.05867094
225	0xbd0b58fa	-0.0340204
226	0xbc90f964	-0.017697044
227	0x3d729d65	0.059232134
228	0xbc2e08f7	-0.010622255
229	0x3d93bdf5	0.07213966
230	0x3d26fb79	0.040767167
231	0x3d3e7cd9	0.046505783
232	0x3d6a1823	0.057151925
233	0xbd5e1015	-0.054214556
234	0x3d3d39f9	0.046197865
235	0xbd13afab	-0.036056202
236	0x3c2176a5	0.009854947
237	0x3d65aef1	0.05607504
238	0xbd670b99	-0.056407545
239	0xbca83af5	-0.020535925
240	0xbb882a96	-0.0041554673
241	0x3d787cf1	0.06066603
242	0xbc00c016	-0.007858297
243	0xbd1b1519	-0.037861917
244	0xbd486924	-0.048928395
245	0xbc9e3df0	-0.019316643
246	0x3cb7ef20	0.02245289
247	0xbd18c776	-0.037299596
248	0x3c85f40f	0.016351728
249	0x3c83312d	0.01601466
250	0xbca6cd41	-0.020361545
251	0xbd0dc7e1	-0.034614448
252	0x3b84fe1f	0.004058614
253	0x3c302995	0.010752101
254	0x3d0be86a	0.034157194
255	0x3c9a5dfc	0.018843643

fc1.bias f4 [256]
0	0xbd5886b4	-0.052862838
1	0xbc9df75e	-0.019282993
2	0x3da4c8fb	0.080461465
3	0x3e047b7c	0.1293773
4	0xbd8825c1	-0.06647826
5	0xbced995a	-0.029003788
6	0xbd45df23	-0.048308503
7	0x3dbd8a58	0.092549026
8	0x3cb76ac4	0.022389777
9	0x3c297cbd	0.010344681
10	0x3dc1a262	0.094548
11	0x3dfef932	0.12449874
12	0xbd02e63d	-0.031957854
13	0x3ddb78c3	0.10716393
14	0x3dc3b602	0.095561996
15	0xbd941a0b	-0.0723153
16	0xbd70d0ba	-0.058792807
17	0xbd03739d	-0.03209268
18	0x3e1636d8	0.14669359
19	0x3c43078d	0.011903656
20	0x3d32316e	0.04350417
21	0x3dcd0bfa	0.1001205
22	0x3df073b1	0.117408164
23	0x3df08dad	0.117457725
24	0x3da12813	0.07868972
25	0xbcbfa413	-0.023393666
26	0xbd843a34	-0.06456414
27	0x3d807903	0.06273081
28	0x3df47cd5	0.11937872
29	0x3d4f0e90	0.050550997
30	0x3d4ecd1b	0.050488573
31	0x3d6a45c4	0.05719544
32	0x3dc9c6fe	0.09852408
33	0xbda3083d	-0.07960556
34	0x3d27d42a	0.04097382
35	0x3e052f2f	0.1300628
36	0x3dbd2f38	0.09237522
37	0x3d2cfa70	0.042231023
38	0xbd962bd8	-0.07332581
39	0x3d244059	0.04010043
40	0xbcb11103	-0.021614557
41	0x3de57e72	0.11205758
42	0xbd6c56eb	-0.05770008
43	0xbc321ef0	-0.010871634
44	0x3dcb97c0	0.099410534
45	0x3d4952f4	0.049151376
46	0x3d20490c	0.039132163
47	0x3dcb48c7	0.099259906
48	0x3afbaec3	0.0019201863
49	0xbb122362	-0.0022298922
50	0x3c7b39a4	0.015333567
51	0x3dc5991a	0.096483424
52	0xbc471c18	-0.012152694
53	0xbd88c449	-0.066780634
54	0x3e0cdc15	0.1375583
55	0x3cbd9815	0.023143807
56	0x3cc18961	0.023625078
57	0x3dc7da42	0.09758426
58	0xbc8ec91f	-0.017429886
59	0x3de9d9c3	0.11418488
60	0xb9111e23	-0.00013839504
61	0x3e0dd628	0.13851225
62	0x3dc86911	0.09785665
63	0x3d51b879	0.051201317
64	0x3e36a18b	0.17835061
65	0xbd65a134	-0.05606194
66	0xbd94414c	-0.07239017
67	0x3d8ef162	0.06979634
68	0xbd2a6696	-0.04160174
69	0x3e078a26	0.13236293
70	0xbdd7cab2	-0.10536708
71	0xbdab0c2e	-0.083519325
72	0xbca8e256	-0.020615738
73	0x3dba71ad	0.09103713
74	0x3e0f3980	0.13986778
75	0xbc88ac6d	-0.016683782
76	0x3d0c9ae8	0.034327418
77	0x3df0c96e	0.1175717
78	0xbcd05d73	-0.025435185
79	0x3d0a951f	0.03383362
80	0x3ad70e57	0.0016407472
81	0x3de52c32	0.1119007
82	0xbc0b88a9	-0.008516469
83	0x3deb9fa1	0.11505056
84	0xbdb7d2bd	-0.08975742
85	0xbccc0f57	-0.024909658
86	0x3dea06d1	0.114270814
87	0x3e16510e	0.14679357
88	0x3d3bf7d8	0.04589066
89	0xbd60e796	-0.054908358
90	0xbc82ef5a	-0.015983272
91	0x3d6dc80d	0.05805211
92	0x3e07ddf0	0.13268256
93	0x3d93555f	0.071940176
94	0xbd96e0a3	-0.07367065
95	0x3dd56813	0.10420241
96	0xbdab611a	-0.0836813
97	0x3ceb21e5	0.028702686
98	0xbda3cab7	-0.07997649
99	0x3da954fe	0.08268164
100	0x3d5f722c	0.054552242
101	0xbd839cba	-0.064263776
102	0xbd8ef927	-0.06981116
103	0x3b740e52	0.003723998
104	0xbc25b336	-0.010113528
105	0x3c08fcf2	0.008361088
106	0x3c51e193	0.012810129
107	0x3cad387a	0.021145094
108	0x3d8badc7	0.06820255
109	0xbd80b908	-0.06285292
110	0x3e0bee9a	0.13665238
111	0xbcc91929	-0.02454813
112	0x3d5aa15d	0.053376544
113	0x3dae23a6	0.08502893
114	0x3df49573	0.11942568
115	0xbd7e10fc	-0.062027916
116	0x3d2655ae	0.040609054
117	0x3db79b53	0.089651726
118	0x3cdfddcc	0.02732744
119	0x3db51a00	0.0884285
120	0x3dfb0057	0.12255924
121	0x3dc560da	0.096376136
122	0xbce7581f	-0.028240262
123	0xbd63828c	-0.05554442
124	0xbd90e4b0	-0.07074869
125	0x3ddbf3e1	0.107398756
126	0x3e00a535	0.12563021
127	0xbbb520e0	-0.0055276006
128	0x3dc4d0e3	0.096101545
129	0xbd9b353f	-0.07578515
130	0xbe0763f1	-0.13221718
131	0xbc000464	-0.007813547
132	0xbc48eb37	-0.012263111
133	0xbd98e7bd	-0.074660756
134	0x3cf10b86	0.02942444
135	0x3e2423e5	0.16029318
136	0x3d347c8b	0.044064086
137	0x3d2aee8f	0.041731413
138	0xbd29e036	-0.04147359
139	0x3db5846c	0.08863148
140	0x3daa0a04	0.083026916
141	0x3d91f00a	0.07125862
142	0xbc0f2b9d	-0.008738426
143	0x3cd5644e	0.026048806
144	0x3e1438f7	0.14474855
145	0x3d661589	0.05617288
146	0x3dc4dcb6	0.0961241
147	0x3d28ded9	0.04122815
148	0x3ddbcd60	0.107325315
149	0x3d8ab192	0.0677215
150	0x3cbc2c40	0.022970319
151	0x3dc3dc7c	0.095635384
152	0xbd6252d7	-0.055254783
153	0x3dbe9f7a	0.093077615
154	0xbcf31564	-0.029673286
155	0xbd2a44ef	-0.041569646
156	0xbc06d0df	-0.00822851
157	0x3cd96c26	0.026540827
158	0x3958de56	0.00020682192
159	0x3d0f548c	0.03499274
160	0x3d8ea274	0.06964579
161	0x3d3d99ee	0.046289377
162	0x3d7b8e69	0.06141511
163	0xbd109f5f	-0.035308238
164	0xbb89f913	-0.0042106
165	0x3d4b29be	0.049600355
166	0xbd1eef5a	-0.038802482
167	0x3d84ea63	0.06490018
168	0xbddbe50f	-0.10737049
169	0x3e0cebc2	0.1376181
170	0xbd8849cf	-0.06654703
171	0xbd8489fd	-0.06471632
172	0xbc05c3fb	-0.008164401
173	0x3d72de3f	0.05929398
174	0xbcace375	-0.021104554
175	0xbb376839	-0.0027985706
176	0x3dac445c	0.08411476
177	0x3c42fb42	0.011900725
178	0x3d81fe95	0.06347386
179	0x3e077b91	0.1323073
180	0xbdaf3cbd	-0.08556507
181	0xbcfe43fb	-0.031038275
182	0x3c1f2e86	0.009715682
183	0x3dd35812	0.103195325
184	0x3d0b94e2	0.034077533
185	0xbdde214c	-0.108461946
186	0x3df5b1c6	0.11996798
187	0x3dd32ae5	0.10310916
188	0xbda3d4aa	-0.07999547
189	0xbd881fa9	-0.06646664
190	0x3d4bc345	0.04974677
191	0x3dde739e	0.10861896
192	0x3d4a7764	0.049430266
193	0x3d32979d	0.04360162
194	0x3d6e1650	0.058126748
195	0x3ab4d244	0.0013795574
196	0xbd3f4871	-0.046699945
197	0x3d3e3817	0.04644021
198	0x3ccec577	0.025240643
199	0x3d1c6487	0.038181808
200	0x3dbb9ea9	0.091611214
201	0x3dfab5fa	0.122417405
202	0x3d2cbc4e	0.04217177
203	0x3dacd8b3	0.084397696
204	0xbd6b3324	-0.05742182
205	0xbc8ea3ae	-0.017412033
206	0x3e148c0b	0.14506547
207	0x3e0a2b5f	0.13493107
208	0xbc7b1f09	-0.015327224
209	0xbdc02ed8	-0.09383935
210	0x3db99189	0.09060962
211	0x3e3a58cd	0.18197937
212	0x3dd8b95b	0.10582229
213	0x3cfaf6a3	0.030635184
214	0xbd6a93d3	-0.057269882
215	0xbd42cf22	-0.04756082
216	0x3de24671	0.11048592
217	0x3ded473d	0.11585853
218	0x3cc58a93	0.024113929
219	0xbc659379	-0.014012211
220	0x3d32a367	0.043612864
221	0x3df5045c	0.11963722
222	0xbce2c779	-0.027683007
223	0x3c51254b	0.012765239
224	0x3d880df0	0.06643283
225	0x3d1aabd5	0.037761528
226	0xbcfe9550	-0.031077057
227	0xbdc93c88	-0.098259985
228	0xbd853544	-0.065043
229	0x3d185df4	0.037198976
230	0x3db4b1d9	0.08822984
231	0x3d4a2628	0.049352795
232	0x3e3896c8	0.18026268
233	0xbd6e66c6	-0.05820348
234	0x3d8020dd	0.06256268
235	0x3e06c7bf	0.13162135
236	0xbd1cd094	-0.038284853
237	0xbd4fae76	-0.05070349
238	0x3ba59558	0.0050532036
239	0x3d5aa218	0.05337724
240	0xbcc499d0	-0.023999125
241	0xbb078c3e	-0.0020682956
242	0x3d361676	0.044455014
243	0x3daf40d4	0.08557287
244	0x3dce896c	0.10084805
245	0x3d8f496f	0.06996428
246	0xbd6bb8de	-0.05754935
247	0x3e038e07	0.12847148
248	0xbd179e80	-0.03701639
249	0x3e0549e2	0.13016465
250	0x3cfd4dc4	0.03092087
251	0xbd8448f5	-0.06459228
252	0x3db0b49a	0.08628197
253	0xbd15ef32	-0.036605068
254	0x3d1feae3	0.039042365
255	0x3d9416c4	0.07230905

fc2.weight f4 [256, 256]
0	0xbbd36ff4	-0.006452555
1	0x3cd2df04	0.025741108
2	0xbda6b130	-0.081392646
3	0x3c9704b2	0.018434856
4	0x3cac7892	0.021053586
5	0xbd498e7a	-0.049208142
6	0xbd649e2e	-0.055814914
7	0xbdbfbd11	-0.093622334
8	0xbd67b51d	-0.056569207
9	0x3d1015f3	0.035177182
10	0xbdae85ad	-0.085215904
11	0x3d11f0ee	0.03563016
12	0xbcf237ab	-0.02956756
13	0x3caf77e8	0.02141948
14	0xbdb435ed	-0.08799348
15	0x3ce5b008	0.02803804
16	0xbd6c57fe	-0.057701103
17	0xbcd0ed80	-0.025503874
18	0xbd05d600	-0.03267479
19	0x3d1a672d	0.037696052
20	0xbd983f37	-0.07433932
21	0xbcedd84a	-0.029033799
22	0xbbdad79e	-0.0066785356
23	0xbd25c57d	-0.040471543
24	0xbd3187df	-0.043342467
25	0x3c9c0e85	0.019049892
26	0xbd0d04c7	-0.034428384
27	0xbda37842	-0.07981922
28	0x3c82f70a	0.015986938
29	0xbba76d5f	-0.0051094736
30	0xbd8f08c8	-0.06984097
31	0xbcbd31bb	-0.023095002
32	0x3d2b0833	0.041755866
33	0x3cb9df5d	0.022689516
34	0x3cf7e80a	0.030262012
35	0x3a9f2443	0.0012141544
36	0x3c7bb6b4	0.015363384
37	0x3cd1fbff	0.025632856
38	0x3dc2b48e	0.09507094
39	0x3c3670c1	0.011135281
40	0xbc80e87e	-0.01573586
41	0xbc099596	-0.0083974805
42	0x3afaeeea	0.0019144688
43	0x3d24ba2f	0.04021662
44	0xbdc4b549	-0.0960489
45	0xbd3bce36	-0.045850955
46	0xbd772936	-0.060342036
47	0x3d34a5d9	0.044103477
48	0x3d7f2fa0	0.062301278
49	0x3d162522	0.036656506
50	0x3cac2fc3	0.021018868
51	0xbcd2bccb	-0.02572479
52	0x3bf80180	0.007568538
53	0xbcddc5cc	-0.027071856
54	0xbceaf6e8	-0.028682187
55	0x3c09267a	0.00837099
56	0x3bc8a1e3	0.006122814
57	0xbd391bf6	-0.04519268
58	0xbd664ded	-0.05622666
59	0xbc33fe1a	-0.0109858755
60	0xbc28094e	-0.010256125
61	0x3c5577c9	0.013029047
62	0xbc65bd4f	-0.0140221855
63	0x3cd0b221	0.025475563
64	0xbc8157ec	-0.015788995
65	0xbd744712	-0.05963809
66	0xbd1f3719	-0.038870905
67	0x3c9c2d40	0.019064546
68	0xbd23fcf2	-0.04003615
69	0x3c653bc7	0.013991303
70	0xba6ec016	-0.00091076025
71	0xbd5a9b2c	-0.05337064
72	0x3c8432f6	0.016137581
73	0xbca27933	-0.019833183
74	0x3c151b84	0.0091007985
75	0x3d06450d	0.032780696
76	0x3c21a915	0.009866972
77	0xbc46cfcf	-0.012134506
78	0xbdbfaa7e	-0.09358691
79	0x3d2484d3	0.040165734
80	0x3d0eca7e	0.03486108
81	0x3d0c67f7	0.034278836
82	0xbc980839	-0.018558608
83	0xbd98c998	-0.07460326
84	0x3a8fefa5	0.0010981454
85	0xbcbdc45a	-0.023164917
86	0xbd87d415	-0.06632248
87	0xbd6a3486	-0.057178997
88	0xbcfe572a	-0.031047422
89	0x3d4ef49e	0.050526254
90	0x3d65726f	0.056017336
91	0xbcd53c1c	-0.026029639
92	0xbdaafbed	-0.08348832
93	0xbbfd3488	-0.0077272095
94	0x3d3b14b2	0.045674033
95	0x3d57132f	0.05250853
96	0x3ca6cfde	0.02036279
97	0xbd4ad00c	-0.049514815
98	0xbd716899	-0.058937643
99	0xbcb948b3	-0.022617674
100	0xbdacf808	-0.08445746
101	0xbd5a098e	-0.05323177
102	0xbba73009	-0.005102162
103	0x3d0ebc9b	0.034847837
104	0xbb07c7eb	-0.0020718526
105	0x3b168f57	0.002297362
106	0x3d11a64d	0.035558987
107	0xbd39394e	-0.045220666
108	0xbd10ffe0	-0.03540027
109	0x3c0b88b4	0.008516479
110	0xbd412978	-0.04715869
111	0xbd8a8b02	-0.06764795
112	0x3d26ec2a	0.040752567
113	0x3c930643	0.017947322
114	0xbd3ca90e	-0.04605966
115	0x3d30def5	0.04318138
116	0xbd9e4d56	-0.077295944
117	0x3c809336	0.015695196
118	0xbd149fc2	-0.03628517
119	0xbd279f94	-0.04092367
120	0x3c390d85	0.011294727
121	0x3a34f7fc	0.00069034076
122	0x3c9aa16e	0.018875804
123	0x3d565e8c	0.05233626
124	0xbd278aab	-0.04090373
125	0x3bc78aa4	0.0060895253
126	0xbd85af72	-0.06527604
127	0xbce8d4a9	-0.028421717
128	0x3b183bc9	0.0023228994
129	0xbc5b3b23	-0.0133807985
130	0x3c4868d1	0.012232021
131	0x3cfd20d1	0.030899437
132	0xbd46ee25	-0.048566956
133	0xbc96540b	-0.018350622
134	0x3c831d08	0.016005054
135	0xbd62544c	-0.055256173
136	0x3ae4e1a7	0.0017462269
137	0xbca56a25	-0.020192215
138	0x3ca51052	0.020149384
139	0x3c4a82b2	0.012360262
140	0xbdb961aa	-0.09051831
141	0xbd878ceb	-0.06618675
142	0xbc2e177f	-0.010625719
143	0x3d2799bf	0.040918108
144	0xbd5066dd	-0.050879348
145	0xbd86e41d	-0.06586478
146	0xbd843bd4	-0.06456724
147	0x3c88b441	0.016687514
148	0xbc765fc3	-0.01503748
149	0xbd4d846f	-0.050175127
150	0xbcbf1211	-0.023324044
151	0x3d00a889	0.031410728
152	0x3d764716	0.060126387
153	0xbd387555	-0.04503377
154	0xbd856a7e	-0.065144524
155	0xbc252f27	-0.010082043
156	0x3d557313	0.052111696
157	0xbcabfb8e	-0.020993974
158	0x3cb6f871	0.022335263
159	0x3b9706bd	0.0046089576
160	0xbd9ecd64	-0.07754019
161	0xbd136ab3	-0.03599043
162	0xbd69baf9	-0.057063077
163	0xbc6b2bca	-0.014353702
164	0xbd7896fa	-0.060690857
165	0xbd03cc5c	-0.032177314
166	0xbd2c91b5	-0.042131145
167	0x3b35ce2f	0.0027741303
168	0xbcc2f95e	-0.023800548
169	0xbd5692be	-0.052386038
170	0x3b080f87	0.0020761208
171	0x3d370d92	0.044690676
172	0x3d4141ce	0.047181897
173	0x3d08cb24	0.033396855
174	0x3cbeba56	0.023282211
175	0xbd6b5299	-0.05745182
176	0xbda9cae4	-0.082906514
177	0xbc90117c	-0.017586462
178	0xbd95910c	-0.07303056
179	0x3cbfc525	0.023409436
180	0x3c191376	0.009343019
181	0xbab7999f	-0.0014007575
182	0xbcdef6cf	-0.027217297
183	0xbda13156	-0.07870738
184	0x3d3883e6	0.045047663
185	0xbd9dfd23	-0.077142976
186	0x3bcb5384	0.006205024
187	0x3d13642c	0.035984203
188	0xbd212a56	-0.039347015
189	0x3d49fd88	0.049314052
190	0xbd75eaac	-0.060038254
191	0xbdbfd102	-0.09366037
192	0xbd07abce	-0.03312283
193	0x3c69e0c8	0.014274783
194	0xbd47fbfe	-0.048824303
195	0xbd9535c1	-0.07285643
196	0xbd04dbc4	-0.032436147
197	0x3c9391e3	0.0180139
198	0xbc811bfe	-0.015760418
199	0xbd294ddb	-0.041334014
200	0xbdb580cb	-0.08862456
201	0x3c807291	0.01567963
202	0x3bd3a34b	0.006458675
203	0xbd39340e	-0.04521566
204	0x3c982ab4	0.01857505
205	0x3cf7dbd6	0.030256193
206	0xbda27df9	-0.079341836
207	0x3cbcd4a4	0.023050614
208	0xbbdd314f	-0.006750263
209	0xbd372778	-0.044715375
210	0xbd6685c8	-0.056279927
211	0xbd52a00e	-0.05142217
212	0x3c497b85	0.012297516
213	0x3bd1ccbf	0.0064025815
214	0x3d7eace8	0.062176615
215	0xbc1783e8	-0.0092477575
216	0xbb201bf9	-0.0024430736
217	0xbcdf93a7	-0.027292086
218	0xbd8b614b	-0.068056665
219	0xbd01d4e5	-0.031697173
220	0x3cb97881	0.022640469
221	0x3d9a3f57	0.07531612
222	0xbd8baab5	-0.06819669
223	0xbd9846c1	-0.0743537
224	0x3d189379	0.037250016
225	0xbccac47e	-0.024751898
226	0x3cdc1d67	0.026869489
227	0x3cbf024e	0.023316529
228	0x3b10eebd	0.0022114955
229	0xbc8b0c98	-0.016973779
230	0xbc33c9b2	-0.010973381
231	0x3c8c7f4a	0.01715054
232	0xbd95b65c	-0.07310173
233	0xbc4f379c	-0.012647536
234	0x3c189522	0.0093129
235	0xbdae1953	-0.08500924
236	0xbd3e5757	-0.046470013
237	0xbd810d61	-0.0630138
238	0x3b1e6967	0.0024171711
239	0xbce4bd38	-0.027922258
240	0xbd6b8494	-0.057499483
241	0xbd5ca152	-0.053864785
242	0xbd1b6ace	-0.037943654
243	0xbd17ff2d	-0.03710859
244	0xbd6408a0	-0.055672288
245	0xbd9aac89	-0.0755244
246	0x3d30f179	0.043199036
247	0xbc854d2b	-0.016272148
248	0xbcd08845	-0.025455603
249	0x3d3ff22a	0.046861805
250	0x3d5e47fd	0.054267872
251	0x3d772eaa	0.060347237
252	0x3cabc0ea	0.020966012
253	0x3a8d9de7	0.0010804505
254	0xbcf5f0d7	-0.030022068
255	0xbc84d05f	-0.01621264

fc2.bias f4 [256]
0	0xbb3d7323	-0.0028907738
1	0x3d164190	0.03668362
2	0x3d21b114	0.039475515
3	0xbd5a7cb1	-0.05334157
4	0xbcf0ed51	-0.029410036
5	0x3caf883d	0.021427268
6	0x3d9dccf5	0.07705108
7	0xbc4a68b2	-0.012354063
8	0x3c6ca087	0.01444257
9	0x3cc87ce0	0.024473608
10	0xbd8dee5e	-0.069302306
11	0x3d5aaeb3	0.053389262
12	0x3da16599	0.07880706
13	0xbccd165f	-0.025035081
14	0x3ce9b577	0.028528912
15	0xbbc19ebe	-0.005908816
16	0xbc3ff9a8	-0.0117172375
17	0x3cd80eea	0.0263743
18	0xbb3933ef	-0.0028259715
19	0x3cae335d	0.021264726
20	0x3d8bdc5f	0.06829142
21	0x3bf2d9a0	0.007411197
22	0xbd6b592a	-0.05745808
23	0xbba72377	-0.0051006633
24	0xbd0385cd	-0.032110024
25	0xbd5dba76	-0.0541329
26	0xbd34f4ea	-0.04417888
27	0xbd373d11	-0.04473597
28	0x3da7f25d	0.08200524
29	0x3c131ed7	0.008979521
30	0xbc3e8ab8	-0.011629753
31	0xbcb4c3f5	-0.022066096
32	0xbd3f5ab1	-0.04671735
33	0x3e20c1e6	0.15698966
34	0x3ca467ef	0.02006909
35	0xbd5c86fe	-0.053839676
36	0x3bd00b03	0.006348969
37	0xbd4a8a5d	-0.04944836
38	0x3d581442	0.052753694
39	0x3b38c7e8	0.0028195325
40	0x3cb890e4	0.022530027
41	0x3d079286	0.03309872
42	0xbd867d59	-0.06566877
43	0x3cec5c60	0.028852642
44	0x3b4af027	0.0030965896
45	0xbd129f24	-0.0357963
46	0xbcf67a98	-0.030087754
47	0x3d84b345	0.064795054
48	0x3d786361	0.06064165
49	0x3d85b155	0.06527964
50	0x3cd4a616	0.025958102
51	0xbce39e9b	-0.02778559
52	0x3c9ebca3	0.019377058
53	0xbd0c3c6c	-0.03423731
54	0x3d0080fe	0.031373017
55	0xbd1dfb96	-0.03857001
56	0x3d74c1c7	0.059755113
57	0x3ca07cf9	0.019590842
58	0xbd8a91f4	-0.067661196
59	0x3ab90b8d	0.0014117822
60	0xbd30cc4c	-0.043163583
61	0x3d226353	0.039645504
62	0x3d015bdf	0.031581756
63	0xbd10024c	-0.03515844
64	0xbd587d2c	-0.05285375
65	0xbc81418f	-0.015778331
66	0x3cbe601d	0.02323919
67	0x3d71389d	0.05889188
68	0xbd04e476	-0.03244444
69	0x3dd30901	0.10304452
70	0xbd8d933b	-0.069128476
71	0x3c01bd96	0.007918736
72	0xbd30185e	-0.04299199
73	0x3dc830c7	0.097749285
74	0xbcc226be	-0.023700114
75	0x3cd7f304	0.026360996
76	0x3bc31ca0	0.00595434
77	0xb95007e7	-0.0001983937
78	0x3cc1d888	0.02366282
79	0xbccee740	-0.025256753
80	0xbbfcd8cb	-0.0077162734
81	0x3cd3f979	0.025875794
82	0x3d1545e3	0.036443602
83	0xbd22b670	-0.039724767
84	0x3e2c79d2	0.16843346
85	0xbdb21def	-0.08697116
86	0xbb4d7671	-0.0031351114
87	0xbd072e4e	-0.033003144
88	0x3c75f3c7	0.015011734
89	0xbd385b8b	-0.045009177
90	0xbc50c36e	-0.012741907
91	0xbc5c6c7c	-0.013453599
92	0x3d86a2e4	0.06574038
93	0xbd3c2aaf	-0.045939144
94	0x3d11fc37	0.03564092
95	0x3d235996	0.039880358
96	0xbda3a9d1	-0.07991374
97	0xbcac06e2	-0.020999376
98	0xbcaff6c1	-0.021479966
99	0xbc7eb9bb	-0.015547211
100	0xbd63f500	-0.055653572
101	0xbcc4a4ce	-0.024004366
102	0x3d0011ca	0.031266965
103	0x3cbb7f6b	0.022887906
104	0xbd991543	-0.074747585
105	0xbb6ba4fd	-0.0035956495
106	0x3dc8c8da	0.098039344
107	0x3de35790	0.111006856
108	0x398525c3	0.00025395871
109	0x3cb11227	0.021615101
110	0xbccc316f	-0.024925916
111	0x3d04ce60	0.032423377
112	0x3ce432e8	0.027856305
113	0x3d24d919	0.040246103
114	0xbd13202d	-0.035919357
115	0x3dd868f6	0.10566895
116	0x3cd7ce5e	0.02634352
117	0x3d5581fd	0.05212592
118	0xbd1e1b3a	-0.038600184
119	0x3cac0b41	0.02100146
120	0xbce9f1c9	-0.028557675
121	0x3c8ed1d4	0.017434038
122	0x3c2abee0	0.010421485
123	0xbd0c43a0	-0.03424418
124	0xbce9badf	-0.02853149
125	0x3dcc54ce	0.09977113
126	0x3cb91121	0.022591176
127	0xbc64a99c	-0.013956454
128	0x3dc57ae8	0.09642583
129	0xbc5aff54	-0.013366539
130	0xbd8a766e	-0.0676087
131	0x3ccfcce9	0.025366263
132	0x3e3cc7b1	0.18435551
133	0x3b3498b1	0.0027556831
134	0xbd21a66b	-0.03946535
135	0x3d462fc5	0.0483854
136	0xbd82d1ba	-0.063876584
137	0xbbfc28fd	-0.007695316
138	0xbd04e43d	-0.032444227
139	0x3d4dcb2f	0.0502426
140	0x3b329d72	0.002725449
141	0xbd9208a0	-0.07130551
142	0xbca0ae7a	-0.019614447
143	0xbcf80e33	-0.030280208
144	0x3cf4f8ee	0.029903855
145	0x3d4a7571	0.049428407
146	0x3d260eac	0.040541336
147	0x3d6cdb7c	0.057826504
148	0x3d02735a	0.03184829
149	0x3def5553	0.11686196
150	0x3c7a5be2	0.015280696
151	0xba5778ae	-0.0008219582
152	0xbd6ec9e5	-0.05829801
153	0x3d6bd3a8	0.057574898
154	0xbc95f5a5	-0.018305609
155	0xbd3e72f4	-0.046496347
156	0xbcb9ee3a	-0.022696603
157	0xbd39a979	-0.045327637
158	0xbc04b826	-0.008100545
159	0xbc93f84a	-0.01806273
160	0x3d3c7081	0.04600573
161	0x3d44fe64	0.04809417
162	0x3bc5d0d5	0.0060368576
163	0x3dd83ee2	0.10558869
164	0xbb9d27aa	-0.004795988
165	0xbbf35cfa	-0.007426855
166	0xbd943242	-0.072361484
167	0xbd56e56d	-0.05246489
168	0xbd698c59	-0.05701861
169	0xbd3dab5b	-0.046305995
170	0x3c405605	0.011739259
171	0xbd74b767	-0.05974522
172	0x3c67af02	0.014140846
173	0xbcefde5c	-0.029280834
174	0x3d714d0f	0.05891138
175	0x3d0ad706	0.03389647
176	0xbd6f9390	-0.058490336
177	0x3b21c02e	0.0024681198
178	0x3d352f50	0.044234574
179	0xbd067b13	-0.032832216
180	0xbd7d70f6	-0.061875306
181	0xbd3641c2	-0.044496305
182	0xbcd7a0be	-0.026321765
183	0xbd894b23	-0.06703784
184	0xbd7304d9	-0.059330795
185	0x3d21ebd1	0.039531533
186	0x3d87294e	0.06599675
187	0x3dc1135a	0.09427519
188	0xbbd3f99a	-0.006468964
189	0xbd9835a3	-0.074321054
190	0x3c0891a3	0.008335504
191	0x3b0c3a04	0.0021396885
192	0x3cd22b2c	0.025655352
193	0x3c03f3c9	0.008053728
194	0xbd156cd4	-0.03648074
195	0x3d24fe08	0.040281326
196	0x3d242bdf	0.0400809
197	0x3d41a8a0	0.047279954
198	0x3cbf14f3	0.023325419
199	0x3d9107ec	0.07081589
200	0x3d31933d	0.043353308
201	0x3c86b109	0.016441839
202	0x3dcafdf9	0.09911723
203	0x3b9f44c9	0.0048604948
204	0xbd8c96b6	-0.06864683
205	0x3d95590f	0.07292377
206	0xbd441a67	-0.04787674
207	0xbda71b2b	-0.08159479
208	0xbc99bcee	-0.018766847
209	0xbdacc071	-0.08435143
210	0x3be8b1cc	0.007101273
211	0xbd864d71	-0.065577395
212	0x3cc99f3d	0.024612064
213	0x3e4f6a31	0.20255353
214	0x3c940fbc	0.018073909
215	0x3c815fe0	0.015792787
216	0xb9e2701d	-0.0004318961
217	0xbcf6e566	-0.030138683
218	0x3d08a02f	0.033355888
219	0x3cc2ec93	0.023794448
220	0x3c5cff3c	0.013488587
221	0x3dbe1cf7	0.09282868
222	0x3d9769f0	0.07393253
223	0xbc4520ac	-0.012031715
224	0x3d1e1830	0.038597286
225	0x3cb31d5c	0.021864586
226	0x3d01cce6	0.031689547
227	0xbd0f7416	-0.035022818
228	0xbb4d2a1a	-0.0031305612
229	0xbcac2019	-0.0210114
230	0xbd8d4c98	-0.06899375
231	0x3d1c79f8	0.038202256
232	0xbb5d2aa0	-0.003374733
233	0xbd596d8f	-0.053083
234	0x3c23bf21	0.009994299
235	0x3cfac80d	0.03061297
236	0xbcba4069	-0.022735791
237	0xbcf5f2c1	-0.03002298
238	0xbd4b2ff7	-0.04960629
239	0xbbc49f45	-0.0060004317
240	0xbca0c59c	-0.019625477
241	0x3c8bc907	0.01706363
242	0xbcb2a106	-0.021805298
243	0x3d828f63	0.06375005
244	0x3dcfe73a	0.10151525
245	0xbd759258	-0.059954017
246	0xbd11cd52	-0.0355962
247	0xbd79baa6	-0.060969017
248	0xbd7abfeb	-0.061218183
249	0x3ce035c7	0.027369393
250	0x3c15087d	0.009096262
251	0xbd2fd5d9	-0.04292855
252	0xbd24089c	-0.040047273
253	0x3d60ba1f	0.054865
254	0xbdaa6f1b	-0.08321973
255	0xbd4238df	-0.047417518

fc3.weight f4 [5, 256]
0	0xbd2db589	-0.042409454
1	0xbdf8cf6d	-0.12148938
2	0x3b2fff14	0.002685492
3	0xbd00acc8	-0.031414777
4	0xbd5ad482	-0.05342532
5	0xbbcc02b6	-0.006225909
6	0x3d267316	0.0406371
7	0xbddb3f72	-0.107054606
8	0xbc375a10	-0.011190906
9	0xbda1b09d	-0.078950144
10	0xbd4112fa	-0.047137238
11	0x3d3d6366	0.04623737
12	0xbc878b78	-0.016545996
13	0xbcfb8339	-0.03070222
14	0xbdcbc73d	-0.09950111
15	0xbc9239c1	-0.017849805
16	0xbac7528e	-0.0015207098
17	0xbd28e355	-0.041232426
18	0x3d88a4fa	0.06672092
19	0x3c228129	0.0099184895
20	0xbd8314d5	-0.06400458
21	0xbd2ec275	-0.042665917
22	0xbcbc2cb9	-0.022970544
23	0xbd4bfb97	-0.04980048
24	0xbd15da06	-0.036584876
25	0x3cdea224	0.027176924
26	0xbc765804	-0.015035633
27	0xbba3106c	-0.004976323
28	0xbc8b809c	-0.0170291
29	0xbd99e28f	-0.07513916
30	0x3d9676cf	0.0734688
31	0x3d29222b	0.04129235
32	0xbd0b3ac4	-0.03399159
33	0x3d9f15e5	0.07767848
34	0xbba93db8	-0.005164828
35	0x3d091948	0.033471376
36	0x3d867593	0.06565394
37	0xbc9ca0e4	-0.019119687
38	0xbc2153f9	-0.009846681
39	0xbd9da1a4	-0.07696846
40	0xbae3c1e2	-0.0017376507
41	0xbbbf7e53	-0.0058439164
42	0xbcbb054b	-0.022829672
43	0xbde46055	-0.111511864
44	0xbb1a65cf	-0.0023559218
45	0x3d108615	0.03528412
46	0xbce82172	-0.02833626
47	0xbcc6c6df	-0.024264751
48	0x3dc49421	0.09598566
49	0x3d8ca723	0.06867816
50	0x3d79cf6f	0.06098884
51	0xbd47214a	-0.04861573
52	0xbd7ed209	-0.062212024
53	0xbca2c1f1	-0.01986787
54	0x3c0eacf8	0.008708231
55	0x3b225351	0.0024768899
56	0x3d4a96d6	0.049460255
57	0xbd3bf5d3	-0.045888733
58	0xbd0e23f2	-0.03470225
59	0xbda19efa	-0.078916505
60	0xbb744a02	-0.0037275557
61	0xbcb28a19	-0.021794366
62	0xbcf02ba1	-0.029317679
63	0xbcfd46b7	-0.030917509
64	0x3d250dab	0.040296238
65	0xbcc7ed5a	-0.02440517
66	0x3b951ca1	0.004550532
67	0x3cc00864	0.023441501
68	0xbc839e77	-0.016066773
69	0x3d8d00bd	0.068849064
70	0xb9dabfa5	-0.00041722986
71	0xbd04f892	-0.032463618
72	0xbdbf2fda	-0.09335299
73	0x3d9100b4	0.07080212
74	0xbc7738fa	-0.015089268
75	0xbc1a1c62	-0.009406181
76	0x3c6bf2bc	0.014401134
77	0x3d1cc666	0.038275145
78	0xbd8ff50e	-0.07029162
79	0xbc64d91a	-0.013967777
80	0x3b573b80	0.0032841861
81	0x3d3d5ea4	0.046232834
82	0xbce8c871	-0.02841589
83	0x3ca647ed	0.020297969
84	0x3cc9d1ac	0.024636112
85	0xbd29c3e1	-0.04144657
86	0xbc9e6ee8	-0.019339994
87	0xbce26a77	-0.027638657
88	0x3cc29ddf	0.02375692
89	0x3ccf386a	0.025295455
90	0x3c2cc74c	0.010545563
91	0xbcac6a07	-0.021046652
92	0x3d0a05fc	0.033697113
93	0xbd31ea7b	-0.04343651
94	0xbca248a7	-0.019810034
95	0x3c563d30	0.013076112
96	0x3dac56ea	0.08415015
97	0x3d24dc0a	0.040248908
98	0x3c0ff891	0.00878729
99	0xbc9f597a	-0.019451845
100	0xbac8b2e6	-0.0015312105
101	0xbd8a1052	-0.06741394
102	0xbad93977	-0.0016572912
103	0x3df53075	0.11972133
104	0x3bfb804d	0.0076752068
105	0x3d9e0ca2	0.07717253
106	0x3d37cbbf	0.04487204
107	0x3da2cf03	0.079496406
108	0xbd33b07a	-0.043869473
109	0xbcb0c962	-0.021580402
110	0x3cb6cf27	0.022315575
111	0x3dc94ab7	0.09828704
112	0x3beff59a	0.007322979
113	0xbe08aa15	-0.13346131
114	0xbc000d98	-0.007815741
115	0x3d97262d	0.07380328
116	0x3d826eec	0.06368813
117	0x3cafc0af	0.021454183
118	0x3d8593b3	0.06522312
119	0xbc467953	-0.012113887
120	0x3cee7859	0.02911012
121	0xbc0ec426	-0.008713758
122	0xbc48489c	-0.012224343
123	0x3c971928	0.018444613
124	0x3d961924	0.07329014
125	0x3d3bef51	0.045882527
126	0xbd0859ae	-0.03328865
127	0x3c27e3c8	0.010247178
128	0x3db4b94f	0.08824407
129	0xbce9dd29	-0.02854784
130	0xbd837d68	-0.06420404
131	0xbd266824	-0.04062666
132	0x3dc24aa0	0.0948689
133	0xbbeee7ac	-0.007290801
134	0x3c8f495d	0.017491037
135	0xbda4138b	-0.0801154
136	0xbc8260a1	-0.015915217
137	0x3cae4570	0.021273345
138	0xbbb58e96	-0.005540679
139	0x3b5abe79	0.003337769
140	0xbcf5325a	-0.029931236
141	0xbd17d5ad	-0.03706901
142	0x3c713c20	0.014723808
143	0x3c8e7896	0.017391484
144	0x3d37d256	0.044878326
145	0x3d1e320c	0.038621947
146	0xbce91255	-0.028451124
147	0x3c36f4ef	0.011166795
148	0x3c0b47c9	0.008501002
149	0x3c50d5d9	0.012746298
150	0xbcb7022f	-0.022339908
151	0xbb853039	-0.0040645865
152	0x3d091783	0.03346969
153	0x3d9be0df	0.0761125
154	0xbc6b7b44	-0.0143726505
155	0x3d4452bb	0.04793046
156	0x3b4d9416	0.0031368784
157	0xbd6d7444	-0.057972208
158	0xbd565423	-0.052326333
159	0xbd070c83	-0.032970916
160	0x3c1912a0	0.009342819
161	0xbd084f4f	-0.03327876
162	0x3cbce986	0.023060571
163	0x3c427374	0.0118683465
164	0xbd79f12c	-0.061021015
165	0x3c0bf695	0.008542676
166	0x3ce0441a	0.027376223
167	0x3c065436	0.008198788
168	0x3ce72710	0.028216869
169	0xbcfc2794	-0.030780591
170	0x3cd9d768	0.026591972
171	0xbcc03047	-0.02346052
172	0x3d1a8523	0.037724625
173	0xbd12cda7	-0.035840657
174	0xbd5ba8e4	-0.053627864
175	0x3d627f78	0.055297345
176	0xbd3d0758	-0.04614958
177	0x3d85a528	0.06525642
178	0xbd776c03	-0.060405742
179	0x3c97fa12	0.01855186
180	0x3cf06cad	0.029348696
181	0xbcb4d2f4	-0.022073247
182	0xbcc7b94d	-0.02438035
183	0xbd23e3ed	-0.04001229
184	0x3cf8f5c6	0.030390631
185	0xbcaf17b9	-0.021373617
186	0x3bd46d2e	0.006482742
187	0x3dbd5e64	0.09246519
188	0x3d0db81a	0.0345994
189	0xbd3507db	-0.044196945
190	0xbb19397f	-0.0023380218
191	0x3cb64025	0.022247383
192	0xbc2562cd	-0.010094357
193	0x3cdd1af1	0.026990386
194	0xbcee1ee3	-0.029067462
195	0x3d8c27a5	0.06843499
196	0xbd843e43	-0.06457188
197	0xbd29d0de	-0.041458957
198	0x3dd1b72b	0.10240015
199	0x3baa6b08	0.0052007474
200	0x3dde89c6	0.10866122
201	0x3c24ce4f	0.010058953
202	0x3c2fc936	0.010729125
203	0xbce727f5	-0.028217295
204	0xbd1243f6	-0.035709344
205	0x3d39bcbb	0.045346003
206	0x3c868c30	0.016424268
207	0x3d77e838	0.060524195
208	0x3c11081d	0.008852032
209	0xbc55ec30	-0.0130568
210	0xbd01a5bc	-0.031652197
211	0x3ceac682	0.028659109
212	0x3cdd211c	0.026993327
213	0x3d8c6b7e	0.0685644
214	0xbd8fb364	-0.07016638
215	0xbda13160	-0.07870746
216	0xbd10481b	-0.035225015
217	0x3c00655d	0.007836667
218	0x3cc0be5a	0.023528267
219	0x3bb0221e	0.005375161
220	0xbd828a20	-0.063740015
221	0x3d7b903b	0.061416846
222	0x3d790623	0.060796868
223	0x3d538171	0.051637117
224	0x3d074209	0.03302196
225	0xbc21fdd5	-0.009887178
226	0x3dd1fc78	0.10253233
227	0x3cdf3c34	0.027250387
228	0xbd65b2ff	-0.056078907
229	0xbd5a5bd0	-0.053310215
230	0x3d298a49	0.041391645
231	0x3cbe25e7	0.023211433
232	0xbc059605	-0.008153443
233	0x3c7632c2	0.01502675
234	0x3ce5672c	0.028003298
235	0x3de0fb0d	0.10985384
236	0xbd78783b	-0.060661536
237	0xbd4d1d4c	-0.050076768
238	0xbd3a286b	-0.0454487
239	0xbcb5e737	-0.022204978
240	0xbcbe1bb3	-0.023206567
241	0xbdb31a34	-0.08745232
242	0xbce6c402	-0.028169636
243	0x3dd2acf6	0.10286896
244	0x3d8777ae	0.06614624
245	0x3d470db2	0.048597045
246	0x3c91ba7c	0.017789118
247	0x3d13a0a9	0.03604189
248	0xbd3e1d21	-0.0464145
249	0xbcf85dfd	-0.030318255
250	0x3c512b46	0.012766665
251	0x3cb55e25	0.022139618
252	0xbd44e4d4	-0.04806979
253	0xbc7e808c	-0.015533578
254	0xbd0cc159	-0.03436408
255	0xbd66b8df	-0.05632865

fc3.bias f4 [5]
0	0x3e1e5bd6	0.1546472
1	0x3dba0006	0.09082036
2	0x3e048a6b	0.12943427
3	0x3dc72495	0.09723774
4	0x3e003f0e	0.12524053
