Model/DQN/[S0]net_Q(param).pt (torch, 413410 bytes, 6 tensors)

fc1.weight f4 [256, 138]
000000 34 ac f2 bc 26 84 37 bc 71 21 a9 bd 87 eb 84 3d
       -0.029623128 -0.01120094 -0.082583316 0.06490236
000010 a8 ad ca 3b 2c c4 3c bd 9b 3e 2f bd 19 28 6a bd
       0.006185252 -0.04608552 -0.042784315 -0.057167146
000020 45 c1 43 bd 99 3d 74 3d 48 12 b2 3d 0e 2a 3a 3d
       -0.047791738 0.059629057 0.08694893 0.045450263
000030 c1 70 be 3d bf 83 4f bd a5 67 f1 3d 6c 46 96 3d
       0.0929885 -0.050662752 0.11787347 0.07337651
000040 92 66 69 bd 9f 9a 6f bd fd 72 7f 3c 8e 53 c9 bc
       -0.056982584 -0.058497068 0.01559138 -0.024575975
000050 fd 16 fc 3d 15 4b bf 3c bb 0c ca 3c 91 59 43 3d
       0.12309072 0.023351232 0.024664273 0.04769284
000060 f2 aa 44 3c aa 23 61 3d b5 6e 21 3c 6e 02 40 bd
       0.012003647 0.054965653 0.009853055 -0.046877317
000070 c0 74 b3 3d 2d ca c4 3c 30 23 05 bc 31 3c 40 bd
       0.08762503 0.024022186 -0.008126065 -0.046932403
000080 ab 06 5a 3d fc 3e ae 3a b0 7c f9 bc 16 e2 72 bc
       0.053229015 0.0013293917 -0.030454963 -0.014824411
000090 e7 50 fc 3c 33 10 01 bd 64 47 99 3d ec 03 ef bc
       0.030800296 -0.03150959 0.0748432 -0.029176675
0000a0 b0 2f 06 bd c3 10 6f bd 89 f1 1f bd 72 9e 60 3d
       -0.032760322 -0.058365595 -0.039048705 0.054838605
0000b0 0f 37 32 3d 65 89 4f bd 54 5f 9a 3c 4e 8d 5c 3d
       0.04350954 -0.05066814 0.018844284 0.053845696
0000c0 ef c5 d0 3d db 36 d4 3b a3 3d e0 bb ff 0a 04 3d
       0.10194003 0.006476266 -0.006843285 0.03223705
0000d0 87 45 57 3d f9 41 02 3d b0 aa ab ba 7e 21 f6 bc
       0.05255654 0.031801198 -0.0013097133 -0.030045267
0000e0 26 da 45 3e 97 16 00 3d 4e 82 55 bc 61 4d 65 3d
       0.19321498 0.031271543 -0.013031555 0.055981997
0000f0 1f 5e b4 3b 85 22 6f 3b 4d 40 d5 3d ad d1 81 bd
       0.005504384 0.003648908 0.10412655 -0.063388206
000100 97 9f a6 3d 68 68 85 3d fe fc 30 3b a3 6d c8 bc
       0.08135908 0.065140545 0.0027006264 -0.024466341
000110 b1 55 54 bd 0a eb 7f 3d 23 9b b7 bc bf dc 79 3c
       -0.051839534 0.06248001 -0.022412842 0.015250384
000120 45 e5 00 be ac 4b cc bd d3 bc 95 bb 98 5d 16 3d
       -0.1258746 -0.09975371 -0.0045696287 0.03671035
000130 ba b3 98 3b 35 f7 a9 3c 1e 75 33 be 88 84 27 bd
       0.004660097 0.02074776 -0.17525145 -0.040897876
000140 b2 fa 54 3d 60 30 ad bb 5b 54 72 bb 9d 8f 88 bc
       0.051996894 -0.0052853078 -0.003697655 -0.016670043
000150 f1 ae e8 3c 8d f3 92 bb 99 1f a7 bb cf 38 78 3d
       0.028403731 -0.0044846 -0.0051002023 0.060601052
000160 12 47 e8 bd 33 14 13 be b8 8b 01 3e 10 36 6f 3b
       -0.113416806 -0.14363174 0.12650955 0.003650073
000170 73 67 6e 3d ce f1 da 3d 73 e2 41 3e 53 d8 d8 bc
       0.058204126 0.10690652 0.1893404 -0.026470339
000180 36 2a be bc 14 7e 94 3d 65 f4 69 3d 5d 4d 60 3c
       -0.023213487 0.0725061 0.05711784 0.01369032
000190 e7 88 2e bb e3 ff 57 3e 13 e6 09 3d 2b de 2c bc
       -0.0026631893 0.21093707 0.03366668 -0.010551016
0001a0 35 6a 00 3c 9f 31 01 be 5b af 8e bd 14 4d b3 bd
       0.007837822 -0.12616585 -0.0696704 -0.08754936
0001b0 66 36 51 3d 5c 93 ba 3d 65 50 86 bc cc 2e 2a 3e
       0.05107727 0.09110138 -0.016395757 0.16619414
0001c0 ec 32 c6 3c 3e 6e ab 3d 4a 30 05 3e cf 05 41 bd
       0.024194203 0.083706364 0.13006702 -0.04712468
0001d0 9a 1d 6d 3d 54 ef d4 3d d0 6a 2b 3e 48 cd 81 bd
       0.05788956 0.10397211 0.16739964 -0.063379824
0001e0 41 e8 30 bc b7 4d 65 3e 4a 8d 2d 3d e7 15 4b 3d
       -0.010797561 0.22392927 0.042371072 0.049581435
0001f0 df 18 bd 3d 2b 84 f2 3d 14 a8 a3 bd 56 d5 a2 bd
       0.092332594 0.11841615 -0.07991043 -0.07950847
000200 ed be 12 be 65 9e 0c be c6 8a b6 bd 71 0a 71 bb
       -0.14330645 -0.13732298 -0.08913188 -0.0036779905
000210 5a 19 60 bd 70 b9 b0 bc 58 e1 26 3d f4 b2 3f 3d
       -0.054711677 -0.021572798 0.04074225 0.046801522
000220 31 eb 18 be 7b 98 81 bd c4 5f f5 3c 59 b3 0c ba
       -0.14933468 -0.063279115 0.029952891 -0.0005367301
000230 c2 f7 2c 3d db 02 7f bd 49 03 ad 3c e1 68 0f 3d
       0.042228468 -0.062258583 0.02111973 0.03501213
000240 40 c0 03 3d a2 5a 41 bd 28 af 0b 3d 6c 61 1e bd
       0.032165766 -0.047205575 0.03410259 -0.038667127
000250 68 fc 66 bd c1 c6 7a bc c5 f5 08 3d dc 82 a4 3d
       -0.056393057 -0.015306176 0.03343751 0.08032772
000260 2b 86 8a bb 3d a6 99 3c 2f 9a 74 3d ea c3 2a bc
       -0.00422742 0.018756026 0.059717353 -0.010422686
000270 5e 37 6e bd d5 fb 03 bd c4 ff ad 3d 46 e4 8f 3c
       -0.05815827 -0.032222588 0.08496049 0.017564904
000280 85 1d 9d 3d 73 63 1c 3b 92 04 97 3d bc 2a d0 bc
       0.07671646 0.0023862987 0.073739186 -0.025411002
000290 d4 ff 19 3d 88 0e d7 bc 03 b7 56 3d aa 79 86 3d
       0.037597492 -0.026252046 0.052420627 0.06566174
0002a0 43 3d 11 3d 21 53 9f 3c df aa 40 bd 7f 86 a2 3c
       0.035458814 0.019448819 -0.047037955 0.019839523
0002b0 13 9c 78 bd 1f f4 97 bd 06 f8 11 3d a5 b9 1e bc
       -0.06069572 -0.07419609 0.035636924 -0.009687816
0002c0 6a b7 ee 3c c0 16 c2 bd 0d 50 2a bc 3f 36 04 3c
       0.029140193 -0.094769955 -0.010395062 0.008069574
0002d0 48 69 c0 bc b1 8c 2e bd cb 05 35 bc 48 1b ec bd
       -0.023487702 -0.042614643 -0.011048744 -0.11528641
0002e0 d2 8a d2 3c c9 df 1e 3d 50 9a 02 3e f7 f8 b4 bb
       0.02570096 0.038787637 0.12754178 -0.005522843
0002f0 a9 7b db 3c 89 3b 98 bd 24 0f 72 bd a5 73 05 3c
       0.026792364 -0.074332304 -0.05909647 0.008145248
000300 f8 43 81 3c 55 9a 66 bc a4 88 f1 bd 34 e1 35 bb
       0.01577948 -0.014074882 -0.1179364 -0.002775264
000310 aa 14 9a bd a0 64 d2 bd da fe 3b be 7c ed d5 bd
       -0.075234726 -0.10273099 -0.18358937 -0.10445687
000320 d1 53 58 be ff 66 3d 3d 7e 40 06 3d a6 24 a8 3d
       -0.21125723 0.046240803 0.03277635 0.08210115
000330 e2 5b 4b 3a e6 f7 cf 3d fe 6d 10 bd 79 20 07 3b
       0.0007757527 0.10154705 -0.035261147 0.002061872
000340 18 a3 1d bc d5 35 3c be 95 1f b3 bd 06 23 ce bd
       -0.009621404 -0.1837991 -0.08746258 -0.10065274
000350 c8 8d 10 be be 37 5f 3d 48 11 26 bd 90 a5 b2 bd
       -0.14116585 0.05449652 -0.040543824 -0.08722985
000360 47 f1 50 3e 87 95 20 3e f5 99 8a 3d 88 80 15 be
       0.2040454 0.1568204 0.06767646 -0.14599812
000370 ca e0 64 bd e9 47 8a 3d 6b 8a 35 3e 38 8e 72 3e
       -0.055878438 0.06751997 0.17728584 0.23687065
000380 56 5e a0 3e cf aa e7 3d 14 7e 0a 3d 99 af 67 3e
       0.31321973 0.11311876 0.033811644 0.22625579
000390 b2 39 a5 bd 5d 1f 08 3e 94 d0 78 3d 7f 13 11 3e
       -0.08067645 0.13293214 0.06074579 0.14167593
0003a0 73 21 22 3d 13 4d 27 3e 2c e6 ce 3c a6 d0 85 be
       0.03958268 0.16337995 0.025256239 -0.2613575
0003b0 25 6a 15 bd 2c f6 18 3e 6f 2b b5 3d 64 4c 5a 3b
       -0.03647818 0.14937657 0.08846175 0.0033309693
0003c0 99 a5 90 3c fd 3d cd 3d 8c fe fd bd 00 66 13 bc
       0.017657088 0.10021589 -0.124020666 -0.008996487
0003d0 2e d1 b7 3c 1f fe 22 be cc 5e 50 be b3 ce 4f bd
       0.022438612 -0.15917252 -0.20348662 -0.050734233
0003e0 6f 51 ae 3d 70 2e 58 be b5 b0 0a 3d ae af e0 3c
       0.08511626 -0.21111465 0.033859927 0.02742752
0003f0 29 e8 cb bd e3 b2 1e be 84 35 8e be f6 16 d5 bd
       -0.099563904 -0.15497927 -0.27775204 -0.1040477

fc1.bias f4 [256]
000000 fe 6b a9 3c 65 b4 46 bd d2 a1 fa 3c c1 be 0c bc
       0.020681378 -0.04851188 0.03059474 -0.008590401
000010 0b ed bd bd be 40 d3 3b d8 9b d2 bc b9 27 e9 bc
       -0.09273728 0.006446927 -0.025709078 -0.028461324
000020 10 7d 43 bd f5 18 dd bc 99 84 05 3c ea d4 50 bd
       -0.04772669 -0.02698944 0.0081492895 -0.0509843
000030 2b f4 f5 bc 50 a1 a6 bc 2c b0 50 3d 80 d1 c1 bc
       -0.030023655 -0.020340592 0.05094926 -0.023659468
000040 04 f9 dd bc b1 37 0c 3d 33 8a c6 bd 26 85 b3 3c
       -0.027096279 0.0342328 -0.09694328 0.021914076
000050 a9 87 de bc 61 cf b2 3c 34 e4 9b bd 2c 5f 0b 3d
       -0.027164297 0.021827402 -0.07611886 0.03402631
000060 17 e2 5c bd 70 6f 98 3d 60 84 8d bd 06 76 9e bc
       -0.053926554 0.0744313 -0.06910014 -0.019343387
000070 70 1b 1c 3d 8b 38 7b 3d cd 30 53 bd 11 c4 c8 3d
       0.038112104 0.06133322 -0.051560212 0.09803022
000080 bb d1 95 3d 93 39 51 bc 12 2b 20 3d ef b7 86 bd
       0.073153935 -0.012770074 0.039103575 -0.06578051
000090 d3 1e b6 bc ce fa c6 3c 78 df e4 bb c6 ac 77 3c
       -0.022231495 0.024289515 -0.0069846474 0.015116876
0000a0 ed d8 61 bd 86 a2 45 bd 65 74 2d bd 6c fc b1 3c
       -0.055138517 -0.048250698 -0.04234733 0.02172681
0000b0 c1 ff 56 3d 10 cc ca 39 15 e7 45 3c 86 8c cb 3b
       0.05249 0.0003868048 0.01207902 0.00621182
0000c0 f6 2f fb bc 8e 10 42 bd c8 39 76 3d 02 ef b0 3d
       -0.030662518 -0.04737907 0.0601137 0.08639337
0000d0 d4 da 3e bd a0 df 81 bd eb 27 88 3d 69 d2 36 3d
       -0.04659541 -0.06341481 0.06648239 0.044634257
0000e0 a7 12 85 bd 70 0d cc 3d f6 39 69 bc 87 b3 f7 bc
       -0.06497698 0.099635005 -0.01423501 -0.030236972
0000f0 7e a7 6b 3d c8 e1 04 bb 6e 80 59 bd 1b 95 1b 3d
       0.05753278 -0.0020276178 -0.053100996 0.037983995
000100 46 07 62 ba 84 13 27 bd 37 94 5b bd 1e cf 0d 3d
       -0.00086222996 -0.040790096 -0.053608146 0.03462135
000110 4c 24 79 3d 34 ee 5c bd cc ee e6 bc 83 e7 64 3b
       0.06082563 -0.053938106 -0.02819004 0.003492803
000120 3a 73 32 bd b2 a3 a0 bc b8 ab 1d bd 96 3c 03 bd
       -0.04356692 -0.019609306 -0.038493842 -0.0320402
000130 d6 9d 71 3c 68 bb 8b bd 6d c1 07 bd 55 7f 4f 3d
       0.014747104 -0.06822854 -0.03314345 0.050658543
000140 cf ac ac 3d 29 67 11 bd 91 2d 2c bc 92 f0 7d bd
       0.08431398 -0.03549877 -0.010508911 -0.061997004
000150 51 64 99 bd a4 fc 6a 3d 68 88 96 3d cb eb 52 3c
       -0.07489837 0.057369843 0.07350236 0.0128736
000160 94 91 80 3d d2 29 19 bb 38 62 00 bd 3b 07 15 3d
       0.06277767 -0.0023370874 -0.03134367 0.03638385
000170 fa c7 dd ba 9c 62 0e bd 2c 3e 4f 3c fd d5 73 bd
       -0.001692056 -0.03476201 0.0126491 -0.059530247
000180 37 44 a3 bc 40 8b 56 bd 73 d3 1a 3d 5b 33 76 bc
       -0.019929988 -0.052378893 0.03779931 -0.015026893
000190 71 f4 51 3c aa f6 94 bb 85 a3 be 3d 10 d3 58 bc
       0.012814627 -0.004546006 0.093085326 -0.013233915
0001a0 75 10 4b bc 43 86 6b bc ef 6e 81 3b c1 ae af 3c
       -0.01239406 -0.014375272 0.003949992 0.021445634
0001b0 ee 5d 11 bd f6 77 8b bd f0 2f 97 bb d8 a3 d7 bc
       -0.03548997 -0.0680999 -0.004613869 -0.026323244
0001c0 d2 4f ab 3c b6 5b 5a bd f2 ce 99 bd cc 2f 6e 3d
       0.020912085 -0.05331012 -0.07510175 0.05815105
0001d0 eb 9b 28 bd f6 f3 7f 3d 5e 30 71 bc 6e f7 f1 3c
       -0.04116432 0.06248852 -0.014721004 0.029536929
0001e0 5a 51 19 3c 96 21 b1 3d 41 51 a1 bc 49 ca 3f 3d
       0.009357775 0.08648984 -0.019692065 0.046823774
0001f0 7f 03 20 bc 6b 4e ba bd 36 07 bd bc 2c 0f b2 bd
       -0.0097664585 -0.09096988 -0.023074728 -0.086943
000200 01 67 d0 bd 18 49 6e 3c 90 1e 82 bb 49 42 f5 3a
       -0.101758964 0.014543794 -0.0039709285 0.0018711771
000210 9e 1d 9f bb 8d af f9 3c ee ed 8a 3c f9 79 c3 3d
       -0.0048558256 0.030479217 0.016959157 0.09544749
000220 85 2e be 3c fd 67 17 3d 7a 15 62 bd 83 fe b7 3d
       0.023215542 0.036964405 -0.055196263 0.08984091
000230 08 57 73 bb c6 18 42 bd 47 ab 0b bb c1 70 3c 3c
       -0.0037130732 -0.047386907 -0.0021311806 0.011501492
000240 ad fc 66 3d 13 00 f2 bc d2 ed a4 ba 62 cc a3 bd
       0.056393314 -0.029541051 -0.0012583083 -0.07997967
000250 3f 6c 29 bd cd b8 72 bd 64 fa a7 3c ab 19 b8 bc
       -0.041362997 -0.05925827 0.020505138 -0.022473177
000260 1f 4f c7 bc bc 27 a6 bd 68 bf ba bd 3f 56 f8 3c
       -0.02432972 -0.081130475 -0.09118539 0.030314563
000270 78 3a 2e bc 61 e2 80 bc 7b b5 2a bc 33 21 a7 3d
       -0.010634057 -0.015732946 -0.010419245 0.08160629
000280 df d6 fa ba ad 0b 97 bc 62 58 08 3d 8a 30 37 3d
       -0.0019137523 -0.018438185 0.033287413 0.044724025
000290 70 6f 9d 3d 82 75 f7 bc fd 58 ed bc 2a 81 a0 bc
       0.07687271 -0.0302074 -0.028973097 -0.01959284
0002a0 36 15 7e 3d 63 ce 91 3d 3c 20 b5 bd a9 05 8d bd
       0.062031947 0.07119443 -0.08844039 -0.06885845
0002b0 95 60 8b 3b 6c 61 f7 bc 9c 6f 82 3c a5 e6 09 3e
       0.004253457 -0.030197822 0.01592236 0.1346689
0002c0 34 08 68 3d 51 20 41 3d fd 8b 06 3d 14 a5 a4 bd
       0.056648448 0.04714996 0.032848347 -0.08039299
0002d0 90 74 be bc 2b 75 46 bd f9 25 e7 bc 1a 5f 9e bd
       -0.02324894 -0.048451584 -0.028216349 -0.07732983
0002e0 8a 85 3c bd a6 d6 b0 bd fc 7a 83 bd ca dc b7 3b
       -0.04602579 -0.08634691 -0.06419942 0.005611037
0002f0 b4 22 b7 3c 52 d4 99 bc 14 2b e6 bc 60 39 f4 3b
       0.022355415 -0.018778 -0.028096713 0.0074531287
000300 3b 08 ad bd 60 3a 3a 3d 81 24 a0 3d d7 e0 91 3d
       -0.084488355 0.045465827 0.078194626 0.07122963
000310 a9 68 21 bd 3f 3d 81 3d f6 0b b9 3c d4 0a 99 bd
       -0.039406452 0.0631051 0.022588711 -0.074727684
000320 fa da e7 3a 1d c4 9e bd cb 96 46 3d 91 5b 86 bc
       0.0017689161 -0.077522494 0.04848365 -0.016401084
000330 86 a4 cb 3c ae 9f a1 bc 6b 76 d3 bd e2 53 a7 bd
       0.024858724 -0.019729462 -0.10325321 -0.08170296
000340 8c 7d 0d bd 6c d6 f4 3c ab be 0d bd b0 c8 8f bc
       -0.03454356 0.0298874 -0.034605663 -0.01755175
000350 b4 0d 19 bc d7 e5 66 3d a0 d3 28 bd 2d c9 e2 3b
       -0.009341646 0.056371536 -0.041217446 0.0069209547
000360 6d 9e c4 3b 3b c9 e8 3b 1a e4 a9 bd ed da 9b bd
       0.006000331 0.0071040667 -0.0829546 -0.07610116
000370 dd d6 12 bd af 97 92 bd 7e 0e dd 3c 3b ba 40 bd
       -0.03584944 -0.071578376 0.02698445 -0.047052603
000380 d8 27 d1 3c 72 b2 43 3d 66 b3 bf 3d 50 04 9c 3d
       0.025531694 0.0477776 0.093603894 0.0761801
000390 f6 37 eb 3c 87 fa b3 bd dc 7e da 3d 0a 8f 64 bd
       0.028713208 -0.08788019 0.10668728 -0.055800475
0003a0 88 5d 6a 3b 98 91 88 3c bb 57 dc bc ae 3e 7e bc
       0.0035761315 0.016670987 -0.026897302 -0.015517874
0003b0 95 de 62 bd 0b 47 49 3c ea e7 1a 3d d7 d8 4d bd
       -0.055388052 0.012285004 0.037818827 -0.050255623
0003c0 fd a6 7d bd fc ac 3b 3d 80 ef 9b bd 8e f3 43 bd
       -0.06192683 0.045819268 -0.076140404 -0.047839694
0003d0 90 74 63 ba 87 f2 1f bd e9 e2 d1 3d 3a 3e a0 3d
       -0.0008676732 -0.03904965 0.10248358 0.07824369
0003e0 0f 21 59 3d ca 12 c7 bc 12 11 81 bd 63 60 34 bd
       0.053010043 -0.024300952 -0.06302084 -0.044037234
0003f0 f5 a3 b4 bd f9 d0 17 3c d9 d4 cc 3b 00 2f 36 bd
       -0.08820335 0.009266132 0.0062509594 -0.044478416

fc2.weight f4 [256, 256]
000000 7b ca 7d 3d 36 b5 da 3d 18 d5 72 3d d4 65 53 3d
       0.06196068 0.106790945 0.059285253 0.051610783
000010 eb 81 50 3c 1f b7 2a bc 39 28 4c 3d 07 c2 8a 3d
       0.012726287 -0.010419636 0.049843047 0.06775289
000020 5c 6c 00 3d 0c 01 25 3d df 15 83 b9 72 c3 69 3d
       0.03135334 0.0402842 -0.00025002562 0.057071157
000030 cf 98 86 3d dd 79 f5 bc 7e 86 72 b9 a6 ea 85 bb
       0.06572115 -0.029965336 -0.0002312902 -0.00408681
000040 e5 58 32 3d 7b a5 bb bc fd d8 41 bd c4 d3 61 bd
       0.043541808 -0.022906056 -0.047326077 -0.055133596
000050 c5 33 b5 3c 28 bc e8 3d ef 11 48 3d 1a ac bf bb
       0.022119412 0.11364013 0.048845228 -0.0058493735
000060 18 32 ba bc 7c 68 8c 3d f9 58 0f bd cd 0f 39 bd
       -0.022728965 0.06855866 -0.03499696 -0.045181084
000070 bc e2 9b 3d ce 5b 70 3d b1 f8 4f 3c 90 1a b0 3c
       0.076116055 0.0586813 0.01269357 0.021497041
000080 50 b2 fc 3d 82 7d 5f 3d 58 16 47 3d 4c e2 c1 3c
       0.12338698 0.054563053 0.048605293 0.023667477
000090 21 dd b2 3d 4d 0c 64 bd dd 81 03 3a 30 1d 3a 3d
       0.08733583 -0.055675793 0.00050166046 0.04543799
0000a0 f0 9e 89 bd 85 16 ab 3c 4d de b0 3c 39 fe bc 3d
       -0.06719768 0.020884762 0.021590376 0.092281766
0000b0 96 4e 96 3d f1 7c 56 3d e7 0d 3a 3d 60 d0 b2 3c
       0.07339208 0.052365247 0.045423415 0.021827877
0000c0 c5 d9 07 3d 1e 87 1b 3d 1a 47 11 3d 8d 6f 2f bd
       0.033166666 0.037970655 0.0354682 -0.042830992
0000d0 23 dd cb 3d 17 0e 72 3d fa 93 90 3c 80 cc 40 3c
       0.09954288 0.05909547 0.017648686 0.011767507
0000e0 74 51 69 bd 69 91 ea 3d 69 c6 8a 3d 1c 37 df 3c
       -0.056962445 0.11453516 0.06776125 0.027247958
0000f0 7f 14 4b bc 92 aa 04 bc 44 2b 57 bc 1e 3e 86 3d
       -0.012395023 -0.008097308 -0.013132874 0.06554817
000100 d0 b5 8d 3d 3a 1e 88 3d 51 b8 22 3d de ca 74 3c
       0.069194436 0.0664639 0.03972656 0.014940945
000110 f1 88 2d 3b b7 1a fe bd 7d 32 5f 3d 40 ce cc bc
       0.0026479329 -0.12407439 0.05449151 -0.025000691
000120 c7 e9 34 3c ec a0 54 3c 9a 9d bc 3c 4c 99 19 3d
       0.011042065 0.01297782 0.023024369 0.03749971
000130 dc 80 f3 3b 57 2c 46 b9 22 08 c8 3d 36 1d 02 3d
       0.0074311327 -0.0001889927 0.09767176 0.03176614
000140 57 7a 1a 3d 31 35 25 bd c1 c6 99 3d 82 d1 3f bd
       0.03771433 -0.04033393 0.075086124 -0.04683066
000150 2c a2 fa bc 9a 63 12 bc a9 f4 7a 3d 0f 1f 5f 3d
       -0.030594908 -0.00893488 0.061268482 0.05447298
000160 e3 40 f7 3d 9f 9f e5 bc bb b5 ab 3d a4 8e 3d 3d
       0.12072923 -0.028030215 0.08384272 0.04627861
000170 89 eb 0b bc 87 fa 0e 3d 7f 8a 8c 3d f7 1d a5 bc
       -0.008540043 0.03490689 0.068623535 -0.02015589
000180 75 2f 88 3d 86 78 69 3d 27 ea 2f bd 8c 66 a8 ba
       0.06649677 0.056999706 -0.042947914 -0.0012847944
000190 62 11 12 bd 57 4e d4 3c 97 ef ba 3d e8 5f 32 3d
       -0.03566111 0.025916262 0.091277294 0.043548495
0001a0 f9 85 08 bd 01 9e 44 3d f5 de 78 3d 84 ed 15 bc
       -0.03333089 0.048002247 0.060759503 -0.009150866
0001b0 dc 6a f2 3d 30 f4 96 3d c6 83 ec bb cb 4c c1 3c
       0.11836788 0.07370794 -0.007217857 0.023596188
0001c0 fa 70 76 bd 94 49 56 3d 6d ff 2e 3d 0e 8e 4a 3c
       -0.060166337 0.052316263 0.04272406 0.01236297
0001d0 01 e9 27 3c 0e f8 5b 3d e2 89 28 3d ce 61 19 bd
       0.010248424 0.05370336 0.04114712 -0.03744679
0001e0 a7 42 04 3d 39 c6 bd 3d 1f dd ae 3c e6 bc 99 bc
       0.032290127 0.092663236 0.021345673 -0.018766832
0001f0 91 2b 8c 3d 61 43 14 be 83 a2 2d 3d bd fc de 3d
       0.06844247 -0.14478828 0.04239131 0.1088805
000200 d5 fa f5 3d 02 ed a3 3c a8 7c 85 bd 48 ce 83 3d
       0.12010733 0.020010475 -0.06517917 0.064358294
000210 eb 6e 6f 3d b1 2e d1 bb 68 b5 70 3b 5a e6 26 3d
       0.05845539 -0.00638374 0.003672922 0.040747024
000220 d9 a5 3f 3b e4 13 b1 3d e8 11 1b 3d 2f b8 50 3c
       0.002924314 0.08646372 0.037858874 0.012739225
000230 bf 54 2c 3d c7 da 0b bc 65 07 ba 3b 66 b5 00 3e
       0.042073008 -0.008536047 0.005677151 0.12569198
000240 61 99 b2 bb 61 0c 87 3d c9 1c 25 3c fd 9b 50 bd
       -0.005450413 0.06594158 0.010077664 -0.050930012
000250 4d 33 ef ba ac 75 ce 3c 82 e6 30 3d e5 32 4a bc
       -0.0018249542 0.025202595 0.04318858 -0.012341236
000260 d5 78 a1 3c 50 2a cc bb c1 90 27 3c c8 d3 8a 3c
       0.019710938 -0.00623063 0.010227383 0.016946688
000270 3a 46 89 3d 02 9c 44 bd c8 8c 28 bd ee 30 3b 3d
       0.06702848 -0.048000343 -0.041149884 0.04570096
000280 18 95 c9 3d 42 be f9 3c 1f b8 45 3d e9 be 9b bb
       0.098428905 0.03048623 0.048271295 -0.004752983
000290 82 09 c4 bc 49 df 0a 3d 57 6b 09 3d d9 01 0b bd
       -0.023930315 0.033904348 0.033549633 -0.03393731
0002a0 61 6b c5 3c 40 46 80 3d b7 df 5d 3d ec 2d ab 3d
       0.024099054 0.06263399 0.05416843 0.08358368
0002b0 69 09 4f bc 34 0b d4 bc 80 fe b0 3b f5 37 9c 3c
       -0.012636521 -0.025884248 0.0054014325 0.019069651
0002c0 db 71 25 bc 5a e3 76 bb e0 a8 9c bd 9e cb 81 3d
       -0.010097946 -0.0037672133 -0.07649398 0.06337665
0002d0 cc 30 52 3d 82 31 68 bd 9b 9e 2a bd 35 67 dc 3c
       0.051316068 -0.05668784 -0.041655164 0.026904682
0002e0 67 c0 d0 bc 36 29 ec 3d 72 a0 36 bd f4 1c c7 3d
       -0.02548237 0.11531298 -0.044586606 0.09722319
0002f0 e6 7b b9 bc cc a5 70 bd fc 6a 2f 3d 12 37 72 bc
       -0.022642087 -0.058751866 0.042826638 -0.014783638
000300 f7 37 a3 3d 1e f4 86 bb 78 fc 18 3d 43 88 8a 3d
       0.07969659 -0.0041184565 0.037350148 0.06764271
000310 f1 30 ab 3d e5 0e a8 3d ac 51 d5 3d a2 ba aa 3c
       0.08358944 0.08205966 0.10415968 0.020840947
000320 28 c2 21 3b b6 5e bd bd c0 bd f0 bb 64 2e 3a 3c
       0.0024682377 -0.0924658 -0.0073468387 0.011363599
000330 28 38 84 3d ea ea 0a 3c 0f 24 61 3d 84 83 ac bb
       0.064560235 0.008478859 0.05496603 -0.0052647013
000340 6b 1a cf 3d 59 6c 89 3d 64 b5 03 3d 85 1e 22 3c
       0.10112461 0.06710119 0.03215541 0.009894972
000350 3d 09 00 3d 07 87 1b bd 25 a3 27 be 30 da bf 3d
       0.03125881 -0.03797057 -0.16370828 0.09367788
000360 ae ba 30 3c a9 f6 9e bc 0c 89 76 3d 45 6e 9e bc
       0.010786695 -0.019404726 0.06018929 -0.01933969
000370 02 d9 7b 3d 40 43 ff 3c 77 67 9d 3c 69 a6 76 3c
       0.06148625 0.031159997 0.019214375 0.015054324
000380 87 a2 6a 3c 9a e4 df 3c 9d 05 0a bd 23 26 a1 3d
       0.014320976 0.027330685 -0.03369676 0.07868602
000390 e1 f2 6a bd ca 48 44 bd 7b 23 f6 3d a9 92 48 bd
       -0.057360534 -0.04792098 0.12018486 -0.04896799
0003a0 95 05 bf bc 29 c6 93 3b f1 c3 d8 bd e9 db 12 bc
       -0.023318091 0.0045097065 -0.10584248 -0.0089635635
0003b0 2f d2 b3 3c eb 1e 1a bd 7f df 7d 3d b1 81 3c bd
       0.02195081 -0.037627142 0.06198072 -0.04602212
0003c0 21 a4 e5 bc df e9 6e 3a 07 ae 06 3d 0a 25 e4 bc
       -0.028032364 0.0009113829 0.03288081 -0.027849693
0003d0 b7 b6 72 bc 97 8a dc 3d c6 02 5b 3d 41 8d 9e bb
       -0.01481407 0.107686214 0.05346944 -0.004838616
0003e0 a3 cd c0 3b 03 df 53 3c c0 c6 40 3d 01 d5 2c bc
       0.005883889 0.012931588 0.047064543 -0.010548831
0003f0 ed 2f 69 bd e0 82 ed bc e5 88 20 3d 05 85 e4 bb
       -0.05693047 -0.02899307 0.039193053 -0.006973865

fc2.bias f4 [256]
000000 2d c7 c8 3d 73 d6 ec 3c dc 44 37 3d 0b c8 5d bb
       0.09803615 0.028910851 0.044743404 -0.0033841159
000010 66 90 67 bd 76 c3 4a bc ea 62 5c 3d 85 9a 59 3d
       -0.056534193 -0.012375703 0.05380527 0.053125877
000020 96 b3 41 bd 0d 99 cf 3c fb db d7 3d 88 82 20 3d
       -0.047290407 0.025341535 0.10540005 0.039186984
000030 4e d0 cc 39 9f 6e b9 bc cd da 9c bd 19 df 76 bd
       0.0003906511 -0.022635756 -0.076589204 -0.060271356
000040 c3 cf 1d 3d 21 4f 3f 3d 4f 2c f7 ba 74 c1 1b 3d
       0.038528215 0.046706323 -0.001885781 0.03802629
000050 5e 56 84 bd 34 13 7e 3d e4 75 1f bd 85 75 f8 bc
       -0.06461786 0.062030032 -0.03893079 -0.030329475
000060 33 be 2c 3d 59 55 4a 3c c8 74 95 3d 82 31 cc bc
       0.042173576 0.01234945 0.07297665 -0.02492595
000070 48 33 17 3e 30 ef 0b 3e 8a 2e b4 bb 60 8a 27 3e
       0.14765656 0.13665462 -0.005498712 0.1636138
000080 6b 4a 58 3c 0f 35 3f 3d dc c7 0d 3e b5 39 60 bd
       0.013201336 0.04668146 0.13845772 -0.054742534
000090 6a 73 37 bd ae c9 87 3d 8a 59 17 3e 0f e4 47 bd
       -0.0447878 0.06630264 0.1478025 -0.048801478
0000a0 43 1b f0 3d c9 b2 bc 3d 12 62 c3 3d 3a b9 d9 3d
       0.1172395 0.09213788 0.0954019 0.10631032
0000b0 d7 c4 f7 bd f9 18 6d bd f7 59 50 bd 1a e9 a3 3d
       -0.12098091 -0.057885144 -0.050867047 0.08003445
0000c0 85 03 22 3e 76 fc 09 3e 80 e5 97 bd 61 48 ab 3d
       0.15821655 0.13475212 -0.074168205 0.083634146
0000d0 56 56 24 ba 4e 1f 8a 3d 13 bd 37 3d 59 c2 1a bc
       -0.00062689686 0.06744252 0.04485805 -0.00944575
0000e0 c6 e3 3f 3d c2 7b 0f bd e4 93 d6 3d 6f 00 09 3e
       0.04684808 -0.035030134 0.10477427 0.13379072
0000f0 72 a0 a4 bd c5 1f 8c bd 37 5d 06 3e 06 22 ca 3d
       -0.08038415 -0.06841997 0.13121496 0.09869771
000100 a8 5c 8a bd 89 66 9f bb 82 36 80 bc 5e 25 82 3d
       -0.06755954 -0.004864518 -0.015650991 0.063547835
000110 56 70 d8 bc 81 a6 af 3d f0 6e 97 bd ad 92 a8 3b
       -0.026420753 0.0857668 -0.073942065 0.0051444382
000120 26 61 91 ba 82 5f 09 3d 00 22 a4 3c 86 e9 80 bc
       -0.0011091575 0.03353835 0.020035744 -0.015736353
000130 ba 1b 5a bd 45 d1 f3 3b 53 f7 c1 bb cc d1 79 bd
       -0.0532491 0.0074407184 -0.005919376 -0.060991094
000140 12 bd 98 3b e8 f4 00 3e 4c e3 96 3c e8 24 1a 3d
       0.004661211 0.12593424 0.01841893 0.037632853
000150 b5 cd 5f bd ab 16 05 3e 79 40 92 bd 48 1e 37 bd
       -0.054639537 0.12996928 -0.071412034 -0.044706613
000160 26 54 84 3d 24 be cb bc 35 fd 17 3e 23 be 81 bb
       0.064613625 -0.02487094 0.14842685 -0.0039594336
000170 26 b3 b2 bc a6 d1 3f bd 78 ee 00 3e 66 be 2f bd
       -0.02181394 -0.046830796 0.12590969 -0.042906187
000180 92 1d 8e 3d 94 44 38 bd 8d 80 f4 3d 70 00 93 bd
       0.06939234 -0.044987276 0.119385816 -0.07177818
000190 af b8 a6 3d 5c e8 af 3d 97 b9 d3 3c 06 2e 48 bd
       0.08140694 0.08589241 0.025845332 -0.048872016
0001a0 cc 12 20 3e 53 df d6 3c fd 42 90 bd b2 8a 3d 3c
       0.1563217 0.026229536 -0.07044027 0.011568712
0001b0 29 a0 63 3d bc 29 cf 3d ea 68 0f 3e ec 26 d2 3d
       0.055572663 0.10115382 0.14004865 0.1026133
0001c0 28 36 69 3b 31 de 26 bd 5a ef ba 3d 62 55 0e 3e
       0.0035585258 -0.040739242 0.09127684 0.13899758
0001d0 cc 21 30 3d 05 ed c8 3d 07 37 ae 3c 07 c0 1c 3d
       0.04300098 0.09810833 0.021266473 0.03826907
0001e0 f1 90 07 3e 39 56 8b 3d 30 19 e5 bc c4 fc be bc
       0.13238885 0.06803555 -0.027966112 -0.023313887
0001f0 57 a5 5e 3c 4e a2 f1 3d 97 a6 cd bc d6 6a ce 3b
       0.013589225 0.11798535 -0.02510385 0.006299357
000200 3f 42 e1 3d a4 b7 b1 3c 4f f3 7e 3d 30 48 96 bd
       0.109989636 0.021694012 0.062243756 -0.073379874
000210 60 d9 3d bd f9 6d 9a bd 7a 1d 04 3d 5f e8 96 bd
       -0.046349883 -0.07540507 0.032254674 -0.0736854
000220 7d 26 5f bd 19 5a e2 3d 30 dc e3 3c 78 aa 03 3e
       -0.054480065 0.11052341 0.027814955 0.12857997
000230 92 4c c4 bc 48 25 cd 3d bb 8a 88 3d ab 36 16 bd
       -0.023962293 0.100168765 0.06667086 -0.03667323
000240 ab 89 08 3d 31 63 f1 3d 49 b8 d2 3c 29 f4 e9 bc
       0.033334415 0.117864974 0.02572264 -0.028558807
000250 13 5a 31 bd 27 35 58 bd 82 46 24 bd bb 4a 96 bc
       -0.043298792 -0.052785065 -0.040106304 -0.018346181
000260 3a 1b e0 3d 86 57 23 3e 8c af c8 b9 c2 67 e4 3d
       0.10942693 0.15951356 -0.00038277765 0.11152603
000270 ad a0 c5 3a ef 35 e6 bc 4a b3 a4 3d c0 a2 09 3d
       0.0015077792 -0.02810189 0.08042009 0.033602476
000280 35 a7 22 3e 61 5e 40 3d 6d d1 91 3d fc 4f ed 3d
       0.15884097 0.046965007 0.07120023 0.115875214
000290 7e 59 a1 3d b0 06 f1 3b 72 e8 0e bd 68 ad 83 bd
       0.078783974 0.0073555335 -0.034889646 -0.06429559
0002a0 66 97 c6 bd dc 90 a0 bd 4e 1b 49 3d 55 77 04 3d
       -0.09696846 -0.0784013 0.049098305 0.032340366
0002b0 37 93 0e 3c 7a 85 0b 3c d9 53 d3 3d db 44 01 bd
       0.008702091 0.00851571 0.10318727 -0.031559806
0002c0 4d a4 b6 3c 97 8f 86 bd b3 f5 d8 3d e7 6e 04 3d
       0.022295142 -0.06570356 0.105937384 0.032332327
0002d0 f1 cc 8d bd b0 d0 23 3e b7 9e cb 3d bc bc c9 3c
       -0.06923855 0.15997577 0.09942382 0.024626128
0002e0 94 14 a0 3d 52 fe b6 3d fc 5c c3 3d 34 75 01 bd
       0.07816425 0.089352265 0.0953922 -0.031605914
0002f0 df 1a b0 3d 32 b8 c1 3d f9 36 32 3d ea b3 3a bd
       0.08598875 0.094589606 0.043509457 -0.045581736
000300 15 6a c5 3d 21 36 78 bd f8 0f 8d bd 99 84 06 3e
       0.09639374 -0.060598496 -0.068878114 0.1313652
000310 b4 08 1e 3e 78 6a f7 bc 86 72 a6 3d 0d fb 1d 3e
       0.15433007 -0.030202135 0.08127312 0.154278
000320 88 fe ed 3d 21 92 f2 3c 4e a4 9b bd 36 70 86 3c
       0.116208136 0.029610695 -0.07599698 0.016410928
000330 c5 6f 72 bd 32 ed a9 3a e4 c1 e1 3d 69 f1 b5 3c
       -0.059188623 0.0012964366 0.1102331 0.02220984
000340 56 4b 54 bd de 58 c5 3d d5 86 21 3d e1 35 9f bc
       -0.05182966 0.09636091 0.039435226 -0.019434871
000350 45 d5 40 bd d1 59 20 bd 22 0d 69 bd 42 0d 07 3e
       -0.04707839 -0.039148156 -0.05689729 0.13188651
000360 1e e2 11 3c f1 b0 70 3d d5 67 b5 3b 48 57 90 3d
       0.008904008 0.058762494 0.0055360594 0.070478976
000370 0e 46 06 3e 8f 8b 6e bc 75 ee b3 bc 49 d2 bd bc
       0.13112661 -0.014559641 -0.021964291 -0.02317156
000380 f2 be fc 3d fa 12 a1 bc d8 b7 14 3e 8f bb c0 3d
       0.123411074 -0.019662369 0.14523256 0.09410774
000390 56 8e 94 bd d8 b5 2e bd 80 42 17 bd 38 71 72 bc
       -0.07253711 -0.04265389 -0.036928654 -0.014797501
0003a0 12 84 d5 3d 97 c8 86 3c 15 f0 8e bc 39 51 02 bd
       0.10425581 0.01645307 -0.017448464 -0.03181574
0003b0 6b 6e af 3d bc 44 3b 3d c2 e1 5e 3d f2 05 13 3e
       0.085659824 0.045719847 0.05441452 0.14357737
0003c0 a0 5c 06 bb e3 b5 39 3d da 68 e4 3c c0 12 f6 3d
       -0.0020501986 0.045339476 0.027882028 0.12015295
0003d0 a5 b8 fc 3d 1b f1 e0 3b b1 b1 89 3d d9 5a 3a 3d
       0.12339906 0.0068646795 0.06723345 0.045496795
0003e0 f4 e3 0e bd cd 2f 2b 3d fb e1 6d 3c 3c 88 1b bd
       -0.03488536 0.041793633 0.01451921 -0.03797172
0003f0 3b 39 8e 3d d1 37 90 3c 6d ed 1a bd f7 64 f6 bc
       0.069445096 0.01760474 -0.037824083 -0.03007744

fc3.weight f4 [5, 256]
000000 6c 04 8f 3d 98 62 b9 3d 65 2a a0 3d 24 0a 36 3c
       0.06983265 0.090520084 0.07820586 0.011110816
000010 9b 39 93 bc 22 fb 8a 3d c7 df b8 3d 7e d3 d5 3d
       -0.017971804 0.06786181 0.09027057 0.104407296
000020 59 53 d6 3c 47 d7 84 3e ad 5e 40 3d 0c 14 e3 bc
       0.02616279 0.25945494 0.04696529 -0.02771952
000030 59 f0 8d 3d fd 2a ea be 74 63 47 3e 0d 5e 03 3b
       0.06930608 -0.45735922 0.19471532 0.0020045072
000040 11 26 f6 3d 8e 5d 07 3e de 62 1c 3e c7 cc 51 3d
       0.12018979 0.13219282 0.1527209 0.05122068
000050 5f bb ef 3d f5 18 a6 3d 5e 3d f0 be 4d 88 24 3e
       0.1170566 0.08110229 -0.4692182 0.1606762
000060 73 c5 98 3d 7e 47 00 3d f6 75 c2 3c 16 6d a5 3b
       0.074595354 0.03131818 0.023737889 0.0050484044
000070 bd 25 a2 3d 4a e2 ea 3d ea 4c 24 bb 22 4a ca 3d
       0.07917354 0.114689425 -0.0025070258 0.09877421
000080 fb 70 c0 bc 96 5a 47 3c 45 96 b5 3d df 9d e2 bc
       -0.023491373 0.012167593 0.08866552 -0.02766317
000090 4e 6a b8 bc 99 7b 2f 3d 13 e5 50 3d 6e 2f d6 3e
       -0.022511628 0.04284248 0.050999712 0.4183306
0000a0 0c d7 56 3d a8 98 0c 3e 61 ed 24 3d 10 5d ab 3d
       0.05245118 0.13730109 0.040265445 0.0836736
0000b0 c4 a7 08 be 71 12 08 3e 6b 90 a7 3c dc 66 33 3e
       -0.13345248 0.13288285 0.020454606 0.17519706
0000c0 03 63 62 3d e1 cd fc 3c c8 c2 8c 3e dd 0b 23 3e
       0.055270206 0.03085989 0.27492356 0.15922494
0000d0 ab a7 0f bf 60 d0 d1 3d d4 0b 93 3d 04 b3 c0 3c
       -0.56115216 0.102448225 0.071799904 0.023522861
0000e0 be 5c 1a bf 04 21 6d 3d 2f 2b e6 3c 05 18 4c 3d
       -0.60297763 0.057892814 0.028096763 0.049827594
0000f0 af bd c9 bb 64 bc 1b 3d d3 55 a1 3d 4c a4 ba 3d
       -0.0061566452 0.03802146 0.07877698 0.091133684
000100 2c 62 cd bc a0 fe 23 3b 48 76 4f 3e 38 34 c7 3d
       -0.025071226 0.0025023594 0.20259964 0.09726757
000110 38 4e 2a bc 95 ff b5 3d 44 ed 6e 3d af 51 b3 be
       -0.010394625 0.08886639 0.058331743 -0.35023257
000120 77 40 41 3c 96 ea ce 3d 1e c3 02 3f 47 f7 4e 3d
       0.011795155 0.101033375 0.51078975 0.05052879
000130 e2 6f 93 3e 15 5c 75 3e 6a b6 c4 3c 1c f3 c0 3c
       0.28796297 0.23960908 0.024012763 0.023553424
000140 c2 a0 3b 3e c4 3c 24 3e 96 95 3b 3c e0 37 a4 3d
       0.18323043 0.16038805 0.011449238 0.0801847
000150 98 42 8d 3e dd 90 df 3d 6f 2d 9f bd 4e 8b 90 3d
       0.2758987 0.10916302 -0.07772338 0.0705782
000160 c7 48 f2 3d 74 3c d0 3d 83 40 65 3d 3b 74 fc 3d
       0.118302874 0.101677805 0.055969726 0.12326857
000170 44 15 82 3e 33 42 26 bd 4f bc 35 3d c0 16 0b 3d
       0.2540685 -0.040590476 0.04436904 0.033957243
000180 70 53 4f 3e cd b4 06 bd d8 83 cd 3c 19 fd 56 3e
       0.20246673 -0.03288727 0.025087282 0.20994987
000190 82 31 e4 3c 80 00 67 3d c7 eb 06 3e e5 01 f9 bd
       0.027855638 0.05639696 0.1317588 -0.121585645
0001a0 a2 75 89 3d 43 02 f3 3d 29 64 55 3d 55 92 2c 3d
       0.0671189 0.11865666 0.052097473 0.04213174
0001b0 89 ca 06 3e 0e d5 95 3d 81 3a 93 3d 11 4b a9 3d
       0.13163199 0.073160276 0.07188893 0.08266271
0001c0 48 10 d5 3d e3 1d a6 bd 38 e9 3c 3d f0 8d c9 3d
       0.10403496 -0.08111169 0.046120852 0.098415256
0001d0 ac b3 2b 3d dc ec c1 3c 3a 22 bd 3d 25 ba 0c bd
       0.041919395 0.023672514 0.09235044 -0.03435721
0001e0 81 40 ab 3c 50 65 fd 3d 96 61 aa 3d b0 ed 5b 3d
       0.020904781 0.123728395 0.08319394 0.053693473
0001f0 6f e3 33 3e 1c af bf 3c ab ca f9 3d d0 78 90 bd
       0.17567228 0.023398928 0.12196859 -0.07054293
000200 88 6e 19 3d 05 e2 8a 3d a9 0c 43 3d de 09 de 3c
       0.037458926 0.06781391 0.047619496 0.027104314
000210 30 a9 46 3c 90 c9 de bd 65 08 07 3c 50 fd 09 3d
       0.012125298 -0.10878289 0.0082417475 0.033688843
000220 22 f6 ea 3e 93 78 f9 3d ce 45 c1 3e c7 ce 01 3d
       0.4589091 0.12181201 0.3774857 0.03169134
000230 09 bc 98 3e b1 e7 17 3d 36 31 bd 3d 1b 47 7e bb
       0.2983096 0.037086193 0.09237902 -0.0038799706
000240 a7 07 6c 3e 47 56 63 3d 79 3d f0 3e 1e 41 85 bb
       0.23049794 0.055502202 0.469219 -0.0040666005
000250 d7 2f c8 bc ee 2b 11 bd 07 64 15 bf 0a 98 ba 3e
       -0.024436874 -0.035442285 -0.58355755 0.36444122
000260 fc 90 0a 3d 25 3e 27 3d 31 86 d4 bc 4f 86 ae 3d
       0.033829674 0.04083075 -0.025942894 0.08521711
000270 55 b9 83 3b 30 2c 08 3e c6 c3 76 3d e7 53 dd 3d
       0.004019896 0.13298106 0.060245298 0.10807019
000280 84 4e 81 3d 42 81 27 3d 5f 09 a9 3d 6c 94 9d 3d
       0.06313804 0.040894754 0.082537405 0.07694325
000290 2e 36 7e 3e 63 39 9d 3c 2e 1f 1c bd c4 da 64 3d
       0.24825355 0.019192403 -0.038115673 0.055872694
0002a0 cc a7 b9 3e 62 88 0a 3d c0 5e 4c bf 88 29 e2 bd
       0.3626083 0.03382147 -0.7983208 -0.11043078
0002b0 55 50 ed bd 8c 54 34 3e f5 08 91 3d 8c c4 15 3e
       -0.11587588 0.17610377 0.070817865 0.14625758
0002c0 53 3d aa 3c 94 7c 97 3c e2 c1 6b 3d 7e 1c 1a 3e
       0.020781195 0.01849202 0.057557948 0.15049931
0002d0 23 8a 04 3d 49 1b 7a 3d 74 95 88 3c 0e 86 c5 3d
       0.0323583 0.061061177 0.016672827 0.096447095
0002e0 a3 a6 84 3d 29 49 7d 3d 6f 57 7a 3e 1e 73 57 3e
       0.06477096 0.06183735 0.24447416 0.21040007
0002f0 1e b7 8b 3d 36 09 11 3d bd 83 01 bb 8f 3c 13 3e
       0.06822036 0.035409175 -0.001976236 0.1437857
000300 5d 4f 06 3d 7e 9b 0d 3d 28 e5 2c bd 24 50 9f 3d
       0.03279053 0.034572117 -0.042210728 0.077789575
000310 42 2b 4c 3d c2 00 48 3c 43 25 81 3e 02 b6 cd 3b
       0.04984594 0.012207212 0.2522374 0.0062778005
000320 db 7f 65 3d 27 87 0d 3f 98 5c 03 3d 4a c0 21 3e
       0.056030136 0.5528435 0.032070726 0.15796009
000330 62 7b 36 bb e5 45 15 be a3 3e 72 3d f8 cd b8 3e
       -0.0027844538 -0.14577444 0.059141766 0.36094642
000340 8f d0 19 bd 9f 89 69 3d bb ca 29 3e 81 2b 82 bc
       -0.037552413 0.05701601 0.16581242 -0.015889885
000350 93 25 ef be 73 36 c5 bc c8 ca 3b 3d 3b 85 a1 3d
       -0.46708354 -0.024073815 0.045847684 0.0788674
000360 51 fd 26 3c 1b ba 90 3c be 73 81 3c 1c fd 8c 3d
       0.010192231 0.017666867 0.01580226 0.06884214
000370 64 a0 8b 3d ad b3 d0 3c af aa 8e 3d 8f 0a 3f 3d
       0.068177015 0.025476301 0.06966149 0.04664093
000380 69 33 8e 3d 6d d3 2e 3e 0d c2 0c 3d a5 e0 6f 3d
       0.069433995 0.1707284 0.03436475 0.058563847
000390 1c e5 22 3d 98 bd 82 bc 36 d4 05 bd 98 bd 82 3d
       0.039769277 -0.015959546 -0.032673083 0.063838184
0003a0 e1 7c 5a 3d b9 82 cf bd 0f 79 d8 3d fe 6b fd 3b
       0.05334175 -0.10132355 0.10569965 0.007733821
0003b0 f3 c6 86 3d 21 2c 94 3d 79 5e 64 3d 30 f8 c8 3d
       0.06580915 0.072349794 0.05575416 0.09812963
0003c0 72 48 1f 3f a9 04 5d 3e 20 da 0b 3a 3c c7 ba 3c
       0.6221992 0.21583809 0.00053349324 0.02280008
0003d0 47 6b 8a 3d a9 8a 90 3e 27 b0 fa 3d ba b9 1d 3e
       0.06758743 0.2823079 0.1224063 0.1540288
0003e0 dd f5 3b 3d 07 c9 83 39 cd b7 5c 3d 15 13 9c be
       0.04588877 0.00025136044 0.053886224 -0.30483308
0003f0 64 98 73 3d df 89 43 3e 3d 4c ff 38 51 be e4 3b
       0.059471503 0.19095562 0.00012173548 0.0069806953

fc3.bias f4 [5]
000000 1a 5b 6d 3d 19 9c c7 3d ea 85 07 3e bc e4 4c 3d
       0.05794821 0.0974657 0.13234678 0.050022826
000010 eb 34 b8 3d
       0.08994468
