Model/DQN/[S0]net_Q(param).pt (torch, 411258 bytes, 6 tensors)

fc1.weight f4 [256, 136]
00000000: cfeb 2cbd 36e0 abbc 529d 4e3d 2903 a0bd
00000010: d7da 05be 502f 00bf 41b6 04bf f9e0 aabe
00000020: 3608 fdbd 6e1f fdbd df6c e23d 7ca7 09be
00000030: 042b e6bc 296b 02bf 1679 0cbf 274c 23bf
00000040: 2427 56bc e1e5 e4be fa43 1d3e 9f96 0a3d
00000050: 3bd9 be3c 6aad 283e a73d 03bf 3936 11bf
00000060: 87e2 21bf d4cf 35bf e3bb 01bf c393 ce3e
00000070: 694b b23e 63b0 f73d 2b38 cbbd fa7d 8bbe
00000080: 6d3a b7be 0084 dfbe 2726 52be d137 9bbe
00000090: 397e 093f 8e88 203f e9cf b23e e5ea 003e
000000a0: 5063 e4bd 9503 57be 4aa2 8ebe 8fbc 5abe
000000b0: c4ca ec3b 26e9 243f 8238 273f 2954 f23e
000000c0: f10b ed3e 62a1 2a3e be50 d43d 3186 fc3d
000000d0: b489 163e a42d dc3e 84cf 173f cdce 333f
000000e0: 182c 3b3f 31f1 4a3f 6dd9 e53d cf3b 203e
000000f0: 9eb5 113e 4c61 ea3e e543 183f a1ad 863d
00000100: a343 093d 6d0e 983d 52ed 313d 80ae 2e3e
00000110: 23d0 a7bd e8e4 1c3c 6d93 623d 279a 7ebd
00000120: 2b3c 2c3d ed01 353c 7488 6abc 5e96 5cbc
00000130: 9477 91bd cea5 88bd 613d 93bd ed45 093d
00000140: 6f91 22bd 9877 6abd f6fb 51bd 7042 633d
00000150: ec1f a6bd 6677 7a3d 246f 8dbd 993d a8bc
00000160: 049a 40bd 50aa 9bbd 9f2f 9abd 32ee 093d
00000170: 50dc 5dbd 4bb4 09bd 87f7 7abd 2194 23bd
00000180: 607b 8ebd 554b aabd d8a0 c83c 7871 5dbd
00000190: 143e 363d 8f42 2fbd 9091 603d bad0 a13d
000001a0: 2b35 aabd 5f6a adbd 3c03 a6bb 4b0b aa3c
000001b0: 8610 50bd 45ae 5a3d 95fd 3cbd 570c f1bc
000001c0: e23c b5bc ec7f 1e3d fbc8 2abd b9bc 933d
000001d0: 6a4b 07bd 9de5 1a3d 6d1b ebbc 5d90 993b
000001e0: 3f9c 9f3d dd88 b2bc 4f30 6bbc f3b3 b63b
000001f0: a5e7 4d3d 67bc 113c 44b1 1f3d 1f87 a6bd
00000200: 76a3 3a3d 289a 1dbc 1e39 873d 18c9 febd
00000210: 76bc 4eba 94fb 9f3b 87ea 483d 1d36 5ebd
00000220: 2199 713d 77e3 fa3e 59b8 0f3f 5fb3 9f3e
00000230: 0b35 de3d e9f4 633e 1c22 8abe f173 92bf
00000240: c60f 5bbf 035f c13e dd5c db3e 9dfa 383e
00000250: 1f67 b5be 6d67 30be c1df a3be e5e6 3ebf
00000260: 7e12 61bf 3b0d 6ebf 3280 d83e 3d4f bf3e
00000270: 2ee5 923d 20d2 fd3e 3bed fc3e 4cb3 623e
00000280: c6c4 01bf b582 4dbf 32fb 9dbf ea2c b63e
00000290: c152 023f e2d7 413e d6fa 9b3e c56c 9f3e
000002a0: f572 5d3e d7b5 e8be 9a13 80bf fec4 56bf
000002b0: 9f97 db3e 8bc7 b53e 5b4f c63e 8416 043e
000002c0: e3c8 5a3d d8b1 a4bd 33eb acbe 75fd 4abf
000002d0: cfcc 3dbf 9971 ce3e c621 ef3d 5fcd 253e
000002e0: 6265 143e 12b9 11bd a957 943d db8c 9ebe
000002f0: af91 1fbf 929f 2dbe 5e40 ce3e 8256 ea3e
00000300: 3602 c53e 42ad 7c3d 3418 123e 4945 223f
00000310: 4a8c d53e ab9f c53d ac1c db3e a311 893b
00000320: 6b1f d7be ae6a 313e b2b3 f7bd 6f1a 5f3d
00000330: 60da 2b3e 8a9d ee3c 12be 493d bcc2 4cbd
00000340: 4b4f 843c a4f0 ad3d 29c0 68bd 458d 093d
00000350: 5665 7c3c f8e1 79bd 1b7b 013d 32b4 71bd
00000360: 9a84 4d3d 253f 4f3c 9e31 9ebd 2209 773c
00000370: 9606 683d 2482 85bd 5636 8d3c 299e b4bc
00000380: 008d dd3c b119 1abc cfff 893d 801c a3bd
00000390: e6cb 323d 7870 87bb c917 34be 4cbf 9dbd
000003a0: 2dd2 9f3d e872 b53b d49c 38bd 1b30 bebc
000003b0: c061 6d3c a06d 92bd f9d2 95bd b4b8 a6bd
000003c0: aedb a13d ccef f7bb bd57 c2bc c2db 5cbd
000003d0: e7b9 b9bc 6f6b 60bd 9ae0 d7bc 6831 06bd
000003e0: 1c65 913d dc19 c9bc 9b66 023d 9fb5 86ba
000003f0: e3db c43b 37aa 9c3d eb8e 8bbd 2a92 903d
-0.042217072 -0.020980936 0.050443 -0.07813103 -0.13071762 -0.50072193 -0.518406 -0.33374766
-0.12355082 -0.1235951 0.11055922 -0.13442796 -0.028096683 -0.50944763 -0.5487226 -0.63788074
-0.013070855 -0.44706634 0.15357962 0.03383505 0.023296943 0.16472402 -0.5126595 -0.5672336
-0.6323628 -0.71020246 -0.5067732 0.40347108 0.34823158 0.1209419 -0.099228226 -0.2724455
-0.35786763 -0.43655396 -0.20522366 -0.30316022 0.53708225 0.62708366 0.34924248 0.12589605
-0.11151755 -0.2099746 -0.27858192 -0.21360992 0.00722632 0.64418256 0.653206 0.47329834
0.46298173 0.16663125 0.10366963 0.123302825 0.14700967 0.4300357 0.5930102 0.7023743
0.73114157 0.7927428 0.11223111 0.15647815 0.14229438 0.45777357 0.594786 0.06576086
0.03351177 0.074246265 0.043439217 0.17058754 -0.08193996 0.00957606 0.055316377 -0.06215873
0.04204957 0.011047822 -0.0143147595 -0.013463585 -0.07102886 -0.0667225 -0.071894415 0.033513952
-0.039689478 -0.05724296 -0.05126568 0.05548328 -0.08111557 0.061149023 -0.06905964 -0.020537185
-0.04702188 -0.07600844 -0.07528614 0.033674426 -0.054165184 -0.033619206 -0.061271217 -0.03993619
-0.06957126 -0.0831515 0.024490759 -0.05406329 0.044492796 -0.042788085 0.05482632 0.079011396
-0.08310922 -0.08467554 -0.0050663035 0.020757338 -0.050797008 0.053388853 -0.046140272 -0.02942483
-0.022123758 0.038696215 -0.041695576 0.0721373 -0.033030905 0.037816633 -0.028699601 0.004686399
0.077934735 -0.021793777 -0.014354779 0.005575651 0.05026974 0.008895016 0.038987413 -0.08131241
0.045566045 -0.009619273 0.06602691 -0.12440699 -0.0007886359 0.0048822854 0.049051788 -0.054250825
0.058983926 0.49001667 0.5614067 0.31191537 0.10849961 0.22261395 -0.26979148 -1.1441633
-0.85570943 0.377678 0.42844287 0.18064351 -0.35430238 -0.17226954 -0.32006648 -0.7457107
-0.8791884 -0.9298894 0.42285305 0.37365142 0.07172619 0.49574375 0.49399742 0.22138709
-0.5069088 -0.8027757 -1.2342284 0.35581142 0.5090752 0.18930009 0.3046481 0.31137672
0.21625884 -0.45451233 -1.0005982 -0.83894336 0.42889115 0.35503802 0.38732418 0.12899214
0.053414237 -0.080417335 -0.33773193 -0.79292995 -0.7414064 0.40321043 0.11676364 0.16191624
0.144918 -0.035576887 0.07243282 -0.3096684 -0.6233167 -0.16955402 0.40283483 0.45769125
0.3847825 0.06168867 0.14267045 0.6338697 0.41708595 0.09649595 0.42795312 0.0041830107
-0.42016158 0.17325851 -0.12094821 0.05446857 0.16782522 0.029127855 0.04925353 -0.0499904
0.016151091 0.08493164 -0.056823883 0.03358199 0.01540502 -0.061006516 0.031611543 -0.05900974
0.050175287 0.012649332 -0.077243075 0.015077861 0.056646906 -0.06518963 0.017237823 -0.022048073
0.027044773 -0.009405539 0.06738245 -0.0796442 0.043651484 -0.0041332804 -0.17587198 -0.077025026
0.0780376 0.0055373795 -0.045071438 -0.023216298 0.014488637 -0.071498156 -0.073156305 -0.08140698
0.07903229 -0.007566428 -0.023723477 -0.053920515 -0.022671653 -0.054789957 -0.026352216 -0.03276196
0.07099363 -0.024548464 0.031836133 -0.0010277516 0.006007658 0.076496534 -0.06814369 0.070591286

fc1.bias f4 [256]
00000000: e562 8fbd 83ef 7c3d 1fd5 1bbc d9ab a7bc
00000010: 1b89 2e3d 323a 603d 00cc 823d 43b4 e73d
00000020: 6a7c f7ba d903 74bc d7f1 6d3e 1e90 41bd
00000030: 3091 9c3d 5b0f 143e 7681 8a3c 172d 4ebd
00000040: 6c4c 99bd f232 6c3e 9350 6d3d 0205 68bd
00000050: 77f6 14be a021 e0bd 03ed 3d3e 96bc ac3c
00000060: 78f1 2ebd 0ea2 69bd 0cef a53b 6a96 7839
00000070: cf0e 2d3d ba15 073d 4aaa 84bc 2de5 cc3d
00000080: 2332 2ebd d97e c73c f4ba 55bc 9d4d c93c
00000090: d6b1 a5bc 1d6f 80bd afba 103e 2aab b7bc
000000a0: 0588 1b3d 63f6 64bc a144 5d3e d77f 8f3e
000000b0: 0686 aabd 657d f53d ce2f 053d fd22 833d
000000c0: 320a c43d f35b 42ba 5a8c a13d 838a 95bc
000000d0: bc8f c53c fbac 23bd c6bc 1bbe bc41 28be
000000e0: 3bea c33c 065a 623c a534 67bd f768 57bd
000000f0: 430c 683e 14aa 6f3d 0aa5 59bd a58e b0bc
00000100: 1c98 58bd f15d 423d 714d a23b e2d6 083d
00000110: 6466 933d 848f 9fbc 6a87 c0bd 7e5a 213e
00000120: a46e 603d b276 d1bd ce59 3aba 3ff0 413e
00000130: c542 afbc c3b8 1e3d d7fc 4dbc b7cc a2bd
00000140: 6c98 07bb f98a 283c 0efb 403c 497e 993d
00000150: fe9c 0abd 20f2 3b3d 534d 42bc 7207 093c
00000160: 102a 52bd 6084 cdbd 72a8 203c 387b aebd
00000170: 5c4c 133e 482a 2a3e baf9 293e 8a9d 15bd
00000180: 485a a3bd 88ca 05bc 4b40 693e a868 be3d
00000190: 71f1 13be 1a3a 50bd 81aa a2bd e7cd 353e
000001a0: d48a 47bd 6782 a93d 4d6b 6f3e 6ae9 c9bd
000001b0: f209 78bd fc9a c83c a4ac 003e 4d68 0c3e
000001c0: 613a 3c3e 08d1 9cbd ca02 f23b b6f0 743e
000001d0: f122 353b a46c b03d 8f01 aabc 86c3 de3c
000001e0: 5351 16bd 3a9e 95bd 9f8e e4bd f60c afbd
000001f0: 023a c43c 1245 933d be3e 87bd 53fe 6dbd
00000200: cf6c 68bd 7e20 7f3b 8378 6e3d 70db 93bd
00000210: 15ff ac3a 12f9 42bd 9cf4 7ebd 0221 90bd
00000220: c72c f23c b242 2e3d 1c23 793d 3200 a03d
00000230: 5b3b 6fbc 2aaf 0cba af7b 3abd 4fcd d73d
00000240: 38d0 a63d f725 753d a186 8a3e 8993 07bd
00000250: 9372 623d 3929 4a3d a6c3 ecbd cf0b 203d
00000260: fa7f cd3b bd47 97bd 2f25 c5bc 2c60 823e
00000270: 3f7b 4dbc b534 373d 5828 b5bd b367 0d3c
00000280: b147 02be 4000 54bd a9c7 8d3d 70ab 03be
00000290: 4a4b f2bc 8ee4 31be 0456 56bd 5a9d 24bc
000002a0: f348 3ebe 63ca c0bc c9b7 a63d bb15 1ebe
000002b0: 9ea4 f7bc 0dea 84bc 75c8 b03d 5408 c1bb
000002c0: be98 893c f980 2abd b90f 7c3d 969b c2bc
000002d0: aef8 9fbd 4048 2cbe cb5b 88bd d715 04bc
000002e0: 7fd1 4a3d e3f2 003b fc08 653d 973b 663e
000002f0: 2a73 fb3c 1208 83bc 7406 82bd f935 0dbe
00000300: 8b08 f43b 9edf 99bc 07a2 ebbd 5046 e9bc
00000310: 4d4e b1bc 1fc4 ce3d beae cbbd 9fb0 303c
00000320: e6ef 0dbe 02a8 afba 9e3b f6bd a3fa b0bd
00000330: ccd5 143e 649d 3ebc 2a17 a4bc 873d 21bd
00000340: 9232 9abd f097 52bd 7516 893e 8f29 cdbc
00000350: e367 133e 3907 bebc 2f25 97bd 33c2 8bbd
00000360: fdff c13d 67ac a1bd 34b0 09bd f7fe c63d
00000370: 0fbf b53c 9b06 a6bc daf8 3f3e 9c09 8dbd
00000380: af4b e43d 3226 4e3c e388 f53d 293e ac3d
00000390: e36a d5bc 1bf9 dfbd 8a84 123e f18f 23be
000003a0: 5b32 eabd 2d3a 2fbe c211 f33b fe89 e93b
000003b0: 45eb 2c3e a23c 20bd d484 67bd 5079 80ba
000003c0: 121b 85bd 8b1b fc3c 0ff5 fabd 7aff 87bc
000003d0: ba70 363d e8ec 463c 5a4e 3e3e 3046 8d3e
000003e0: f05a f13d 847a 6d3c ad29 c3bd 1d82 aebd
000003f0: a4e7 373d 09c5 573e 9048 133d 12f3 acbd
-0.070012845 0.061751854 -0.009511261 -0.020467686 0.042611223 0.054743 0.06386566 0.11313679
-0.0018881683 -0.0148934955 0.23236786 -0.04725658 0.0764488 0.14458983 0.016907435 -0.05033597
-0.074852794 0.23066309 0.05793817 -0.0566454 -0.14547144 -0.109439135 0.18547444 0.021086019
-0.04271075 -0.057039313 0.005063897 0.00023707157 0.04225045 0.032979704 -0.016194481 0.10004649
-0.042528283 0.024352478 -0.013045061 0.024573142 -0.0202264 -0.06271193 0.14133714 -0.022420485
0.037971515 -0.013974759 0.21608211 0.28027222 -0.08326344 0.11986808 0.032516293 0.06403158
0.09572257 -0.0007414214 0.07888098 -0.018254524 0.02411639 -0.03995989 -0.1520873 -0.16431326
0.0239154 0.013815409 -0.05644669 -0.052590337 0.22660927 0.05851181 -0.05313591 -0.021552393
-0.052879438 0.04745287 0.0049530794 0.033408053 0.07197264 -0.019477613 -0.09400828 0.15757176
0.054793015 -0.102277175 -0.0007108719 0.18939303 -0.021394143 0.03875042 -0.012572489 -0.079492025
-0.0020690216 0.01028704 0.011778606 0.0749479 -0.033841126 0.045885205 -0.011859256 0.0083635915
-0.051309645 -0.10035014 0.0098057855 -0.08519596 0.14384598 0.16617692 0.1659917 -0.036527194
-0.07976204 -0.008165963 0.22778432 0.09297305 -0.14447571 -0.05083666 -0.07942677 0.17754327
-0.04871638 0.082768254 0.23380776 -0.09858973 -0.06055636 0.024487965 0.12565857 0.13711663
0.18381645 -0.07657057 0.0073855864 0.23919949 0.0027639235 0.086144716 -0.020752696 0.027192842
-0.03669865 -0.0730557 -0.11160015 -0.08547394 0.023953442 0.071909085 -0.06603764 -0.05810387
-0.056744393 0.003892928 0.058220398 -0.07219589 0.0013198579 -0.047600813 -0.062244996 -0.07037546
0.029562367 0.042544074 0.0608245 0.07812537 -0.014601554 -0.00053666777 -0.04552811 0.105372064
0.08145183 0.05985066 0.2705584 -0.033099685 0.055285048 0.04935572 -0.115607545 0.03907376
0.0062713595 -0.0738673 -0.024065582 0.25463998 -0.012541591 0.044728 -0.088455856 0.008630681
-0.1272266 -0.05175805 0.06922848 -0.12858367 -0.029576916 -0.17372343 -0.052328125 -0.010047281
-0.18582515 -0.023534006 0.08140523 -0.15437977 -0.030229863 -0.016224885 0.08631984 -0.0058908854
0.016796466 -0.041626904 0.06153843 -0.02375583 -0.07811104 -0.16824436 -0.06658133 -0.008061848
0.049516197 0.0019676022 0.05591677 0.22483669 0.030694563 -0.01599506 -0.06348887 -0.1379012
0.0074473075 -0.018783387 -0.11505514 -0.02847591 -0.021643782 0.10096001 -0.09945439 0.010784297
-0.13861045 -0.0013401511 -0.1202309 -0.08641555 0.14534682 -0.011634205 -0.020030577 -0.039365318
-0.07529177 -0.05141443 0.26774946 -0.02504423 0.14395098 -0.023196803 -0.07380139 -0.0682415
0.09472654 -0.07894211 -0.033615306 0.097165994 0.02218583 -0.020266822 0.18747273 -0.068865985
0.11147248 0.012582349 0.11989 0.084102936 -0.026051944 -0.10936185 0.14308372 -0.15972878
-0.11435386 -0.17112036 0.0074178884 0.0071270457 0.16886623 -0.039120324 -0.05652316 -0.0009801779
-0.06499304 0.030774852 -0.122537725 -0.016601313 0.0445411 0.012141444 0.18584576 0.2759261
0.11784923 0.014494542 -0.095294334 -0.08520911 0.044898644 0.21071257 0.035957873 -0.084447995

fc2.weight f4 [256, 256]
00000000: 2657 02bd aa25 eb3c 9cf4 a33c 74d6 30bd
00000010: eeb8 21bc 693c debc 50ee 93bc d33c 3cbd
00000020: 0945 773c 71a8 023d 454a 4bbd 9b0a 75bd
00000030: a706 56bd b2b6 4fbc 00a2 0b3a e4eb 103d
00000040: 18b9 9cbc 6f74 a7bd 3930 77bd e96c 26bc
00000050: 5873 673c a138 01bd 2eea 1b3d 4ce0 84bc
00000060: 1fcf a63c 3d2b 1bbd b8a8 2abd f32b 5d3d
00000070: 2cff 95bc f051 2bbc 5da5 693c b81b 4cbd
00000080: 25ab 813b e356 15bd 9242 133d 5c20 3b3d
00000090: 2355 2ebd 463c 2c3d cbe9 45bc 8a04 29bd
000000a0: ec69 3fbc 88af f13c 695b 8d3d dbcb 35bc
000000b0: 85a0 cf3c 8323 61bd 657e fbbc c0a3 913c
000000c0: 596f 95bc 301c 5f3c 66d1 e4bc a8bb 783c
000000d0: 54b0 ca3c f535 22bd b0d6 95bc 6d49 7fba
000000e0: 849d 84bd 2a8d 33bd 375a 183d bc21 60bd
000000f0: 92f9 1bbd ac5f 90bd 9019 293c 502b 0bbc
00000100: e385 93bd 33f5 053d 4fc9 323d 9e1d 243d
00000110: d6dd e23b b6e2 5e3d 0467 d4bc 0c5e 183d
00000120: 2c8f b33b d5bf 593d b6c9 0bbd c6ff 183c
00000130: 236f 813b f8e8 03bd f0df b73c 9c8a f9bc
00000140: a839 7dbd 720c b5bc 0dbc 3bbd e85d 873d
00000150: 71bb 81bc 2f91 2cbd 0c9a 3f3b 0091 403b
00000160: 877a 3dbd 0058 0a3d 2683 61bd 3f14 55bd
00000170: ba17 923c 4d79 053c ce3f 05bd 7852 53bd
00000180: 4982 f7bc c0ed 473c 775a 0e3d 1dd7 27bd
00000190: a715 89bd 8ded e1bc b05c fd3c a8f8 d33b
000001a0: b1b7 1c3c cfbd c73c 3e0f 1b3d 162f fe3c
000001b0: f1f7 6abd 1dde 32bd dd03 dcba 065a 20bd
000001c0: 7a71 53bc 58c1 8e3b cc5c 8abd f1be cb3c
000001d0: 9dda 83bd 8f4c 17bd 9016 f13c 516b 823d
000001e0: 38b0 b6bc 9bb6 8f3b 520e d9bb 13bd 5f3b
000001f0: 3648 873b 1643 5bbd cc60 8bbd c682 3bbd
00000200: 258d 263c c857 55bc b0d6 af3c 644a 57bd
00000210: fc57 ca3c 3800 d0bc ebb6 4d3d a0c0 ee3b
00000220: e51b 5d3c f4ec edbc b545 55bc 306c babb
00000230: f868 efb9 4a85 7abd 8295 5abd 3602 89bd
00000240: 4cc0 9fbc 28fd a6bc 74bf 513c e05b 643d
00000250: 7801 51bc 7b1c 1ebd 3c85 02bb 71e8 cd3c
00000260: 1482 90bd 26f9 54bd 920e 9d3b 1005 e63c
00000270: 8479 423d 4835 28bd 3c38 5f3d 18bc d4bc
00000280: d843 92bd 26d9 20bd 0eff 293d d7b5 38bc
00000290: c51b bbbc f8ef 4bbd c0f3 dbbb 2814 0f3d
000002a0: b660 3abd 2504 acbd a038 9dbb cb14 13ba
000002b0: b05b 52bd c007 eb3c 6727 1a3d df41 543c
000002c0: 05d3 2cbd 808a 283b ae5c 133d 656d 74bd
000002d0: ea7f 7a3d 4c85 87bd dea1 3fbd e7c5 253d
000002e0: 8670 89bd e903 fabc 1cf1 b4bc 4833 8cbd
000002f0: 4512 64bc a8f8 7b3c da37 dc3b e4b6 72bd
00000300: cfe5 12bd 8049 0fbd 3e6f 34bd 9059 64bd
00000310: d001 3c3d 6abd c63c e735 3dbb 7461 f9bc
00000320: 9478 15bd 0d3f 04bc ce42 ca3c 53d0 f33c
00000330: 01a9 0dbc 04d4 623d 46a4 543d 6582 7dbd
00000340: fbb8 cb3c 26ef 263d 73c9 86bd cba2 8abd
00000350: cecc 71bd 3993 283d 7469 2abd 8b2c 87bc
00000360: 2aae 623c c631 93bd 1c88 7bbc 0a33 e5ba
00000370: cbb3 78bc 333c 90bc 9f0c 9fbc 2747 3abd
00000380: d903 ecbc 7fe6 843d c861 1ebd b5d5 753d
00000390: 75f3 36bc e8d9 263c b823 b6bd e558 d1ba
000003a0: 0bb8 47bd 7adf cb3c ad31 14bd 030d 203c
000003b0: 698a 6bbc 8f0c d63c f4ce 08bd f8a2 7cbc
000003c0: 261a eb3c b079 3abc b6e6 abbd ed18 19bd
000003d0: 2878 64bc 5a26 313d 42db 233d e412 97bd
000003e0: 5c62 e13c 7451 403d 05ee cc3c 6282 4c3c
000003f0: 3247 13bd 23ac 8cbd 19ee 08bd 1087 623c
-0.031821392 0.028704483 0.0200141 -0.04317327 -0.009870751 -0.027128415 -0.018057972 -0.045956444
0.015092143 0.03189892 -0.049631376 -0.059824567 -0.052252438 -0.012677835 0.0005326569 0.035381213
-0.019131228 -0.08176505 -0.060348723 -0.010157802 0.014126621 -0.031548146 0.038065128 -0.016220234
0.020362435 -0.037883032 -0.04166481 0.05399699 -0.018310152 -0.010456547 0.014260617 -0.049831122
0.0039571696 -0.036459815 0.03595216 0.045685157 -0.04256166 0.04204967 -0.012079666 -0.041264094
-0.011682969 0.029502645 0.06902201 -0.011095966 0.025345096 -0.054965507 -0.030699918 0.017778277
-0.018241571 0.01361756 -0.02793188 0.0151814595 0.024742283 -0.03960224 -0.018290848 -0.00097384193
-0.06475356 -0.043835796 0.03719541 -0.05471967 -0.038079806 -0.07049498 0.010321036 -0.008494213
-0.07203271 0.032704543 0.043649014 0.040067308 0.0069234176 0.054415427 -0.025928028 0.037199065
0.005479714 0.05316146 -0.034127913 0.009338325 0.003950016 -0.0322046 0.022445649 -0.030461602
-0.061822563 -0.022100661 -0.045833636 0.06609708 -0.01583645 -0.042130645 0.0029236106 0.0029383302
-0.04625943 0.03377533 -0.055056714 -0.05202126 0.01783358 0.008146596 -0.032531552 -0.05159232
-0.030213492 0.01220268 0.034754243 -0.040976632 -0.06693583 -0.027579093 0.030927986 0.006468851
0.00956528 0.0243825 0.037856333 0.031028312 -0.05736536 -0.043668855 -0.0016785819 -0.039148353
-0.012905473 0.0043565445 -0.06755981 0.024871321 -0.064381815 -0.036938246 0.029429704 0.06368125
-0.022300825 0.004385782 -0.0066240216 0.0034139797 0.0041284813 -0.053530775 -0.06805572 -0.045779012
0.010165487 -0.013021417 0.021464676 -0.05256118 0.024700157 -0.02539073 0.050223272 0.0072861463
0.01349542 -0.029043652 -0.013017108 -0.0056891665 -0.0004566384 -0.06116227 -0.053365238 -0.06689875
-0.019500874 -0.020384386 0.012801994 0.05575168 -0.012756698 -0.03860138 -0.001991584 0.02513525
-0.070560604 -0.05199542 0.0047929967 0.028078586 0.047479168 -0.041066438 0.05449699 -0.025968596
-0.071418464 -0.03926959 0.041503005 -0.011273823 -0.02284039 -0.0497894 -0.006712407 0.034931332
-0.045502387 -0.08399228 -0.00479801 -0.00056107034 -0.05135697 0.028690219 0.037635233 0.012955158
-0.04219343 0.0025717318 0.035977058 -0.05967464 0.061157145 -0.06617221 -0.046785228 0.040471938
-0.06710915 -0.030519443 -0.022087626 -0.068457186 -0.013920371 0.0153791085 0.006720525 -0.05925645
-0.035863694 -0.034982204 -0.0440514 -0.055749476 0.045900166 0.024260242 -0.002887124 -0.030441977
-0.036491945 -0.008071673 0.024690058 0.029762423 -0.008646251 0.055377975 0.051914476 -0.061891932
0.024868479 0.040755413 -0.06581392 -0.067693315 -0.059033208 0.041156027 -0.041604474 -0.016500732
0.013835469 -0.07187228 -0.015352275 -0.0017486524 -0.015179585 -0.01760683 -0.019415198 -0.045478012
-0.028810428 0.06489276 -0.03866747 0.06001826 -0.011166443 0.010183789 -0.088935316 -0.0015971927
-0.0487595 0.024886835 -0.036180187 0.009768727 -0.014376261 0.026129035 -0.03340049 -0.015419714
0.028698992 -0.011381552 -0.08393614 -0.037377287 -0.013944663 0.043249466 0.040004022 -0.0737665
0.027512722 0.04695268 0.02501584 0.012482258 -0.03595657 -0.0686877 -0.033430193 0.013826147

fc2.bias f4 [256]
00000000: 9187 813c c954 f2bb 3c4d d53b 528b 74bc
00000010: 3ed3 96bd 4154 8a3d d7db 84bd c8e2 993b
00000020: 43d6 92bd a59b 013c ded3 90bd 7934 923b
00000030: fce5 d6bd b3be 3a3e 0036 8abd 9c24 0ebc
00000040: 5156 2abc c276 5b3e ec18 f0bc ca5c 073b
00000050: 7d09 983e cdfe dc3d 6afc 6abd fc9a 523c
00000060: bb85 8a3b 57cc ff3a 9fbc e6bd 8f50 5b3c
00000070: c3e1 c4bc cab3 f5bc 845f 593d ffa2 093d
00000080: 10b2 a1bd 8f28 f13c a918 463d c6b0 d7bd
00000090: 60a1 283c 8872 b93c e479 96bd 3557 693b
000000a0: 027f 5e3e a7ab e3bd 1457 bdbd 7258 98bd
000000b0: 2388 fb3c 9ada 4cbd f91a 83bd 3606 af3c
000000c0: da04 003c ec5b 89bd fae4 51bd 052e 273b
000000d0: 5400 aabc bdac 7fba dce5 273c babf 79bd
000000e0: a8e2 14bd 9292 94bb 5ea8 ddbb 7436 50bd
000000f0: c62f 84bc b4ac 9c3c 14a2 a5bc 0fa0 eebc
00000100: 8f74 b3ba 96fb e8bc 7ed2 a8bc 806c 353b
00000110: 8b81 5bbd f8f2 41bd 16d5 363d 491d 943e
00000120: ecc2 64bd 27b9 833b 9195 2b3c bee7 91bd
00000130: 7f1f 1c3d 579e eabc cf94 13bb f4c3 333c
00000140: 8e97 4cbd 0db4 7cbb 1907 85ba d08d 213c
00000150: efd0 86bd 7345 cf3b ab2f 70bd d7b3 83bd
00000160: a293 acbd dbc8 64bd 2f40 07be f3e5 dd3c
00000170: d4b2 febd bc61 5abd 910f 0d3d 3411 503e
00000180: f94a 76bd 05a6 553c 0e96 81bd 83d7 a3bc
00000190: 0e65 03bd 8796 49bd 23f9 663e ca7c 1c3d
000001a0: ac98 c8bc 4c46 e3bb 073f a83c 1b93 79bd
000001b0: 41bd 46bd c246 773c 9e27 583d 29fc ebbd
000001c0: aa44 91bd 5fd8 61bc 55f6 72bd 266b 94bd
000001d0: 8c24 cfbc dc8e acbd c1a7 613c bd89 debd
000001e0: 87f0 733e 01f7 49bd 8149 cabc b2e9 2ebd
000001f0: 8fac 48bd 7085 2c3c 29aa a2bd 977d 63bd
00000200: 98a1 a3bc 49e3 3abd 8382 023d ccfd 63bb
00000210: f180 8ebd 23a8 d83b 7a5c 4cbd d2d1 cabc
00000220: 216b 8b3b 89de b63d 85a8 68bc 7ab7 8e3c
00000230: 1ab0 e4bc 1b54 90bc be07 b2bc 214a c0bc
00000240: ba64 863e d3e3 d93e bfcc 5c3c 9efa 753c
00000250: 8d20 e63c 10a2 0bbd 7397 8b3d 25ba 543c
00000260: 9f58 9abd 104d 22bd 77b5 61bd b6cc 05bd
00000270: 69b4 3d3d 0041 dcbd cc39 03bd 1b20 2cbc
00000280: 7140 1ebc e7d9 d13d 52e1 e83c 08df 36bd
00000290: f9bc 45bd 9067 c33c 718a f1bd fdb1 debb
000002a0: 68b0 723d 466a 2d3d 650e 26bd 8f18 e7bc
000002b0: b986 7e3c b1c6 83bd 7a61 51bd be38 08bd
000002c0: dec0 9b3b c28d 87bd a53c 783c ea49 423d
000002d0: f187 91bd 5d0a c63c 0227 ebbc 0b60 7cbd
000002e0: a4a5 f73c 832f 5c3d a35d 02be 9b18 14bd
000002f0: b0dd 01bd 4e92 973e 9c34 51bd 99ec 18bc
00000300: a215 443d dd4c 0c3d fc54 1f3d 1e9c 733c
00000310: 7204 2bbd 4003 d33b 435a 933d eb03 333d
00000320: a5a4 4e3b 6925 76bb b4de 9b3e a6de 80bc
00000330: 93b3 f6bc 47b6 a53e 67ba 043c 7dd9 85bd
00000340: a303 d5bc 3570 4cbd dedf 1fbd 8120 eabc
00000350: 6a95 7ebd f70d ec3c 7dbe 2bbd 8698 fbbd
00000360: 053f b1bc 2a8d eb3d 84d3 c1bc fdad 86bd
00000370: d45e f7bc a0c9 1dbc fb29 8a3c f504 e73b
00000380: 86e6 2fbd efcf 4e3e e4c6 453e edd3 f03c
00000390: ab56 1cbd b4bc 2cbd 2fa9 723e afee 9a3e
000003a0: f526 a63e 99ad 7ebd 0766 4fbd 51fe 203d
000003b0: 2c8b 2a3d fae8 123d ccdb 93bd 7541 19bd
000003c0: 2c0d e53c e2e4 8cbd 27a3 adbc 76b1 62bd
000003d0: 05a3 3d3d e6d9 bbbc 0fcb 393d ad5d f2bc
000003e0: 4d69 7e3c 767b 8fbd 3b18 fabd 8f32 4abd
000003f0: fa41 9cbd 40dc fbbd 0f4d 65bd 80d8 a5bd
0.015811713 -0.007395361 0.006509451 -0.014925795 -0.0736451 0.067543514 -0.064872436 0.004696224
-0.071697734 0.007910644 -0.070716605 0.0044618216 -0.10493085 0.18236808 -0.06748581 -0.008675721
-0.010396556 0.21432021 -0.029308759 0.0020654672 0.2969474 0.10790787 -0.057369627 0.012854334
0.0042273677 0.0019515854 -0.11266445 0.013385906 -0.024033433 -0.029992957 0.053069606 0.03360271
-0.07895291 0.029438285 0.04836336 -0.10531764 0.010292381 0.02263762 -0.073474675 0.0035604958
0.21728137 -0.111167245 -0.092451245 -0.074387446 0.030704563 -0.050013162 -0.06401629 0.021365266
0.007813657 -0.06706986 -0.05124376 0.0025509608 -0.02075211 -0.0009753218 0.010247674 -0.06097386
-0.03634897 -0.004534074 -0.0067644557 -0.05083318 -0.016136061 0.01912532 -0.020218886 -0.029129056
-0.0013691353 -0.028440278 -0.020608183 0.002768308 -0.05359034 -0.047350854 0.04463681 0.28928593
-0.055849954 0.0040198746 0.010472671 -0.071242794 0.038115975 -0.028639955 -0.0022519117 0.010972012
-0.04994922 -0.0038559467 -0.001014921 0.009860471 -0.0658282 0.0063254177 -0.05863921 -0.06430786
-0.08426596 -0.055855613 -0.13208078 0.027087187 -0.124364525 -0.053315863 0.034438673 0.20319062
-0.060130093 0.01304007 -0.06327449 -0.020000225 -0.032078795 -0.04921582 0.22555976 0.038204946
-0.024486862 -0.0069358703 0.020537866 -0.060931306 -0.04852033 0.015092554 0.052772157 -0.11522705
-0.07093175 -0.013784497 -0.05931695 -0.072469994 -0.025285982 -0.08425686 0.013772906 -0.10866115
0.23822223 -0.049307827 -0.024693253 -0.042703338 -0.04899269 0.010529861 -0.07942612 -0.055539694
-0.019974515 -0.045626912 0.031862747 -0.0034788726 -0.06958187 0.0066118403 -0.04989288 -0.024758253
0.004254714 0.08929164 -0.014200334 0.017421473 -0.027916003 -0.01761823 -0.021732207 -0.023472847
0.26248723 0.4255663 0.01347655 0.015013365 0.028091693 -0.0340901 0.06815996 0.012983833
-0.075364344 -0.039624274 -0.0551047 -0.03266593 0.04631463 -0.10754585 -0.03203754 -0.010505701
-0.009658919 0.1024664 0.028427754 -0.044646293 -0.04827592 0.023853093 -0.11793984 -0.00679612
0.059250265 0.04233768 -0.04054107 -0.028209953 0.01553505 -0.06434382 -0.05111835 -0.03325724
0.004753216 -0.06618835 0.0151511775 0.04743377 -0.07106007 0.024174863 -0.028705124 -0.06161503
0.03023035 0.05375625 -0.12731032 -0.036156278 -0.03170556 0.2960381 -0.051075563 -0.009333753
0.047872193 0.03425299 0.038899407 0.014868764 -0.041752286 0.0064395964 0.071949504 0.04370491
0.0031531241 -0.003755892 0.30443347 -0.015731167 -0.030114925 0.3236563 0.008101082 -0.06535623
-0.02600271 -0.049911696 -0.039031856 -0.028579952 -0.06215421 0.028815253 -0.04192971 -0.12284951
-0.021636495 0.11501534 -0.023660429 -0.065761544 -0.030196585 -0.009630591 0.016865721 0.0070501515
-0.042944454 0.20196508 0.19314152 0.02939793 -0.03816859 -0.04217215 0.23697351 0.30260226
0.32451597 -0.062177274 -0.05063441 0.039305035 0.04163663 0.035866715 -0.07219657 -0.03741594
0.027960382 -0.068795934 -0.021195961 -0.05534502 0.046298046 -0.02293105 0.045359667 -0.029585684
0.015528035 -0.0700597 -0.12211653 -0.049364623 -0.076297715 -0.12297869 -0.055981692 -0.08097935

fc3.weight f4 [5, 256]
00000000: bdc8 10bc 1277 5f3f ab8c 923c 5d1b 45be
00000010: 649c 35bd db54 c3be 9c3a 0bbe a467 03bd
00000020: d010 6ebd 8a94 5fbc 7df5 013f f1c7 223d
00000030: 5c0f 5fbe 92e6 0340 908b f03c ceab 4d3c
00000040: 434d bd3d adc0 933e 4f2d 73be 5729 753c
00000050: a296 2f3e 099d 6bbc fcbf dabc ace0 943c
00000060: 477b 263d e35d 053d 93de 14be 6e7a d2bd
00000070: 25d9 0dbe 8ecd 7e3d fe81 db3c 60b7 0bbe
00000080: 9d9e 3d3d ac36 a53b 4581 d03d 0ac7 73be
00000090: a191 fd3c b0a7 c53b 6800 183d bc43 c43c
000000a0: db92 193f a93f 303e 826b d13c 9a97 9f3e
000000b0: f196 42be 41f8 73be 6ae9 8cbe 6679 493d
000000c0: 1cb6 873c 3ae8 6dbc 3c62 dcbc 5bab 08bd
000000d0: 0891 d63b 68d5 903c faf3 d33c 4fa8 bdbe
000000e0: abc5 2c3c 5d97 523d 16f7 253d 46ed 893b
000000f0: 6854 cc3c 6686 943c 0b6e 3c3d 82c0 1e3d
00000100: 1062 5a3c 1251 713d d47a 4cbc 7acc 1dbd
00000110: 6757 87be c723 483d 73f1 9bbb 3cf9 733e
00000120: ee2f 3a3c eb5c 103d 6b13 0c3d 53eb acbc
00000130: 8453 d2bc 311f c4bd 2aa1 3e3e b340 ee3c
00000140: 9ef4 513c fc88 b0bb ec97 79bd bed2 8f3b
00000150: 3b48 b53c 9220 253d 7249 08bd 93d2 0e3d
00000160: eb39 05bc 4736 143d e4d5 44be de5b a83c
00000170: 3fc2 8abd 7104 bf3c 1ba5 55bb 655e 9cbc
00000180: 5639 323d f2b3 fe3c d20b 1f3d 3caf 33bd
00000190: be76 433d f629 19ba f732 953f 7c67 823c
000001a0: b07f 96bd 87fa 43be 1dd3 c6bc 0e77 2f3d
000001b0: 25da f23c e52c 003d bcaa 293c 003a 20be
000001c0: c8f2 953c b3d0 1cbd 6e1b 563d 2fa2 58be
000001d0: 43d7 fc3b bc2f 7bbe 56a6 69bb b2a4 69bd
000001e0: 44f2 613f f692 7ebd 2680 243d e277 15bc
000001f0: 8f77 e93c bcd9 13bd 1720 593d ca2d 2a3d
00000200: c6d3 bcbb 6b61 0a3d 96a2 293d b0c3 0c3c
00000210: fdb6 1f3b 82ce 7b3a 44d1 8b3c 74af d93a
00000220: ae00 67bd b119 2e3e ad01 b73c 4364 933c
00000230: b3ba 5dbe 1959 03be 774b a53c 70b2 7bbe
00000240: 313f b03f 8f19 013f 36b9 bb3c 622d fa3c
00000250: db63 623d c321 873c 5b73 3abe 1e0d d53c
00000260: c0e3 9f3b 0838 49bd 9e5d 68be 9a64 413d
00000270: 01bc 073d 3954 8cbe 0c09 64be e66c 133d
00000280: 55b5 c03c 2979 fa3f 5a11 413b b6ca 4dbd
00000290: dc7e 723d f26c 873e 5895 6d3c db2d 77be
000002a0: edea ea3c 5a27 613d ec0b 413d e9f3 2bbe
000002b0: 8ac1 62bd 506d 1c3d f800 193c 4f34 4c3d
000002c0: 262e 313d 6c39 c9bc bcd3 debc 6618 e43c
000002d0: fe61 fbbc 8fd3 03be 7498 90be b221 ad3c
000002e0: 3a16 1abd 7fd0 3dbe 729b 673d 6089 85be
000002f0: 9f61 973c ae80 7c3e 8098 ccba aa19 8fbc
00000300: 23fd c43c b14f c83c 50b8 7bbc d60e 213d
00000310: 0316 c93c d71e 21bc b2ab 33be 94c6 f83c
00000320: 1eaa 9e3c cd9f 61be 09e0 003f 9ca8 1bbb
00000330: 7559 9c3c 7ad6 863e 694e c5bd 009c d538
00000340: e647 01bd 1650 6a3d 33f0 af3c 3fdd 0c3d
00000350: 8f82 453d f413 153c c757 5d3c 059e 5ebe
00000360: 68c8 1e3d 8ce1 c63e edb2 52be a99b 69be
00000370: b09b 5b3d 9168 4cbe cad8 e63c 85d7 a6be
00000380: e9b8 6cbd a1be 9d3f 7847 2a3e 8e1d 153d
00000390: 29a3 9d3b 1058 ca3c 8ec7 0340 dce4 d83e
000003a0: 0994 833e 8493 c23c cb13 4d3c e4e4 d93c
000003b0: 180b 0bbc 0222 c13b 2502 fcbe b090 b9bd
000003c0: 4078 f4bb 0dc6 d93b 9a59 c03c 0a86 5abd
000003d0: c0cf a8bc e316 1fbe 9954 133d bca6 5fbe
000003e0: 08f7 15bd 3de4 48bd 8a32 13bd 4df8 f03c
000003f0: 0c10 613d 9601 5cbe 9b6a 14be 1135 16be
-0.008836922 0.8729106 0.017889341 -0.1924872 -0.0443386 -0.38150677 -0.13596576 -0.03208126
-0.058121502 -0.013646254 0.5076521 0.03974146 -0.21783203 2.060948 0.029363424 0.012553168
0.09243252 0.28857937 -0.23747753 0.0149634695 0.17147306 -0.014380702 -0.026702873 0.018173538
0.04064491 0.03256024 -0.1453803 -0.10277258 -0.13852365 0.06220775 0.026795384 -0.13644171
0.046293844 0.005041918 0.10180906 -0.23806396 0.03095323 0.006031953 0.037109762 0.02395808
0.5998971 0.17211784 0.025563959 0.3117035 -0.19002892 -0.2382517 -0.2752183 0.04918804
0.016566329 -0.014520699 -0.02690231 -0.033366542 0.006548051 0.017679885 0.025873173 -0.37042472
0.010545175 0.051413883 0.040518843 0.0042091934 0.024942592 0.018130492 0.046003383 0.03875781
0.013329044 0.058915205 -0.012480456 -0.038525082 -0.2643387 0.048862245 -0.0047590076 0.23825544
0.011363966 0.035244863 0.034198206 -0.021108305 -0.025674589 -0.09576262 0.18616167 0.029083585
0.012814669 -0.0053874236 -0.0609359 0.004389136 0.022129169 0.040314265 -0.033273168 0.034868788
-0.0081314845 0.036184575 -0.19222218 0.020551618 -0.06775331 0.023317548 -0.0032599631 -0.01908798
0.04351171 0.031091664 0.038829632 -0.04386829 0.047720663 -0.00058427395 1.1656178 0.015918486
-0.07348573 -0.19138537 -0.024270589 0.04283815 0.029645035 0.031292815 0.010355648 -0.15647125
0.018304244 -0.03828497 0.052272253 -0.21155618 0.007716091 -0.24529928 -0.0035652122 -0.05704183
0.88260293 -0.06215187 0.040161274 -0.009122821 0.028499393 -0.03609632 0.05300912 0.041547574
-0.00576255 0.03378431 0.04141482 0.008591577 0.0024370544 0.0009605662 0.017067559 0.0016608075
-0.056397133 0.17001988 0.022339666 0.017992144 -0.21653251 -0.12826957 0.020177586 -0.24579787
1.3769284 0.50429624 0.022915464 0.030539218 0.05527101 0.016495591 -0.18208067 0.026007231
0.004879445 -0.0491257 -0.22691962 0.04721508 0.03313828 -0.27408007 -0.22269076 0.035992526
0.023523966 1.9568225 0.0029459805 -0.05024215 0.059203014 0.26450306 0.014500938 -0.24138586
0.028676474 0.05496917 0.04713051 -0.16792263 -0.055360354 0.038190186 0.00933861 0.049854573
0.0432569 -0.024563514 -0.027200572 0.027843665 -0.030686375 -0.12873672 -0.28241313 0.021134231
-0.037618853 -0.18536566 0.05654473 -0.2608137 0.018479167 0.24658462 -0.0015609413 -0.017468292
0.024046486 0.024452062 -0.015363768 0.03932079 0.024546629 -0.009834013 -0.17545965 0.030368127
0.019368228 -0.22033615 0.5034185 -0.0023751622 0.019085625 0.26335508 -0.09634096 0.00010185689
-0.03156271 0.057205282 0.02147684 0.034390684 0.048220214 0.0090989955 0.013509697 -0.21739967
0.03876534 0.38843954 -0.20576067 -0.22813286 0.053615272 -0.19961764 0.028179545 -0.32586303
-0.05779353 1.23238 0.16628826 0.03640514 0.00481071 0.024700195 2.0590549 0.42362106
0.2569888 0.023751982 0.012516926 0.026598401 -0.008486532 0.0058939466 -0.49220386 -0.090608
-0.007460624 0.006645924 0.023480225 -0.053350486 -0.020606875 -0.15536074 0.03596935 -0.21840948
-0.03661254 -0.04904579 -0.03593687 0.029415274 0.054946944 -0.2148498 -0.14493792 -0.1466868

fc3.bias f4 [5]
00000000: b32d b73d de42 8e3d f76e e03d 2d54 f43b
00000010: e99e de3d
0.08944263 0.06946348 0.10958665 0.0074563236 0.108701535
