Model/DQN/[S0][semiconv_ego]net_Q(all).pt (torch, 912794 bytes, 18 tensors)

weight f4 [256, 31]
-0.009766353 -0.10825577 0.06278823 -0.027975919 -0.117633566 0.16617605 -0.084463656 0.050128687
-0.0187497 0.083554134 0.11151408 0.073214784 -0.08782252 0.024898056 -0.0020862082 -0.17947078
-0.20073198 0.139361 0.009101737 -0.08906408 0.1547893 -0.07318509 -0.10597629 0.07001515
0.071207 0.1459258 0.07897552 0.1572522 0.1872829 0.1691834 -0.0767222 -0.01056021
-0.099267624 0.092242286 -0.31651184 -0.27434066 0.10780095 -0.14552757 -0.040958356 -0.12720293
-0.19326018 0.085630186 -0.042507738 0.060415536 0.008371516 0.05104274 0.16931066 -0.0027585616
-0.015703201 0.010935467 0.06692664 0.084880084 -0.20281787 -0.14134645 -0.111366846 -4.893146e-05
0.02573901 0.058607332 0.11695363 0.065262266 -0.0463274 -0.066839024 -0.0145646585 -0.43858817
-0.6969264 -0.5458803 -0.34595025 -0.21659718 -0.096060306 -0.29498672 -0.14319803 -0.38071606
-0.35596937 -0.026750742 -0.27834618 0.016156433 -0.11640439 -0.05417583 0.07529544 -0.13482974
-0.053591933 -0.019943316 0.19590405 -0.016415393 -0.32453713 -0.0738152 0.17941974 0.057021063
-0.08575571 0.0977275 0.061931442 0.049463224 0.11427364 -0.09216049 -0.1274085 -0.28477177
-0.013340108 -0.21966892 0.07977775 0.08862678 -0.24623372 -0.14370358 -0.2848391 -0.0886816
-0.035212766 -0.219112 -0.26697102 -0.2752668 -0.067310855 -0.018234458 -0.026029684 -0.1854831
-0.070894524 0.017084185 -0.1498567 -0.0459491 0.09261058 -0.00075994316 -0.16476086 -0.054328218
-0.03439412 -0.083210364 -0.22957829 0.00648412 -0.24650465 -0.16403724 -0.016781667 -0.18200944
-0.41167238 0.008261248 0.031701054 -0.040770438 -0.17717448 -0.006972058 -0.018628934 0.0101539185
-0.23149809 -0.026743265 -0.06073369 -0.079138994 0.05577535 -0.17060165 0.04537621 0.10268579
0.22698064 -0.12844229 -0.16575629 -0.14554733 0.06355707 0.059019927 -0.3776124 -0.22896111
-0.029703353 -0.35966015 -0.02254156 -0.44359082 -0.48326522 -0.72205764 -0.3367828 -0.29394776
-0.10489647 -0.08605025 -0.05994843 -0.18390636 -0.086323865 -0.24524324 0.008006626 -0.16477597
-0.19794825 -0.1974588 0.031531233 0.25509387 -0.16191743 0.049650338 -0.057349853 0.2459486
-0.12258651 -0.2841471 -0.04627395 0.06166748 0.19374217 0.0065328884 0.12748039 -0.06383686
-0.13349299 -0.03955526 0.14707191 -0.08363936 -0.31523588 -0.08021901 0.33573014 -0.22818731
-0.06861961 0.07377186 -0.040783335 -0.1173136 -0.15103889 -0.2647324 -0.23606987 0.051739343
0.07404737 0.029590918 -0.34348956 -0.35221913 -0.2745722 -0.031381678 0.06268508 -0.21351194
-0.09926465 -0.08581904 -0.39905527 -0.026888223 -0.061088044 -0.15565471 0.016080983 0.16178563
0.0058486913 0.0333573 -0.13162996 -0.16541122 -0.009298963 0.117880955 -0.29819307 0.0035026679
-0.09032762 -0.08077405 -0.008120374 -0.23221263 -0.13325709 -0.035871606 0.17271735 0.1744097
-0.30759275 -0.1918941 0.057299335 -0.079019025 -0.10124031 -0.80951107 -0.0908465 -0.1361134
0.036102984 0.10361249 -0.20628007 0.063440934 -0.1033861 0.03080038 0.06455376 -0.06603271
-0.11292543 -0.26973975 -0.40658543 -0.125122 -0.4062357 -0.24257879 -0.16990311 -0.18367353
00000000: 0e03 20bc 33b5 ddbd 1e97 803d c12d e5bc
00000010: dee9 f0bd 0e2a 2a3e 48fb acbd bd53 4d3d
00000020: f998 99bc 6e1e ab3d 7e61 e43d a2f1 953d
00000030: 4bdc b3bd 02f7 cb3c c4b8 08bb 30c7 37be
00000040: af8c 4dbe a6b4 0e3e 741f 153c 3a67 b6bd
00000050: 1681 1e3e 11e2 95bd 190a d9bd 1a64 8f3d
00000060: fad4 913d 936d 153e ebbd a13d b906 213e
00000070: 17c7 3f3e 6a3e 2d3e 8720 9dbd bb04 2dbc
00000080: d34c cbbd 86e9 bc3d d70d a2be 6176 8cbe
00000090: bfc6 dc3d 2e05 15be f3c3 27bd 7c41 02be
000000a0: ffe5 45be e15e af3d 981c 2ebd 4876 773d
000000b0: af28 093c 3112 513d c65f 2d3e fcc8 34bb
000000c0: 00a4 80bc ac2a 333c d610 893d 9cd5 ad3d
000000d0: 7daf 4fbe 20bd 10be 4d14 e4bd c13b 4db8
000000e0: 9eda d23c 3e0e 703d 6285 ef3d 39a8 853d
000000f0: cdc1 3dbd e6e2 88bd 9ba0 6ebc a18e e0be
00000100: c569 32bf d0be 0bbf 6420 b1be a7cb 5dbe
00000110: 44bb c4bd 8008 97be 81a2 12be 37ed c2be
00000120: 9e41 b6be 5f24 dbbc 6483 8ebe 7f5a 843c
00000130: 6d65 eebd 7ae7 5dbd 7f34 9a3d cf10 0abe
00000140: 3783 5bbd 2a60 a3bc 129b 483e 9379 86bc
00000150: bb29 a6be 6c2c 97bd cfb9 373e eb8e 693d
00000160: b1a0 afbd 5b25 c83d d3ab 7d3d f399 4a3d
00000170: 4c08 ea3d a4be bcbd 6077 02be 9bcd 91be
00000180: 7890 5abc e4f0 60be 8462 a33d f581 b53d
00000190: b124 7cbe 0827 13be 6ed6 91be b39e b5bd
000001a0: 433b 10bd e55e 60be 6db0 88be c5ef 8cbe
000001b0: 46da 89bd 6e60 95bc 343c d5bc 48ef 3dbe
000001c0: 2631 91bd 22f4 8b3c 0974 19be 2035 3cbd
000001d0: 9eaa bd3d ec36 47ba 12b7 28be 4487 5ebd
000001e0: d9e0 0cbd 326a aabd 9216 6bbe be78 d43b
000001f0: b76b 7cbe 61f9 27be b579 89bc af60 3abe
00000200: b9c6 d2be 2f5a 073c f7d8 013d e7fe 26bd
00000210: 3a6d 35be dd75 e4bb b59b 98bc 9f5c 263c
00000220: d60d 6dbe b114 dbbc e4c3 78bd a013 a2bd
00000230: b274 643d 33b2 2ebe 68dc 393d ed4c d23d
00000240: 9d6d 683e 6086 03be 04bc 29be 5c0a 15be
00000250: 362a 823d e1be 713d 6a56 c1be c874 6abe
00000260: 7254 f3bc 6025 b8be 14a9 b8bc 561e e3be
00000270: 8a6e f7be c5d8 38bf cc6e acbe 5280 96be
00000280: f6d3 d6bd 1d3b b0bd 7c8c 75bd f351 3cbe
00000290: 91ca b0bd 0b21 7bbe 392e 033c 08bb 28be
000002a0: f2b2 4abe a432 4abe e526 013d aa9b 823e
000002b0: afcd 25be 275e 4b3d aee7 6abd f3d9 7b3e
000002c0: a30e fbbd bb7b 91be c189 3dbd 0a97 7c3d
000002d0: 5964 463e d711 d63b 388a 023e e6bc 82bd
000002e0: 63b2 08be b204 22bd 059a 163e 1d4b abbd
000002f0: 9966 a1be dd49 a4bd d2e4 ab3e efa9 69be
00000300: 7088 8cbd b315 973d 6d0c 27bd 1d42 f0bd
00000310: f0a9 1abe 018b 87be 4dbc 71be a2ec 533d
00000320: 26a6 973d a768 f23c dddd afbe 1156 b4be
00000330: ba94 8cbe 138a 00bd 0961 803d e0a2 5abe
00000340: 444b cbbd e5c1 afbd f950 ccbe b144 dcbc
00000350: 7537 7abd f363 1fbe 44bc 833c 22ab 253e
00000360: 61a6 bf3b aaa1 083d 01ca 06be 8f61 29be
00000370: ad5a 18bc 926b f13d c3ac 98be 048d 653b
00000380: b0fd b8bd dd6c a5bd 510b 05bc 26c9 6dbe
00000390: 8c74 08be 1bee 12bd d1dc 303e 7598 323e
000003a0: cc7c 9dbe e37f 44be b5b2 6a3d bad4 a1bd
000003b0: 1457 cfbd 1e3c 4fbf bb0d babd 5061 0bbe
000003c0: b9e0 133d c932 d43d 153b 53be 52ed 813d
000003d0: 17bc d3bd 1451 fc3c c334 843d 283c 87bd
000003e0: 7345 e7bd 541b 8abe f72b d0be fb1f 00be
000003f0: 20fe cfbe 9366 78be 15fb 2dbe ea14 3cbe

bias f4 [256]
-0.2841593 -0.12796383 -0.12859227 0.026455415 -0.13346013 -0.117922425 -0.06685149 0.09020156
0.07100991 0.25441048 -0.20581338 0.053377565 0.36769208 0.1733702 0.3644058 -0.16715378
0.22128251 -0.09891182 0.14353532 -0.07570779 -0.29246235 -0.10453658 -0.22663707 -0.07030294
0.3009028 0.35435236 0.06539993 0.03939812 -0.013225532 0.11549978 0.0025083546 -0.20424783
0.2533671 0.28141418 -0.025628278 0.0766734 -0.060995284 -0.2821499 -0.1816812 0.3705694
0.0041880375 -0.27296078 0.16358127 -0.0123608075 -0.31188476 0.06478529 -0.16791692 -0.14524084
0.20780009 -0.090019524 -0.022049587 -0.10243592 -0.2557332 -0.025112936 0.18744838 -0.08277133
0.2747814 0.15791039 -0.24192102 -0.16980514 -0.11819364 -0.1909786 -0.27686653 -0.32566914
0.31192204 0.14284031 -0.053893626 0.38223973 0.2892432 0.11545999 0.115059055 0.27352664
0.29009277 0.1117471 -0.15342495 -0.1846714 0.23340185 0.03398766 -0.20949592 -0.087498344
-0.16686726 0.22733527 -0.22301583 -0.13760461 0.2907517 0.21433036 -0.2568469 0.060161814
0.0748521 0.21011794 -0.2286922 -0.124883056 -0.1113586 0.2701006 0.20526478 0.11688768
0.3361286 0.14765418 0.37418106 -0.24131654 -0.24146639 0.06958784 -0.068836465 -0.08655414
0.12683596 -0.066699736 0.13597147 -0.2327439 0.31593683 0.007458229 0.024357967 -0.26155353
0.016080977 0.2191955 0.3231832 -0.25090712 -0.08050755 0.113450654 -0.045051724 -0.19686353
-0.20364654 -0.19768395 -0.1606627 0.22123931 0.1753457 -0.18434975 0.24498881 0.12438929
-0.06997322 0.24833907 0.1926003 -0.34655446 -0.06874149 -0.023051852 0.012533765 -0.02088992
0.14974134 -0.046379466 -0.18671112 0.23148358 0.29530528 -0.19392239 -0.023643125 0.30707437
-0.037701614 -0.03820073 -0.24599509 0.29929093 -0.2209981 0.3328155 0.2805217 0.19618607
-0.005149856 -0.12664661 -0.15757707 0.15506986 0.03876002 -0.054052297 0.25071284 -0.07942295
-0.086003356 0.31907138 -0.20891282 0.1853964 0.28567615 -0.25509414 0.1665598 -0.036977883
-0.30493048 -0.019852072 0.15930152 -0.27067557 0.1485648 -0.18613002 -0.15519617 -0.19529048
-0.22570595 -0.062312927 0.22785676 -0.21149471 -0.040675577 0.20999745 0.20609748 -0.0951601
0.19884449 0.10740892 -0.28413558 -0.16076167 0.063774735 -0.27339646 0.178502 0.1585916
0.2580496 0.090932675 0.03704856 -0.20082244 0.09676376 0.19244505 0.08945571 0.2651121
-0.09425097 -0.007533785 -0.22536431 0.024575261 -0.19749519 0.18528077 -0.25871715 0.072782956
-0.13927332 -0.016140383 -0.12732185 -0.06963872 -0.10459447 0.20035376 -0.044365324 -0.18957897
-0.08798879 0.12567154 0.3536736 -0.25667912 -0.22797589 -0.07163209 -0.27225748 0.10145517
0.17318113 0.15654813 -0.21513087 0.16974048 -0.12898763 0.17583157 0.30493623 0.13978374
0.17118657 0.35770696 -0.063731655 -0.09056898 -0.31396684 0.013409491 0.025844093 -0.023854455
-0.18561248 -0.02491328 0.053842187 0.13091564 -0.16466692 0.069874145 0.21571139 -0.26832372
0.26495638 0.031859703 -0.23144582 0.0032851854 -0.08137933 0.1975747 0.18770728 -0.276716
00000000: 547d 91be f308 03be b1ad 03be 07b9 d83c
00000010: c6a9 08be 5081 f1bd 6fe9 88bd 98bb b83d
00000020: a56d 913d 1742 823e bec0 52be 6fa2 5a3d
00000030: 2342 bc3e f587 313e 6693 ba3e 5c2a 2bbe
00000040: e297 623e 4892 cabd ecfa 123e b00c 9bbd
00000050: a0bd 95be 4617 d6bd 8c13 68be fdfa 8fbd
00000060: ef0f 9a3e ac6d b53e 66f0 853d ec5f 213d
00000070: e7af 58bc 268b ec3d 3563 243b 5826 51be
00000080: 55b9 813e 8515 903e 65f2 d1bc f206 9d3d
00000090: 31d6 79bd f475 90be a30a 3abe 46bb bd3e
000000a0: ce3b 893b 84c1 8bbe d981 273e fc84 4abc
000000b0: 5caf 9fbe 26ae 843d 6af2 2bbe 04ba 14be
000000c0: 8cc9 543e 285c b8bd 56a1 b4bc ecc9 d1bd
000000d0: 76ef 82be a5b9 cdbc 78f2 3f3e 0484 a9bd
000000e0: 26b0 8c3e 43b3 213e 25ba 77be 66e1 2dbe
000000f0: 820f f2bd e58f 43be 73c1 8dbe 1bbe a6be
00000100: 3fb4 9f3e bb44 123e 90bf 5cbd edb4 c33e
00000110: af17 943e 4a76 ec3d 15a4 eb3d af0b 8c3e
00000120: 0a87 943e aadb e43d 6e1b 1dbe 801a 3dbe
00000130: e500 6f3e a536 0b3d 1986 56be 5532 b3bd
00000140: 40df 2abe 94ca 683e 435e 64be 39e8 0cbe
00000150: 68dd 943e 6b79 5b3e 7081 83be 3c6c 763d
00000160: 0f4c 993d 2829 573e 4a2e 6abe b0c2 ffbd
00000170: fa0f e4bd a04a 8a3e ee30 523e cf62 ef3d
00000180: 0c19 ac3e a832 173e a994 bf3e af1b 77be
00000190: f742 77be 1284 8e3d 22fa 8cbd 4c43 b1bd
000001a0: 49e1 013e df99 88bd 1b3c 0b3e 6b54 6ebe
000001b0: 79c2 a13e 2964 f43b 5c8a c73c 58ea 85be
000001c0: 41bc 833c c974 603e 4578 a53e e676 80be
000001d0: 24e1 a4bd d158 e83d 2888 38bd 9896 49be
000001e0: b888 50be a96d 4abe c384 24be 8f8c 623e
000001f0: d38d 333e 2ec6 3cbe 59de 7a3e d0bf fe3d
00000200: 1f4e 8fbd 994c 7e3e 0339 453e 966f b1be
00000210: 57c8 8cbd 3dd7 bcbc 6c5a 4d3c 5621 abbc
00000220: cb55 193e 65f8 3dbd 3331 3fbe 080a 6d3e
00000230: 4132 973e 9793 46be 3aaf c1bc da38 9d3e
00000240: 026d 1abd 5e78 1cbd 23e6 7bbe a93c 993e
00000250: 534d 62be cb66 aa3e 8aa0 8f3e 00e5 483e
00000260: 20c0 a8bb a6af 01be e25b 21be a2ca 1e3e
00000270: d4c2 1e3d f165 5dbd 6f5d 803e 80a8 a2bd
00000280: 8722 b0bd 535d a33e 3eed 55be 8ed8 3d3e
00000290: 2544 923e b39b 82be a78e 2a3e 1f76 17bd
000002a0: d91f 9cbe d0a0 a2bc f01f 233e fd95 8abe
000002b0: 5f21 183e de98 3ebe bfeb 1ebe 3afa 47be
000002c0: 761f 67be d73b 7fbd 4853 693e 1292 58be
000002d0: 6f9b 26bd 9209 573e 380b 533e 4ce3 c2bd
000002e0: e49d 4b3e 35f9 db3d 387a 91be b59e 24be
000002f0: 549c 823d 9ffa 8bbe 3ac9 363e d665 223e
00000300: 141f 843e e93a ba3d 3bc0 173d 66a4 4dbe
00000310: 142c c63d 5110 453e 8e34 b73d c6bc 873e
00000320: a706 c1bd f8dd f6bb e7c5 66be 0f52 c93c
00000330: 2e3c 4abe 3eba 3d3e 9376 84be 3b0f 953d
00000340: aa9d 0ebe d638 84bc a960 02be bf9e 8ebd
00000350: a035 d6bd 8929 4d3e 6ab8 35bd fd20 42be
00000360: 7733 b4bd 0ab0 003e b514 b53e 726b 83be
00000370: 8372 69be d8b3 92bd 5565 8bbe bac7 cf3d
00000380: 6556 313e 274e 203e 444b 5cbe 73d0 2d3e
00000390: 5515 04be 310d 343e 9a20 9c3e 7823 0f3e
000003a0: 884b 2f3e 5e25 b73e be85 82bd 3b7c b9bd
000003b0: 43c0 a0be 7bb3 5b3c feb6 d33c 6b6a c3bc
000003c0: 3311 3ebe ef16 ccbc a089 5c3d c00e 063e
000003d0: 729e 28be 2d1a 8f3d 72e3 5c3e ba61 89be
000003e0: 5da8 873e 527f 023d 2200 6dbe 444c 573b
000003f0: 35aa a6bd 0651 4a3e 5636 403e b8ad 8dbe

weight f4 [256, 256]
0.0237926 -0.14884026 0.051441394 -0.070502676 0.1925297 -0.024674064 0.11239577 0.088208936
-0.041036393 0.042000744 -0.011789723 0.0031221996 -0.0029807645 0.110380456 -0.017953008 -0.033125173
0.068138845 0.28502345 0.1258007 0.06265548 0.008541906 -0.094187684 0.046565197 0.12001568
0.033061683 -0.013417559 0.15034185 -0.033968214 -0.016009163 -0.053210203 0.0057397215 -0.14740384
0.07383039 -0.013004815 0.04817138 -0.015978038 0.08608531 -0.13580838 -0.1697921 -0.0285557
-0.11587935 -0.18526223 0.038271774 0.08132701 0.025048401 -0.13652012 -0.13240522 -0.14052816
-0.038833253 0.037469257 0.12668571 0.05499765 -0.063143216 0.09100163 -0.37955388 0.13580583
-0.054810684 0.0278349 -0.061756182 -0.07113345 -0.008183957 -0.1048557 -0.09493334 -0.07499678
0.030739628 0.045941774 -0.25056094 0.08055552 -0.08248338 0.119927235 0.08047356 0.018914044
-0.08458414 0.038759824 0.045602277 0.055225898 -0.015728572 -0.022600109 -0.120235994 0.12834235
-0.048530065 -0.12645657 0.04712803 -0.05493825 0.040517345 -0.023186313 -0.30447167 0.0019611933
-0.013011313 -0.024255116 0.0016165521 0.020952944 0.03137439 0.022831857 0.0311686 0.045501534
0.14806488 -0.038925424 0.028673941 -0.09033988 0.1281753 0.18932983 0.034109447 0.037679516
-0.051753826 0.13795316 0.12362986 -0.3926657 0.00027040657 -0.09922955 -0.024475541 -0.025793225
0.008786775 0.017083189 -0.007430278 0.06175164 -0.010742546 0.110295616 0.055891674 0.08413803
0.023982482 -0.17875797 -0.033873893 -0.08810116 -0.093718685 0.017739022 -0.05861342 -0.08273625
-0.016878895 -0.14107352 0.12896091 0.02951649 0.012855817 0.014580365 0.1338834 0.11158436
0.07054468 0.016791377 0.17012282 0.06970019 -0.09589737 -0.07652361 0.069269314 0.015625507
0.04577465 0.08476513 -0.07773025 -0.017716113 0.059191257 0.1107026 -0.07705876 0.08562603
-0.19534823 0.04340039 0.03896142 -0.020833122 -0.16826701 -0.016180167 0.028076088 0.064487025
0.0030428693 0.111437485 0.038459234 -0.032674674 0.0021370042 0.030090895 0.18015619 -0.03710082
-0.12262036 -0.09320499 0.012244459 -0.0413302 0.14224106 -0.15387246 -0.0194063 0.11499899
0.11897773 0.026362805 0.052653857 0.08726738 -0.02720882 -0.056970116 0.053127594 -0.21936966
0.17414151 -0.042197727 -0.034885954 0.13665321 0.07146532 -0.11723766 -0.058981437 0.07160467
0.06263272 0.023977002 -0.14275306 -0.2744433 -0.030075448 0.07884231 0.06735858 -0.05021617
-0.042425767 0.11434265 0.002419404 0.00089935894 0.0072880965 -0.09331627 0.09408026 0.061324455
0.087423906 -0.031435847 0.03808376 -0.03428103 -0.008981757 0.030655466 0.0052332017 0.062932596
0.0032065213 0.13536279 0.06844355 -0.07274025 -0.22229624 0.13077097 0.034211803 0.08053074
-0.061926547 -0.032015942 0.0038171299 -0.120561056 0.1988712 0.04674058 0.07405188 0.101752564
-0.035527725 -0.053021297 -0.036827493 -0.006029404 0.03235585 0.10819399 -0.031501584 0.03960729
0.07440348 -0.21162188 -0.07153789 -0.165571 0.01003955 -0.0891857 -0.12697878 0.09416245
-0.011624691 0.12649098 -0.12477516 0.13978352 0.088850796 0.06909531 -0.020845298 0.034524463
00000000: b3e8 c23c 9569 18be 36b4 523d b563 90bd
00000010: 8126 453e 4321 cabc c12f e63d e3a6 b43d
00000020: c715 28bd f908 2c3d af29 41bc d19d 4c3b
00000030: ee58 43bb 260f e23d 3012 93bc 43ae 07bd
00000040: 618c 8b3d 98ee 913e e6d1 003e 8451 803d
00000050: 5af3 0b3c 79e5 c0bd 26bb 3e3d c8ca f53d
00000060: b06b 073d 52d5 5bbc 37f3 193e 4122 0bbd
00000070: a625 83bc f1f2 59bd 4614 bc3b 08f1 16be
00000080: 6334 973d 2612 55bc 5a4f 453d 60e4 82bc
00000090: 7f4d b03d 5a11 0bbe fbdd 2dbe a5ed e9bc
000000a0: 2752 edbd 62b5 3dbe ddc2 1c3d c78e a63d
000000b0: 4e32 cd3c eecb 0bbe 3c95 07be 9de6 0fbe
000000c0: 9e0f 1fbd 5d79 193d e6b9 013e 3745 613d
000000d0: 3b51 81bd 105f ba3d e354 c2be af10 0b3e
000000e0: 2b81 60bd 0406 e43c 0df4 7cbd 6aae 91bd
000000f0: 0116 06bc 96be d6bd 696c c2bd e997 99bd
00000100: acd1 fb3c 712d 3c3d 8649 80be 4bfa a43d
00000110: 0ced a8bd 699c f53d 52cf a43d a0f1 9a3c
00000120: 733a adbd 9fc2 1e3d 74c9 3a3d 8d34 623d
00000130: 35d9 80bc dd23 b9bc 4a3e f6bd 2d6c 033e
00000140: 76c7 46bd d57d 01be 5209 413d ee06 61bd
00000150: 84f5 253d 39f1 bdbc b6e3 9bbe 5d87 003b
00000160: 672d 55bc aab2 c6bc 7de2 d33a 82a5 ab3c
00000170: 6f82 003d e009 bb3c 4b55 ff3c d15f 3a3d
00000180: 529e 173e 4470 1fbd 9de5 ea3c 1d04 b9bd
00000190: 6340 033e aedf 413e 59b6 0b3d d655 1a3d
000001a0: d2fb 53bd 9843 0d3e a731 fd3d 7b0b c9be
000001b0: 5bc5 8d39 dd38 cbbd ee80 c8bc 504c d3bc
000001c0: 68f6 0f3c 0bf2 8b3c b179 f3bb 4aef 7c3d
000001d0: 8101 30bc abe2 e13d abee 643d 8f50 ac3d
000001e0: e976 c43c 540c 37be 5abf 0abd 626e b4bd
000001f0: 95ef bfbd 6d51 913c a014 70bd 9f71 a9bd
00000200: 9c45 8abc 9475 10be 540e 043e 91cc f13c
00000210: 34a1 523c 7ce2 6e3c bb18 093e 5786 e43d
00000220: bb79 903d 128e 893c ad34 2e3e f9be 8e3d
00000230: d765 c4bd 69b8 9cbd 12dd 8d3d 1001 803c
00000240: 337e 3b3d 5799 ad3d 0a31 9fbd 6221 91bc
00000250: 8872 723d 0bb8 e23d fcd0 9dbd b35c af3d
00000260: 5e09 48be 9bc4 313d 0396 1f3d 39aa aabc
00000270: 304e 2cbe 458c 84bc d3ff e53c c611 843d
00000280: e06a 473b 5639 e43d 6e87 1d3d e1d5 05bd
00000290: fb0c 0c3b 2e81 f63c dd7a 383e 08f7 17bd
000002a0: 6220 fbbd 42e2 bebd fc9c 483c db49 29bd
000002b0: a4a7 113e be90 1dbe f6f9 9ebc 9784 eb3d
000002c0: 99aa f33d cff6 d73c 92ab 573d 3db9 b23d
000002d0: 08e5 debc 7f59 69bd 529c 593d 71a2 60be
000002e0: 2752 323e 86d7 2cbd 93e4 0ebd d2ee 0b3e
000002f0: 695c 923d 4c1a f0bd 8596 71bd 78a5 923d
00000300: 9545 803d 6b6b c43c dc2d 12be d583 8cbe
00000310: c960 f6bc 1478 a13d 4cf3 893d 78af 4dbd
00000320: a4c6 2dbd 7b2c ea3d dd8e 1e3b f5c2 6b3a
00000330: fcd0 ee3b 9a1c bfbd 27ad c03d 5a2f 7b3d
00000340: 4e0b b33d e0c2 00bd b7fd 1b3d 446a 0cbd
00000350: 3828 13bc 2c21 fb3c 477b ab3b cee2 803d
00000360: 8024 523b 8b9c 0a3e 222c 8c3d d7f8 94bd
00000370: a0a1 63be d3e8 053e ad21 0c3d 4ded a43d
00000380: b1a6 7dbd 2623 03bd d028 7a3b b7e8 f6bd
00000390: e4a4 4b3e 0d73 3f3d 83a8 973d a663 d03d
000003a0: 8585 11bd dc2c 59bd 6dd8 16bd 4e92 c5bb
000003b0: 9187 043d d094 dd3d ce07 01bd 413b 223d
000003c0: da60 983d 68b3 58be 7582 92bd 728b 29be
000003d0: ed7c 243c fea6 b6bd ba06 02be 3ed8 c03d
000003e0: 7d75 3ebc da86 013e 1e8a ffbd 6923 0f3e
000003f0: 68f7 b53d d881 8d3d c2c3 aabc 8669 0d3d

bias f4 [256]
0.18920149 0.19812872 -0.020675777 0.01792668 0.03789701 -0.0054257023 -0.059233192 -0.09441203
0.17576091 -0.0984393 0.003086642 0.17199267 0.11815548 0.20605646 0.18168062 0.019427689
-0.071676075 0.120298654 0.17330575 0.20856795 0.089108355 -0.037438586 -0.03235397 -0.07973145
0.012211885 -0.00486816 -0.0064466367 -0.07056893 -0.023103539 -0.0747491 0.015986817 0.05817254
-0.033169776 -0.004860116 0.2246454 0.009014312 0.17045678 0.019101467 -0.052761838 0.007831113
-0.045925613 0.19367532 0.18334964 -0.004805701 -0.0070906067 0.19571038 0.009954041 -0.011046453
0.071982495 -0.041577715 -0.06741959 -0.03743448 -0.051783122 0.23610413 -0.004052521 -0.08518261
0.07253972 0.13230532 -0.12265256 -0.024223046 -0.04145394 -0.077388875 0.024966002 0.027027005
-0.031616688 -0.04193722 0.29431915 -0.029571926 -0.056969758 -0.07233059 -0.039967656 -0.0019441498
0.0650035 0.20041035 -0.02329905 0.21879749 0.0057539097 -0.017169822 0.24593654 0.10118638
0.03372928 0.13456954 -0.07104354 0.12639949 -0.029754037 -0.056322876 0.10272011 -0.008883695
0.009958408 -0.019842666 -0.023638075 0.07540493 0.03266328 -0.0045337216 -0.122503646 -0.050335903
0.12011076 -0.030051775 0.060108457 -0.054492973 -0.076706216 -0.02557989 0.002529027 -0.061304253
0.1636973 -0.047849778 -0.03750597 -0.0546111 0.15487856 -0.07426407 -0.0716494 0.023631353
0.11776942 0.19269028 0.14848475 -0.07510001 -0.010924214 0.01225644 -0.026933594 -0.051882107
-0.08956381 -0.036327872 -0.023460342 0.18351696 -0.040334594 -0.060390286 -0.0300483 0.25080308
0.10257195 0.022179035 -0.026165616 -0.064808555 0.041159265 0.27651504 -0.0045125354 0.21275684
0.13757811 0.01609492 -0.047147065 0.23103206 -0.00434226 -0.09082028 0.18188667 0.23079559
-0.04308204 0.14656012 0.049000934 0.07558887 0.13990586 0.023690198 0.23572318 -0.004293405
-0.047581777 0.008669307 0.26002878 0.02535212 -0.027913133 -0.010310442 -0.042521402 -0.07605158
0.00994992 0.08855652 -0.023502309 0.24511693 -0.03587705 0.0051435484 0.13530192 -0.061811097
-0.034037035 -0.001742246 0.041960333 -0.10566991 -0.046257205 -0.034549214 0.13013387 0.021728462
0.15757123 0.11623144 -0.012524211 0.10043449 -0.09252838 0.01290048 0.016021108 -0.055156205
-0.05870711 0.14319932 0.117302634 0.04290129 -0.04268392 -0.058869418 -0.07533655 0.21612647
-0.03644988 0.2289425 -0.05591137 0.13085192 0.06433927 0.22608796 0.04355175 0.030335313
-0.1227293 0.02828599 0.021699617 0.25634918 -0.052655924 0.13293281 0.11252337 0.23319395
0.20611244 0.1433575 0.012078272 0.003002417 -0.014929822 -0.069816455 0.26631376 0.16810024
0.016657555 0.036243014 -0.09729697 -0.05455741 -0.06065713 0.24827366 0.09063458 -0.033562735
-0.051860444 0.005822908 0.16271798 -0.042317428 0.048079472 -0.022567404 -0.032854646 0.20586607
0.06763603 0.035812233 0.24678822 -0.0007819208 -0.10982097 0.01918913 -0.06671884 0.19072433
-0.06848787 0.040754866 -0.05515929 -0.09882672 -0.027220754 0.09415981 0.22360219 0.064861454
0.17878626 -0.05481799 -0.022631904 -0.043745983 -0.045286726 -0.0638525 -0.07899678 0.0020518617
00000000: 09be 413e 41e2 4a3e 3f60 a9bc f9da 923c
00000010: e539 1b3d 17ca b1bb 819e 72bd 185b c1bd
00000020: abfa 333e 8b9a c9bd 4249 4a3b d91e 303e
00000030: 80fb f13d 7700 533e 7c0a 3a3e d126 9f3c
00000040: e8ca 92bd 245f f63d 1077 313e d692 553e
00000050: 717e b63d 3459 19bd 9985 04bd 3e4a a3bd
00000060: 5c14 483c 1685 9fbb 4f3e d3bb 7186 90bd
00000070: a243 bdbc 0e16 99bd c9f6 823c 5446 6e3d
00000080: 08dd 07bd 9c41 9fbb 7209 663e c4b0 133c
00000090: 398c 2e3e ae7a 9c3c cc1c 58bd 124e 003c
000000a0: 7f1c 3cbd d352 463e 02c0 3b3e 2479 9dbb
000000b0: 5258 e8bb 4d68 483e 4616 233c 2ffc 34bc
000000c0: 8f6b 933d 654d 2abd 4813 8abd e654 19bd
000000d0: 8a1a 54bd 48c5 713e 03cb 84bb 3874 aebd
000000e0: b48f 943d 0c7b 073e 4431 fbbd 696f c6bc
000000f0: 9bcb 29bd 0f7e 9ebd 8085 cc3c bd67 dd3c
00000100: 8080 01bd 5dc6 2bbd 00b1 963e d340 f2bc
00000110: 1f59 69bd 0f22 94bd 20b5 23bd d8d2 feba
00000120: 8e20 853d 5f38 4d3e a6dd bebc 730c 603e
00000130: 4b8b bc3b baa7 8cbc cad6 7b3e ce3a cf3d
00000140: b727 0a3d 99cc 093e 477f 91bd de6e 013e
00000150: bdbe f3bc d1b2 66bd ec5e d23d eb8c 11bc
00000160: 9728 233c 168d a2bc a3a4 c1bc e66d 9a3d
00000170: eec9 053d 9d8f 94bb 31e3 fabd 052d 4ebd
00000180: a1fc f53d 242f f6bc 4934 763d 0634 5fbd
00000190: 2618 9dbd eb8c d1bc 08be 253b 2b1a 7bbd
000001a0: 44a0 273e 21fe 43bd dc9f 19bd e4af 5fbd
000001b0: 7c98 1e3e c317 98bd ecbc 92bd 8a96 c13c
000001c0: 1831 f13d 9a50 453e 630c 183e 09ce 99bd
000001d0: 79fb 32bc 3ccf 483c d7a3 dcbc 5582 54bd
000001e0: 3b6d b7bd 89cc 14bd e72f c0bc dfeb 3b3e
000001f0: e335 25bd ce5b 77bd da27 f6bc 4369 803e
00000200: 3e11 d23d cfb0 b53c 4659 d6bc 59ba 84bd
00000210: 9e96 283d 6193 8d3e e4dd 93bb eedc 593e
00000220: 47e1 0c3e 7ed9 833c 481d 41bd ab93 6c3e
00000230: 8449 8ebb fcff b9bd 8040 3a3e ae55 6c3e
00000240: cb76 30bd db13 163e 34b5 483d 56ce 9a3d
00000250: 7b43 0f3e f211 c23c 6b61 713e b1af 8cbb
00000260: 1ce5 42bd b609 0e3c 7e22 853e 40af cf3c
00000270: 15aa e4bc 21ed 28bc ec2a 2ebd eec0 9bbd
00000280: fd04 233c 1f5d b53d ea87 c0bc efff 7a3e
00000290: d0f3 12bd 368b a83b 968c 0a3e a22d 7dbd
000002a0: 6b6a 0bbd 135c e4ba 99de 2b3d 7769 d8bd
000002b0: 3278 3dbd 7a83 0dbd d041 053e e3ff b13c
000002c0: 5a5a 213e c00a ee3d 5932 4dbc 99b0 cd3d
000002d0: 857f bdbd 895c 533c b33e 833c 79eb 61bd
000002e0: de76 70bd d8a2 123e 5d3c f03d 43b9 2f3d
000002f0: 56d5 2ebd 0f21 71bd 0d4a 9abd 4250 5d3e
00000300: 784c 15bd e76f 6a3e 5203 65bd 0cfe 053e
00000310: 4fc4 833d 9a83 673e 5263 323d c381 f83c
00000320: 8059 fbbd 05b8 e73c 65c3 b13c 3340 833e
00000330: bdad 57bd 8a1f 083e a772 e63d 65ca 6e3e
00000340: 240f 533e 4fcc 123e f2e3 453c 33c4 443b
00000350: 369c 74bc eefb 8ebd 475a 883e 7822 2c3e
00000360: 6d75 883c 8e73 143d a243 c7bd 9777 5fbd
00000370: 9c73 78bd 733b 7e3e 9f9e b93d 1479 09bd
00000380: 9e6b 54bd 18ce be3b 8b9f 263e 0a55 2dbd
00000390: fbee 443d 47df b8bc 9892 06bd 8ece 523e
000003a0: c284 8a3d d9af 123d 0db6 7c3e d1f9 4cba
000003b0: d1e9 e0bd 8632 9d3c e3a3 88bd 3d4d 433e
000003c0: 5e43 8cbd 93ee 263d b5ee 61bd aa65 cabd
000003d0: 0ffe debc dcd6 c03d f9f7 643e 15d6 843d
000003e0: bf13 373e d488 60bd 8b66 b9bc fd2e 33bd
000003f0: 937e 39bd 19c5 82bd 10c9 a1bd 8778 063b

weight f4 [5, 256]
0.047129318 0.057923187 0.006600737 -0.011305579 -0.027578916 -0.019413114 -0.03865474 0.015206016
0.04266831 -0.46943665 0.101563424 0.086063616 0.030149462 0.10097659 0.06437729 0.071439736
0.021109827 0.068279445 0.06011872 0.071821354 0.19088264 -0.014224216 0.112048626 0.025261031
-0.029194465 0.054559927 0.03863089 0.06791108 0.1371589 0.07769984 -0.06338257 0.13271281
0.06674561 -0.042646952 0.08301166 0.005631812 0.06320223 0.12045336 -0.048634347 -0.15899973
-0.012965942 0.0454542 0.052453373 0.116666876 -0.044386525 0.03086177 0.012069278 0.06369465
0.107503414 -0.02029455 0.09852943 0.04187025 0.08994809 0.06888978 -0.015464113 -0.034585796
0.06392469 0.075859256 -0.062975325 0.054408506 -0.029584004 -0.13923459 -0.12176234 -0.04564997
0.0050791735 -0.11533595 0.11685052 0.02620675 -0.05031445 -0.09618611 -0.018840982 0.07625702
-0.008843902 0.062037975 0.09907047 0.052059967 0.119525276 0.06815579 0.06350728 0.050362688
0.14099771 0.011196566 0.044718027 0.03022169 0.05979392 0.023734568 0.03976637 -0.01378752
0.10405455 0.112829536 -0.023381228 0.049156964 0.17040522 0.017221749 -0.011766733 -0.037223954
0.008345379 -0.018314483 0.013690667 0.14635022 -0.029574286 0.0134868575 0.074939355 0.13271295
0.033106208 -0.15650791 0.046580985 0.062694915 0.08163769 -0.026024308 -0.054058746 0.009602471
0.011142193 0.095632434 0.040674645 0.04136278 0.061294183 -0.017954968 0.015387426 0.009479516
0.027131738 0.04799455 -0.020922998 0.08706479 0.09091526 0.03268816 -0.05583515 0.08198563
0.09103214 -0.14982043 0.05871249 0.10024896 0.04761325 0.09893254 0.00890121 0.040709745
0.14441556 0.10817269 0.48216316 0.0626247 -0.10934407 -0.034926124 0.0062256963 0.08788214
0.038616244 0.05150141 -0.1553187 0.04355761 0.10209161 0.0900896 0.04538811 -0.046234887
-0.011657026 0.00839763 0.087105766 0.07923786 0.024466882 0.030415418 -0.1875485 -0.061243065
-0.014559124 0.044147085 0.06452975 0.036521148 0.0023984907 0.023440935 0.16707808 -0.049118698
0.020537687 0.10407446 0.05491758 -0.08770325 -0.14573875 -0.02202643 0.07108343 0.08060287
0.034212835 0.04395585 0.071887046 0.046824656 -0.39072156 0.06433429 0.043258656 0.089822575
0.10824908 0.086854115 -0.0024238043 0.012444865 0.12898226 -0.06427483 0.05114578 0.0876039
-0.025463302 0.047932234 0.100984246 0.09431027 0.03436705 0.07293472 0.21539707 0.0075704814
-0.0230379 0.046589848 0.1268574 0.045582477 0.049344636 0.0762481 0.10339858 0.057968985
0.06558831 0.016295366 0.12933436 -0.020514404 0.12316295 0.0068093524 0.078967184 0.044769824
0.049170453 0.13324854 0.060599342 0.058805376 0.04775177 0.053380392 0.022915648 0.0376186
-0.017073914 0.054203954 -0.012193907 -0.12892276 0.074265465 -0.01626012 -0.024226125 0.045414638
0.029783359 0.1724931 0.069999754 0.06465976 0.013440242 -0.0074233585 -0.011969434 0.047350686
-0.021150181 0.034482405 0.23167583 -0.0033960042 0.07252018 0.07447727 0.06685937 0.049446564
0.07872197 0.0017318139 0.09194691 0.084128484 -0.02344998 0.07565969 -0.051111538 0.09273989
00000000: ac0a 413d dd40 6d3d ff4a d83b 093b 39bc
00000010: 2eed e1bc 4008 9fbc 6f54 1ebd a722 793c
00000020: f7c4 2e3d 005a f0be 7c00 d03d 1f42 b03d
00000030: 01fc f63c d0cc ce3d 3ed8 833d ff4e 923d
00000040: 84ee ac3c 18d6 8b3d 0c3f 763d 1317 933d
00000050: bd76 433e b00c 69bc c079 e53d 39f0 ce3c
00000060: 3b29 efbc 3b7a 5f3d 6d3b 1e3d f714 8b3d
00000070: 6273 0c3e 1821 9f3d b9ce 81bd dee5 073e
00000080: ecb1 883d 92ae 2ebd 0402 aa3d 108b b83b
00000090: 2c70 813d 40b0 f63d cf34 47bd d3d0 22be
000000a0: 1a6f 54bc 2f2e 3a3d 59d9 563d 0bef ee3d
000000b0: a5ce 35bd d3d1 fc3c 39be 453c 5772 823d
000000c0: c02a dc3d c240 a6bc ccc9 c93d 2480 2b3d
000000d0: b436 b83d 1616 8d3d 315d 7dbc d6a9 0dbd
000000e0: f3ea 823d 195c 9b3d 35f9 80bd 74db 5e3d
000000f0: 275a f2bc 8393 0ebe 895e f9bd 77fb 3abd
00000100: 326f a63b 4135 ecbd 534f ef3d 8aaf d63c
00000110: 8616 4ebd 39fd c4bd 6758 9abc a42c 9c3d
00000120: 03e6 10bc 881b 7e3d 75e5 ca3d d53c 553d
00000130: abc9 f43d 4395 8b3d 1b10 823d 1b49 4e3d
00000140: b461 103e cd71 373c 402a 373d 7a93 f73c
00000150: 78ea 743d ff6e c23c 10e2 223d 0de5 61bc
00000160: 8d1a d53d 2c13 e73d fd89 bfbc d058 493d
00000170: b57e 2e3e a014 8d3c 41c9 40bc 2578 18bd
00000180: 0ebb 083c 4108 96bc d24e 603c d5dc 153e
00000190: c645 f2bc fbf7 5c3c ce79 993d e7e5 073e
000001a0: 609a 073d 9c43 20be b4cb 3e3d 3166 803d
000001b0: a931 a73d ee30 d5bc b46c 5dbd af53 1d3c
000001c0: bf8d 363c f0da c33d 759a 263d 056c 293d
000001d0: 9c0f 7b3d 4c16 93bc 8b1b 7c3c f94f 1b3c
000001e0: 6143 de3c ef95 443d b566 abbc 064f b23d
000001f0: c831 ba3d 05e4 053d 66b3 64bd 15e8 a73d
00000200: 0f6f ba3d 876a 19be 827c 703d 544f cd3d
00000210: 1c06 433d 259d ca3d 61d6 113c 43bf 263d
00000220: ace1 133e a589 dd3d 17de f63e 6141 803d
00000230: c9ef dfbd b20e 0fbd ed00 cc3b 8dfb b33d
00000240: 112c 1e3d 24f3 523d de0b 1fbe 7769 323d
00000250: 6815 d13d e580 b83d e2e8 393d cb60 3dbd
00000260: 1cfd 3ebc 3796 093c 8264 b23d 7647 a23d
00000270: c56e c83c c129 f93c b70c 40be 02da 7abd
00000280: 6489 6ebc 93d3 343d 2c28 843d 3397 153d
00000290: ff2f 1d3b 3407 c03c 8416 2b3e b030 49bd
000002a0: a73e a83c fe24 d53d 42f1 603d c39d b3bd
000002b0: 8a3c 15be c670 b4bc 3094 913d 1e13 a53d
000002c0: c222 0c3d 0d0b 343d 8439 933d 36cb 3f3d
000002d0: a80c c8be b2c1 833d fd2f 313d e6f4 b73d
000002e0: b2b1 dd3d 92e0 b13d b0d8 1ebb 8ce5 4b3c
000002f0: ed13 043e 86a2 83bd 3d7e 513d ac69 b33d
00000300: 6a98 d0bc 9754 443d d4d0 ce3d be25 c13d
00000310: 77c4 0c3d cc5e 953d 0d91 5c3e cd11 f83b
00000320: fab9 bcbc ffd4 3e3d e8e6 013e b1b4 3a3d
00000330: 9a1d 4a3d f727 9c3d a2c2 d33d e370 6d3d
00000340: 2a53 863d dc7d 853c 3a70 043e d30d a8bc
00000350: db3c fc3d fd20 df3b 8cb9 a13d 9060 373d
00000360: f566 493d 4e72 083e 0437 783d e8dd 703d
00000370: 5c97 433d 66a5 5a3d 99b9 bb3c f615 1a3d
00000380: 98de 8bbc f704 5e3d f4c8 47bc 5404 04be
00000390: 7e18 983d f133 85bc de75 c6bc b304 3a3d
000003a0: 3bfc f33c 08a2 303e 085c 8f3d 566c 843d
000003b0: 7634 5c3c a53f f3bb 721b 44bc cbf2 413d
000003c0: 2543 adbc 6c3d 0d3d 6e3c 6d3e 7f8f 5ebb
000003d0: 7685 943d 8a87 983d 91ed 883d 7b88 4a3d
000003e0: fc38 a13d 08fe e23a a94e bc3d 8e4b ac3d
000003f0: 2c1a c0bc 78f3 9a3d 555a 51bd 69ee bd3d

bias f4 [5]
0.16383179 0.18614708 0.23904513 0.19225566 0.18337554
00000000: 85c3 273e 579d 3e3e 3fc8 743e abde 443e
00000010: ccc6 3b3e

exp_avg f4 [256, 31]
-7.803014e-06 -7.4293043e-06 6.176604e-08 4.0355037e-08 -3.1143413e-06 -1.638582e-05 -1.3050689e-05 -5.253908e-06
4.2228094e-06 -1.6668396e-06 -1.3976968e-05 -1.5721902e-05 -1.0551154e-05 1.2745654e-05 6.005428e-06 -8.851155e-06
-1.478261e-05 -9.647267e-06 1.9927778e-05 1.7992925e-05 -1.1819056e-05 -1.6573053e-05 -8.324182e-06 2.3201706e-05
2.3662089e-05 -6.191417e-06 -1.5609028e-05 -2.826355e-06 -1.0983548e-05 -1.1014967e-05 -2.6282833e-06 -9.195699e-08
-7.165899e-07 -3.6846654e-07 -7.1459745e-08 2.8931314e-08 1.1864042e-07 5.0506895e-07 1.0074478e-06 -3.668668e-08
-9.1876636e-08 8.8501474e-07 1.9513118e-06 2.238484e-06 -7.525834e-09 -2.572434e-07 -3.9939147e-07 9.779917e-07
1.5755808e-06 2.148465e-07 -3.1957788e-07 -1.8936778e-06 -2.489087e-07 1.4770835e-07 2.8992363e-07 -3.5856556e-07
-1.9803292e-06 -1.1657874e-06 1.12201676e-07 -2.5682862e-06 -5.75436e-07 1.09806585e-07 -1.0191271e-06 -1.2818546e-07
6e-45 6e-45 6e-45 -9.624795e-07 -2.860204e-08 6e-45 -2.8449794e-09 -1.2750328e-08
-7.9971574e-07 -2.9247485e-07 7.707936e-08 6.251703e-07 9.946104e-07 -3.6561855e-06 -1.9572972e-06 1.4400183e-07
2.4390934e-06 3.961831e-06 -1.0432445e-05 -5.352891e-06 -1.0502864e-06 1.4907873e-06 4.0049194e-06 -5.786897e-06
-6.4538604e-06 -1.305557e-06 -1.089336e-05 -2.4457543e-06 -2.0720172e-07 6e-45 -6e-45 6e-45
6e-45 6e-45 6e-45 -6e-45 6e-45 -6e-45 -6e-45 6e-45
-6e-45 6e-45 6e-45 6e-45 6e-45 -6e-45 6e-45 6e-45
-6e-45 -6e-45 -6e-45 -6e-45 -6e-45 6e-45 6e-45 -6e-45
6e-45 6e-45 6e-45 6e-45 6e-45 6e-45 6e-45 6e-45
6e-45 6e-45 6e-45 6e-45 6e-45 6e-45 6e-45 6e-45
6e-45 6e-45 6e-45 6e-45 6e-45 6e-45 6e-45 6e-45
6e-45 6e-45 6e-45 6e-45 6e-45 -6e-45 -6e-45 -6e-45
-6e-45 6e-45 -6e-45 6.2933108e-09 -2.9039003e-24 6e-45 1.5049596e-13 6.744762e-13
-2.889929e-07 1.0656569e-08 3.731228e-13 6.744762e-13 3.0227938e-12 -1.6176242e-07 -1.3606346e-07 -3.9178506e-08
1.1120231e-12 4.9837413e-12 -1.8553894e-06 -1.2157215e-06 -3.0716666e-07 -3.33785e-08 4.5225768e-08 -5.719141e-06
-3.430298e-06 -1.048661e-06 -7.7481656e-07 -6.992648e-07 -3.8390244e-06 -3.6382698e-07 3.2417694e-07 -4.2028582e-06
6.734317e-12 3.2417694e-07 4.051271e-18 2.4572202e-18 -8.75769e-14 -3.9249496e-13 -6.4711474e-13 9.039615e-19
5.4827956e-19 -5.3117257e-14 -2.380556e-13 -3.9248718e-13 6e-45 6e-45 -1.1851947e-14 -5.3116735e-14
-8.7574764e-14 6e-45 6e-45 6e-45 6e-45 6e-45 6e-45 6e-45
-6e-45 -6e-45 6e-45 6e-45 -8.1320416e-13 6e-45 -4.0660208e-13 -6e-45
-4.0660208e-13 -8.0453574e-11 -1.4407685e-07 -3.3763862e-07 -5.353739e-07 -3.5076732e-07 -1.7951616e-11 -9.0088356e-08
-1.1323407e-06 -2.4540782e-06 -2.5893623e-06 1.2985523e-19 -5.360606e-08 1.0338126e-06 -2.8136387e-06 -5.0160775e-06
6.922266e-35 -1.0164354e-08 2.4257736e-07 -1.8698374e-06 -2.3230273e-06 -1.0995948e-07 -2.5152397e-08 -4.726588e-07
1.6137029e-06 5.495057e-06 3.9533242e-07 3.2439104e-07 2.907528e-06 -1.1469019e-06 1.8149767e-06 2.9591763e-06
1.4470842e-06 -2.1369452e-07 -1.1382957e-06 -6.5672623e-07 -1.1128928e-06 1.8222017e-05 5.70142e-06 -1.12745795e-08
00000000: b1e9 02b7 3d49 f9b6 3da4 8433 d552 2d33
00000010: faff 50b6 4874 89b7 48f4 5ab7 ba4a b0b6
00000020: a8b1 8d36 2cb8 dfb5 9f7e 6ab7 87e2 83b7
00000030: dd04 31b7 2bd6 5537 3c82 c936 6c7f 14b7
00000040: d402 78b7 b2da 21b7 942a a737 83ef 9637
00000050: 764a 46b7 5c06 8bb7 17a8 0bb7 49a1 c237
00000060: f37d c637 debf cfb6 22f0 82b7 69ac 3db6
00000070: fb45 38b7 eccc 38b7 9061 30b6 e479 c5b3
00000080: af5b 40b5 a8d1 c5b4 6975 99b3 a284 f832
00000090: 43c7 fe33 1394 0735 a537 8735 6e91 1db3
000000a0: b74d c5b3 c091 6d35 48f3 0236 dd38 1636
000000b0: f84a 01b2 441b 8ab4 f26b d6b4 8a43 8335
000000c0: 8b78 d335 8eb0 6634 7392 abb4 462a feb5
000000d0: c0a1 85b4 c399 1e34 cda6 9b34 e080 c0b4
000000e0: cce5 04b6 2678 9cb5 86f3 f033 d25a 2cb6
000000f0: a977 1ab5 cfce eb33 f1c8 88b5 5aa3 09b4
00000100: 0400 0000 0400 0000 0400 0000 8b2e 81b5
00000110: 8db0 f5b2 0400 0000 6881 43b1 890c 5bb2
00000120: 0cac 56b5 7005 9db4 d486 a533 60d1 2735
00000130: 8e7e 8535 ca5c 75b6 1c5a 03b6 ec9e 1a34
00000140: 4eaf 2336 dfef 8436 0307 2fb7 fc9c b3b6
00000150: 91f7 8cb5 1017 c835 ff61 8636 112d c2b6
00000160: 3d8e d8b6 993a afb5 a0c2 36b7 bd21 24b6
00000170: 2d7b 5eb4 0400 0000 0400 0080 0400 0000
00000180: 0400 0000 0400 0000 0400 0000 0400 0080
00000190: 0400 0000 0400 0080 0400 0080 0400 0000
000001a0: 0400 0080 0400 0000 0400 0000 0400 0000
000001b0: 0400 0000 0400 0080 0400 0000 0400 0000
000001c0: 0400 0080 0400 0080 0400 0080 0400 0080
000001d0: 0400 0080 0400 0000 0400 0000 0400 0080
000001e0: 0400 0000 0400 0000 0400 0000 0400 0000
000001f0: 0400 0000 0400 0000 0400 0000 0400 0000
00000200: 0400 0000 0400 0000 0400 0000 0400 0000
00000210: 0400 0000 0400 0000 0400 0000 0400 0000
00000220: 0400 0000 0400 0000 0400 0000 0400 0000
00000230: 0400 0000 0400 0000 0400 0000 0400 0000
00000240: 0400 0000 0400 0000 0400 0000 0400 0000
00000250: 0400 0000 0400 0080 0400 0080 0400 0080
00000260: 0400 0080 0400 0000 0400 0080 8c3c d831
00000270: acad 6098 0400 0000 8271 292a 22d9 3d2b
00000280: e226 9bb4 1614 3732 aa0c d22a 22d9 3d2b
00000290: d0b5 542c eab0 2db4 d718 12b4 3945 28b3
000002a0: db80 9c2b 8d59 af2c b206 f9b5 df2b a3b5
000002b0: aae8 a4b4 0d5c 0fb3 423e 4233 0ce7 bfb6
000002c0: 1234 66b6 b8bf 8cb5 fdfc 4fb5 1cb5 3bb5
000002d0: f8d0 80b6 0054 c3b4 8a0a ae34 4706 8db6
000002e0: 56f1 ec2c 8a0a ae34 2c77 9522 944f 3522
000002f0: a534 c5a9 7cf4 dcaa 8825 36ab b366 8521
00000300: d5d2 2121 0738 6fa9 6d03 86aa 5df3 dcaa
00000310: 0400 0000 0400 0000 7581 55a8 6d37 6fa9
00000320: 6a33 c5a9 0400 0000 0400 0000 0400 0000
00000330: 0400 0000 0400 0000 0400 0000 0400 0000
00000340: 0400 0080 0400 0080 0400 0000 0400 0000
00000350: 89e5 64ab 0400 0000 89e5 e4aa 0400 0080
00000360: 89e5 e4aa 56eb b0ae 8bb3 1ab4 b344 b5b4
00000370: 9db6 0fb5 1851 bcb4 72e7 9dad 9976 c1b3
00000380: eefa 97b5 beb0 24b6 e8c4 2db6 564e 1920
00000390: 7c3c 66b3 88c1 8a35 f2d1 3cb6 c74f a8b6
000003a0: 8006 b806 4d9f 2eb2 943b 8234 20f7 fab5
000003b0: 4ee5 1bb6 dd22 ecb3 b50e d8b2 bbc1 fdb4
000003c0: 6996 d835 2e62 b836 133e d434 f727 ae34
000003d0: f31e 4336 40ef 99b5 209a f335 4396 4636
000003e0: 6f39 c235 e773 65b4 8bc7 98b5 e249 30b5
000003f0: b55e 95b5 7cdb 9837 d34e bf36 20b2 41b2

exp_avg_sq f4 [256, 31]
3.9405257e-09 1.7604098e-09 2.0965363e-09 1.8789126e-09 1.7587047e-09 8.943267e-09 4.835859e-09 5.2571094e-09
4.974804e-09 3.626736e-09 5.4486495e-09 4.2035215e-09 1.0443461e-08 1.2938146e-08 8.720589e-09 2.9121718e-09
2.2565811e-09 1.0027494e-08 1.8778556e-08 1.316724e-08 5.5332756e-09 2.7571698e-09 1.1024396e-08 2.2166157e-08
1.4425628e-08 1.99475e-08 1.42534935e-08 1.0041709e-08 3.688026e-08 4.1882915e-09 1.0751369e-08 9.676021e-11
4.4861708e-11 1.2826715e-11 7.6356575e-13 1.3935569e-12 2.5514735e-10 8.962003e-11 1.992113e-11 6.453415e-12
7.6687086e-12 2.6604843e-10 1.0652249e-10 5.250436e-11 4.134978e-11 4.9428923e-11 1.6513266e-10 6.431303e-11
3.7953588e-11 6.6028204e-11 9.437167e-11 2.2749978e-10 7.641574e-11 4.4574972e-11 6.351483e-11 5.130123e-11
2.5176608e-10 4.1929488e-10 2.3257253e-10 7.152503e-10 1.4956968e-10 2.450658e-10 3.200531e-11 6.659231e-13
6.2643544e-29 3.663545e-25 7.358646e-24 2.0564333e-11 3.891288e-14 5.1365852e-15 1.5842363e-13 1.3658983e-12
1.5665563e-11 6.2933214e-13 2.6554673e-13 6.471549e-12 3.958285e-11 6.9578725e-11 1.6804582e-11 5.0175667e-12
8.17879e-11 3.0299085e-10 4.308093e-10 1.2306133e-10 3.2230815e-11 3.5452394e-10 9.780958e-10 1.4367343e-09
1.7190585e-09 2.1469302e-09 1.9876372e-09 1.4095494e-09 2.2918094e-09 7.0864533e-13 1.6525748e-13 1.0706875e-14
6.590918e-16 3.6876003e-15 1.4873725e-12 3.5426376e-13 2.1850768e-14 3.2864812e-16 1.7326523e-16 1.0055996e-12
3.1059503e-13 3.2715536e-14 1.9388656e-15 2.1985068e-16 4.9329757e-13 1.4317115e-13 5.751783e-14 3.0895706e-14
5.3780366e-15 6.9357454e-13 1.611379e-13 2.0586375e-13 2.846524e-13 2.9890194e-14 7.2569134e-14 1.8579969e-13
2.41454e-12 9.32538e-14 1.455779e-14 2.8355666e-12 1.4113526e-16 8.640634e-17 2.2691938e-17 1.5215665e-18
9.109451e-19 1.9164948e-15 8.72297e-16 1.594233e-16 4.0513758e-17 9.984375e-17 5.824488e-15 2.454161e-15
4.296682e-16 6.3163506e-16 1.7502771e-15 1.28212e-14 4.634538e-15 6.0467856e-16 2.1769518e-15 6.0694218e-15
3.0987576e-14 1.0911676e-14 1.3812315e-15 4.815969e-15 1.3112446e-14 8.258715e-15 8.3285124e-21 1.3568472e-19
8.2587305e-15 8.251498e-25 1.3905931e-19 6.330463e-13 1.1340424e-15 5.707709e-22 1.6580192e-15 3.330196e-14
2.624578e-12 1.749638e-13 1.466577e-14 3.369394e-14 6.687692e-13 2.1248456e-11 4.368847e-12 3.5667538e-13
1.453663e-13 1.9501447e-12 1.0171632e-10 2.6832713e-11 2.1666414e-12 2.4119498e-12 6.4648083e-12 2.1023543e-10
6.2100075e-11 7.848801e-12 3.0185555e-11 6.925796e-11 1.8428505e-10 4.886159e-11 1.8449262e-10 2.4135563e-10
1.1868006e-11 1.9616674e-10 1.8733123e-12 6.983447e-13 4.672126e-13 6.338895e-12 1.7235364e-11 1.3647777e-13
3.837575e-14 1.2741066e-13 2.2128608e-12 6.01887e-12 1.698703e-13 8.508858e-15 7.441311e-15 1.4901424e-13
4.0525377e-13 2.8003918e-13 1.3940411e-14 4.918982e-16 9.880036e-15 2.6869672e-14 2.2464376e-13 2.2396732e-14
3.2543633e-14 2.0059839e-14 1.8895406e-15 9.287875e-13 3.1874125e-11 2.047203e-14 8.665162e-12 1.0205494e-12
7.751381e-12 9.04058e-13 1.1376044e-11 5.293107e-11 1.671267e-10 1.8066063e-10 6.3944306e-14 3.0446225e-12
1.9124298e-10 5.31328e-10 3.637794e-10 3.6801485e-15 1.395709e-12 3.8764414e-10 7.989466e-10 6.3514255e-10
1.6886799e-15 6.9672816e-13 2.3278629e-10 7.632136e-10 8.5724805e-10 2.105729e-13 1.9105676e-12 2.6548694e-10
1.0547789e-09 1.110936e-09 7.417955e-10 4.1768605e-10 2.4403635e-10 1.0306364e-09 1.888149e-10 2.8979488e-10
1.3350889e-09 2.4420374e-10 6.404266e-11 1.3190314e-11 1.0526824e-11 4.600748e-09 4.485428e-09 1.8707516e-09
00000000: 3b65 8731 eaf2 f130 a812 1031 2e1e 0131
00000010: ecb6 f130 e7a4 1932 aa28 a631 06a2 b431
00000020: d7ee aa31 373a 7931 d436 bb31 916e 9031
00000030: d46a 3332 9146 5e32 8ed1 1532 781f 4831
00000040: 3212 1b31 6345 2c32 7b4e a132 2236 6232
00000050: 351f be31 a578 3d31 ce65 3d32 e567 be32
00000060: 95d4 7732 0459 ab32 87df 7432 e783 2c32
00000070: 4666 1e33 9ae8 8f31 05b5 3832 28c7 d42e
00000080: cb4d 452e 64a6 612d b6ec 562b 2e20 c42b
00000090: cc44 8c2f 9713 c52e 663a af2d 320f e32c
000000a0: cbe8 062d fd42 922f d53e ea2e a7ea 662e
000000b0: b7db 352e 0564 592e b690 352f 046d 8d2e
000000c0: f1eb 262e 9332 912e 8786 cf2e 7f23 7a2f
000000d0: 3d0a a82e f50a 442e acab 8b2e 0da0 612e
000000e0: ed68 8a2f 8282 e62f 59b7 7f2f 449b 4430
000000f0: 1f74 242f f2b9 862f c7c2 0c2e d170 3b2b
00000100: fcd1 9e10 30c3 e216 4056 0e19 c3e2 b42d
00000110: 7f3f 2f29 a310 b927 815e 322a ac3b c02b
00000120: b6cb 892d 2924 312b 517d 952a 88b2 e32c
00000130: 5416 2e2e 5701 992e 8ed0 932d 398a b02c
00000140: 7fda b32e 2c92 a62f 05d7 ec2f af4e 072f
00000150: acc0 0d2e cfe6 c22f b06d 8630 9876 c530
00000160: fe43 ec30 3289 1331 e296 0831 1cba c130
00000170: f07d 1d31 4777 472b 3a10 3a2a bfe0 4028
00000180: 64f8 3d26 1cdc 8427 3e54 d12b ca6e c72a
00000190: 71d0 c428 e773 bd25 dfc2 4725 8b86 8d2b
000001a0: 76d9 ae2a 7256 1329 c2b5 0b27 7878 7d25
000001b0: d6d9 0a2b 4632 212a c684 8129 5324 0b29
000001c0: a2c3 c127 5039 432b d66c 352a 30c8 672a
000001d0: bc3e a02a 0c9d 0629 4269 a329 1d31 512a
000001e0: 7ce8 292c 28fd d129 fa1f 8328 0789 472c
000001f0: c7b7 2225 4d3d c724 d34b d123 288b e021
00000200: 886e 8621 1719 0a27 286c 7b26 74cd 3725
00000210: 34d6 3a24 5939 e624 6bd9 d127 48d7 3027
00000220: d6af f725 710e 3626 d43d fc26 59f7 6628
00000230: 11fa a627 6749 2e26 acdd 1c27 89ac da27
00000240: 3e8e 0b29 3991 4428 730e c726 7983 ad27
00000250: 7c36 6c28 9ac6 1428 3752 1d1e 3130 2020
00000260: acc6 1428 1a5f 7f17 192c 2420 cb2f 322b
00000270: c86e a326 4281 2c1c 1df2 ee26 8cfa 1529
00000280: 32b0 382c e2fd 442a f718 8428 78be 1729
00000290: e63d 3c2b 45e7 ba2d 13b7 992c 57ca c82a
000002a0: fcaa 232a af3a 092c 33ad df2e e605 ec2d
000002b0: be76 182c d3b9 292c d175 e32c 0328 672f
000002c0: 3c8f 882e db13 0a2d eac1 042e c44c 982e
000002d0: a19f 4a2f 42e5 562e 0eda 4a2f c9af 842f
000002e0: bfc8 502d 07b0 572f 98d2 032c 0a91 442b
000002f0: 3782 032b b107 df2c 979a 972d 0aa9 192a
00000300: 3ad4 2c29 9f73 0f2a 5bb7 1b2c 29c5 d32c
00000310: c841 3f2a 2e48 1928 fd0c 0628 6ec6 272a
00000320: 3923 e42a e6a5 9d2a cc20 7b28 aec7 0d26
00000330: a0fb 3128 3f05 f228 28ed 7c2a 59bb c928
00000340: 4190 1229 d7ae b428 df27 0827 19b7 822b
00000350: 132f 0c2e 4a65 b828 6c70 182d 2ba1 8f2b
00000360: 1e5d 082d 3f78 7e2b 2621 482d 16cb 682e
00000370: fcc1 372f 72a3 462f 62fd 8f29 0b3f 562c
00000380: 1d46 522f e20c 1230 66fd c72f 6197 8427
00000390: b76d c42b 101c d52f de9c 5b30 2f96 2e30
000003a0: 4b5d f326 8e1c 442b 84f3 7f2f 62ca 5130
000003b0: 78a3 6b30 8215 6d2a ba71 062c f7f3 912f
000003c0: bcf7 9030 96af 9830 38e7 4b30 16a0 e52f
000003d0: 1029 862f 4ba6 8d30 ab9a 4f2f 0151 9f2f
000003e0: 447e b730 9f40 862f d0d4 8c2e e50b 682d
000003f0: 9a30 392d 9b14 9e31 3e1e 9a31 9c8e 0031
