Model/DQN/[S1]net_Q(param).pt (torch, 356066 bytes, 6 tensors)

fc1.weight f4 [256, 82]
-0.0342192 0.0466515 0.049874943 -0.058350235 0.24439578 0.17434512 -0.069333725 -0.022265805
0.047938116 -0.08595656 0.0917892 0.18439588 0.09714071 0.06640632 0.047711648 -0.0037200584
0.08562586 0.12090212 -0.112365216 0.11002091 -0.016651727 0.01667285 0.026049566 0.08176346
-0.098910004 0.05282313 0.06439096 0.008695286 -0.0051883175 -0.107333176 -0.038146432 -0.059339143
-0.091134675 -0.16860148 -0.16083297 -0.0516983 -0.05289664 -0.23286091 0.0856035 0.0652576
0.0584252 0.062839195 0.2702158 0.19313395 0.0381499 -0.09995421 0.18676323 0.086646274
0.11520965 -0.21676658 0.0034466202 0.39540362 -0.16444685 -0.06584657 0.5592556 -0.15316711
-0.01349535 -0.0029299555 0.15377258 0.080420785 0.013514825 -0.031475652 -0.09923286 -0.017791603
-0.0041633407 -0.004142528 -0.0827833 0.027917173 -0.10086576 0.07973711 -0.054453883 -0.101536855
-0.038243316 -0.06553164 -0.04135327 -0.18146811 0.06275746 0.00421863 -0.1654665 -0.13064669
-0.08142013 -0.027152024 -0.021971824 -0.11504491 0.023568416 -0.04447162 -0.021417918 0.0007528592
0.21163249 0.15935662 0.06863233 0.04536829 -0.0017691262 -0.1396595 0.018178243 -0.040551767
0.08533814 -0.14801058 0.22915451 -0.15047401 0.03799024 0.15376918 -0.22365034 -0.071867146
-0.011743097 0.015324042 0.09992543 -0.039324917 -0.027064916 -0.2638394 -0.05704979 -0.09340632
-0.032937124 -0.050378043 -0.061024897 -0.04255245 0.010311398 0.02614504 -0.038558774 -0.013047856
0.031583987 0.014989322 -0.009496273 -0.26835802 -0.31542772 -0.14924845 -0.21355177 -0.007656696
-0.01727161 0.11783566 0.30826983 0.2519713 0.3011711 -0.021771053 0.163208 0.19980271
0.2828948 -0.020282676 -0.060772512 0.17984192 -0.11986411 -0.014458577 0.07353091 -0.16978586
0.014972174 -0.10141319 0.055192675 0.055296317 -0.10518552 -0.013060252 -0.3209954 0.11624643
-0.07201246 -0.20247413 -0.18926868 -0.055383764 0.0743268 0.0442042 -0.07662487 0.072319806
0.019253476 0.08305153 0.002827985 0.04665893 -0.04132353 0.07796352 -0.017426021 0.11973796
-0.10408243 -0.089875184 -0.23547354 -0.08378245 0.10126996 -0.024978865 -0.032360688 0.065030955
0.060863595 0.26060882 0.16953588 0.06064115 -0.019276991 0.09068518 -0.1444212 -0.07434378
-0.091026194 -0.016619889 -0.06503075 0.0067924554 0.013116862 -0.027480552 0.049976043 0.030732898
0.098370664 0.046114538 0.062140696 -0.044030007 -0.02503824 0.008027623 -0.033547457 -0.04327151
0.07831909 -0.012921607 -0.0043587997 0.03396028 0.031984247 -0.02885055 -0.10836648 0.0036143404
0.1872496 -0.20352511 -0.26994976 -0.25144765 0.06754791 0.24642771 -0.3222159 -0.31858847
-0.030684574 0.1990713 0.88018084 0.4947707 -0.19206534 -0.07946789 0.05324258 -0.006745993
0.029244578 -0.061736494 -0.06890121 0.106535174 -0.06768974 -0.08091022 0.0065604583 -0.0049738046
-0.004493201 -0.08423241 -0.04200496 -0.06646921 0.052917954 0.022992605 -0.034908794 0.034051873
0.05637204 -0.043511253 0.006025138 -0.3971769 -0.16585062 0.02619675 0.113528915 0.11075081
0.077151075 0.16976973 0.08365876 0.2135207 0.14215851 0.06347692 0.08738889 0.06269854
00000000: 6f29 0cbd a515 3f3d ab49 4c3d a800 6fbd
00000010: e342 7a3e 8787 323e d7fe 8dbd c766 b6bc
00000020: c25a 443d fe09 b0bd fafb bb3d 46d2 3c3e
00000030: b5f1 c63d 0900 883d 4a6d 433d 39cc 73bb
00000040: 9c5c af3d 889b f73d bc1f e6bd a552 e13d
00000050: 3469 88bc 8095 883c e665 d53c 9a73 a73d
00000060: 5491 cabd 115d 583d 68df 833d ac76 0e3c
00000070: c302 aabb 7fd1 dbbd 6f3f 1cbd 9a0d 73bd
00000080: d1a4 babd dea5 2cbe 66b1 24be 99c1 53bd
00000090: 26aa 58bd 1773 6ebe e350 af3d c7a5 853d
000000a0: 434f 6f3d d6b1 803d ba59 8a3e e8c4 453e
000000b0: 1243 1c3d cbb4 ccbd dc3e 3f3e 9a73 b13d
000000c0: 09f3 eb3d 0ff8 5dbe b1e0 613b 5872 ca3e
000000d0: c164 28be 91da 86bd 602b 0f3f d7d7 1cbe
000000e0: 9a1b 5dbc 7f04 40bb 8f76 1d3e a7b3 a43d
000000f0: 496d 5d3c 9dec 00bd 993a cbbd b2bf 91bc
00000100: a26c 88bb 0bbe 87bb 4a8a a9bd 8eb2 e43c
00000110: b592 cebd 364d a33d 090b 5fbd 8ef2 cfbd
00000120: 06a5 1cbd 7435 86bd 0c62 29bd c7d2 39be
00000130: fc86 803d 6f3c 8a3b 0d70 29be 3fc8 05be
00000140: 99bf a6bd ec6d debc 41fe b3bc aa9c ebbd
00000150: 8d12 c13c e027 36bd a174 afbc 875b 453a
00000160: 30b6 583e 622e 233e 1b8f 8c3d 1ad4 393d
00000170: 06e2 e7ba e602 0fbe 8aea 943c 9c19 26bd
00000180: c3c5 ae3d 1690 17be 7ba7 6a3e dc15 1abe
00000190: a79b 1b3d ab75 1d3e 9804 65be 152f 93bd
000001a0: 1e66 40bc b111 7b3c b4a5 cc3d 2a13 21bd
000001b0: 3eb7 ddbc f515 87be 0aad 69bd d04b bfbd
000001c0: 14e9 06bd 3559 4ebd 3ef5 79bd 7a4b 2ebd
000001d0: 23f1 283c 1f2e d63c ceef 1dbd adc6 55bc
000001e0: 365e 013d c695 753c 4196 1bbc 3966 89be
000001f0: be7f a1be 96d4 18be 51ad 5abe 05e5 fabb
00000200: 317d 8dbc d353 f13d 8bd5 9d3e 6202 813e
00000210: 1933 9a3e 3559 b2bc ff1f 273e 1599 4c3e
00000220: 96d7 903e db27 a6bc 99ec 78bd 7b28 383e
00000230: 517b f5bd abe3 6cbc 6097 963d 58dc 2dbe
00000240: d94d 753c b8b1 cfbd b711 623d 647e 623d
00000250: 826b d7bd abfa 55bc 8259 a4be 9c12 ee3d
00000260: 457b 93bd 6155 4fbe a6cf 41be 16da 62bd
00000270: a638 983d 770f 353d 80ed 9cbd 681c 943d
00000280: 77b9 9d3c ec16 aa3d b755 393b 6f1d 3f3d
00000290: dd42 29bd 57ab 9f3d 04c1 8ebc 2d39 f53d
000002a0: 2b29 d5bd 7b10 b8bd fa1f 71be 2296 abbd
000002b0: a066 cf3d 7aa0 ccbc a48c 04bd f32e 853d
000002c0: 1b4c 793d 856e 853e d09a 2d3e db62 783d
000002d0: c8ea 9dbc 27b9 b93d 27e3 13be 8d41 98bd
000002e0: f16b babd 6f26 88bc d82e 85bd 3f93 de3b
000002f0: 1be8 563c e51e e1bc aeb3 4c3d 8fc3 fb3c
00000300: 8f76 c93d 99e2 3c3d 3e87 7e3d cf58 34bd
00000310: ff1c cdbc 4b86 033c 0f69 09bd 783d 31bd
00000320: c265 a03d 26b5 53bc 43d4 8ebb ef19 0b3d
00000330: ea01 033d fd57 ecbc 3fef ddbd 92de 6c3b
00000340: 5cbe 3f3e e368 50be db36 8abe bfbd 80be
00000350: 8f56 8a3d 8c57 7c3e 7cf9 a4be 071e a3be
00000360: 375e fbbc 59d9 4b3e 8853 613f 9652 fd3e
00000370: c7ac 44be 10c0 a2bd e414 5a3d 7e0d ddbb
00000380: 5392 ef3c 68df 7cbd 141c 8dbd 1d2f da3d
00000390: eba0 8abd 42b4 a5bd 1df9 d63b 4cfb a2bb
000003a0: b43b 93bb 0b82 acbd 650d 2cbd 0221 88bd
000003b0: 7fc0 583d fd5a bc3c 86fc 0ebd fa79 0b3d
000003c0: 5ee6 663d db38 32bd 856e c53b c55a cbbe
000003d0: bfd4 29be 919a d63c d981 e83d 52d1 e23d
000003e0: 6201 9e3d 1ed8 2d3e 4955 ab3d 2ca5 5a3e
000003f0: 0092 113e 3000 823d f2f8 b23d 1868 803d

fc1.bias f4 [256]
-0.007360333 -0.13748823 0.008679926 -0.005704254 -0.040494464 -0.062030774 0.027526518 -0.16147864
-0.0782687 -0.06302332 -0.08331501 -0.18292896 -0.08347014 -0.019495983 -0.07566228 -0.005641345
-0.042046353 0.05305134 -0.05499401 0.038239073 0.042940497 0.030053122 -0.02686099 0.05788896
0.017418314 -0.11673761 -0.011836436 0.0892946 -0.10503648 -0.070057765 -0.068972014 -0.00058132265
-0.081583835 0.008055826 -0.11237471 0.03926602 -0.004007231 -0.0942731 0.044266727 -0.050844308
-0.13409522 0.01158948 0.021795256 -0.08137154 -0.0005258913 -0.009146954 -0.0028854948 -0.14480314
-0.10602691 -0.09406572 -0.086574145 0.029792044 -0.021530434 -0.08891333 -0.13723294 -0.0392255
-0.07778018 -0.09594745 0.0835359 -0.047842823 -0.036979016 -0.04408283 -0.06989289 -0.091828965
-0.058173638 -0.15730558 0.032828875 -0.13735297 0.009030768 -0.0656521 -0.027417857 0.049374226
-0.06808342 -0.019294992 -0.17051952 0.0027425464 -0.10255783 -0.07602431 -0.001977824 -0.0028776145
0.092215165 -0.0997112 -0.12969516 -0.08772214 0.0032801207 -0.056561776 0.024940344 0.04674036
-0.041154087 0.0019646375 0.06543391 -0.047384042 -0.018442184 -0.08836659 0.091402926 -0.11321872
-0.10281338 -0.14516442 -0.046728417 0.028135542 -0.16766086 -0.111538455 -0.1315091 -0.06770802
-0.0022731936 -0.17276156 0.008609439 0.030186031 -0.053243533 -0.055083793 -0.11791433 -0.040895328
0.02950277 -0.09990642 -0.044909194 -0.052167904 -0.09795948 -0.06744457 -0.122420035 -0.022406977
0.052299827 -0.07162665 -0.08025033 -0.13536277 -0.145615 -0.12921286 -0.13061906 -0.03944574
-0.10077656 0.03139721 0.0422628 -0.1328678 -0.10663577 0.045984764 0.042342685 -0.045145977
-0.017596612 0.061295904 0.029644242 -0.08963879 -0.049583197 -0.0864437 -0.11803633 -0.13690057
-0.093931966 0.031101592 -0.017320216 -0.13450122 -0.07550423 -0.11711502 -0.10462129 -0.047585342
-0.020722782 -0.01779137 0.012327632 -0.14282006 -0.08172353 -0.11652001 -0.0747159 0.016617928
-0.024885284 -0.085444205 -0.05646453 -0.09133931 0.041729536 -0.03575117 -0.06462098 0.071401104
-0.094956405 0.018049749 -0.10222123 -0.056735396 -0.044562995 -0.09990923 -0.13834955 -0.09900392
0.048740175 -0.12530316 0.011033812 -0.094520204 -0.057440396 -0.077295735 -0.13852121 0.025904229
-0.15688623 -0.1536549 -0.104988076 -0.07128295 -0.006834251 -0.047774035 -0.06505653 -0.12454297
-0.0706217 0.032828264 -0.104907215 0.036155235 -0.0823047 -0.0412938 -0.14188598 0.021385923
-0.15062147 -0.049397472 -0.03216328 -0.050029665 -0.049357016 0.065929666 -0.0956079 -0.11286714
-0.038914293 -0.10066074 -0.100386515 -0.113155425 -0.04868628 0.06317803 -0.06966065 -0.016892483
0.017333372 -3.2278414e-05 -0.04996976 -0.030017244 0.030351901 -0.08674225 -0.12573121 -0.08714074
-0.08317268 -0.013770956 0.06911898 -0.16431622 -0.096490555 0.059244525 -0.020109486 -0.07718396
0.0048014442 0.038724795 -0.124300115 -0.10243527 -0.012939208 -0.054533005 0.0014766982 0.009378219
0.018272692 -0.040746912 -0.10212016 -0.07078362 -0.026737895 -0.07229473 0.045366723 0.015634077
-0.07536895 -0.05369284 -0.0056364983 -0.03106376 0.093868874 0.033510145 -0.14960596 0.011780189
00000000: f32e f1bb b7c9 0cbe 4036 0e3c c0ea babb
00000010: 86dd 25bd fb13 7ebd 4b7f e13c a85a 25be
00000020: 574b a0bd 5f12 81bd 0fa1 aabd bb51 3bbe
00000030: 65f2 aabd 0ab6 9fbc d3f4 9abd 08db b8bb
00000040: cc38 2cbd 5d4c 593d 6641 61bd 93a0 1c3d
00000050: 60e2 2f3d f731 f63c 940b dcbc f91c 6d3d
00000060: dab0 8e3c 2114 efbd 9ced 41bc 16e0 b63d
00000070: 5e1d d7bd 727a 8fbd 3341 8dbd e763 18ba
00000080: 6d15 a7bd 95fc 033c b624 e6bd 68d5 203d
00000090: 174f 83bb 4112 c1bd 0751 353d 1f42 50bd
000000a0: 4250 09be cde1 3d3c f78b b23c 1fa6 a6bd
000000b0: f8db 09ba 1bdd 15bc 921a 3dbb 4647 14be
000000c0: a324 d9bd 87a5 c0bd c94d b1bd 720e f43c
000000d0: 9860 b0bc 3118 b6bd cb86 0cbe ebaa 20bd
000000e0: 374b 9fbd 1980 c4bd df14 ab3d d6f6 43bd
000000f0: 4f77 17bd 3390 34bd 0124 8fbd d310 bcbd
00000100: 7b47 6ebd b714 21be 9277 063d 42a6 0cbe
00000110: c9f5 133c 9c74 86bd 6a9b e0bc a13c 4a3d
00000120: 526f 8bbd 8810 9ebc ab9c 2ebe 4bbc 333b
00000130: d709 d2bd a2b2 9bbd 619e 01bb 5c96 3cbb
00000140: 4edb bc3d 6335 ccbd cfce 04be aaa7 b3bd
00000150: 4bf7 563b 52ad 67bd b14f cc3c d272 3f3d
00000160: 3091 28bd 26c1 003b 3702 863d c515 42bd
00000170: 1014 97bc 8bf9 b4bd 7531 bb3d 37df e7bd
00000180: d28f d2bd fba5 14be 4c66 3fbd 827c e63c
00000190: 4aaf 2bbe 466e e4bd 52aa 06be 81aa 8abd
000001a0: dcf9 14bb 68e8 30be 9b0e 0d3c b248 f73c
000001b0: e415 5abd 8b9f 61bd 117d f1bd dc81 27bd
000001c0: cbaf f13c bd9b ccbd b4f2 37bd 03ae 55bd
000001d0: fb9e c8bd 6120 8abd 5bb7 fabd d68e b7bc
000001e0: 5838 563d feb0 92bd 495a a4bd 8a9c 0abe
000001f0: 191c 15be 6050 04be 01c1 05be db91 21bd
00000200: f163 cebd 5c9a 003d c21b 2d3d 7f0e 08be
00000210: db63 dabd 855a 3c3d 866f 2d3d fdea 38bd
00000220: c526 90bc 6a11 7b3d 7bd8 f23c 8b94 b7bd
00000230: c017 4bbd 6509 b1bd 08bd f1bd aa2f 0cbe
00000240: 675f c0bd c4c8 fe3c 20e3 8dbc b0ba 09be
00000250: f6a1 9abd 00da efbd b043 d6bd d9e8 42bd
00000260: d3c2 a9bc 35bf 91bc d6f9 493c 6c3f 12be
00000270: ab5e a7bd 0ba2 eebd a604 99bd 5222 883c
00000280: 39dc cbbc 5ffd aebd 5a47 67bd 1b10 bbbd
00000290: 97ec 2a3d d26f 12bd 0158 84bd be3a 923d
000002a0: 8178 c2bd 11dd 933c 5d59 d1bd 6063 68bd
000002b0: b087 36bd 369d ccbd 81ab 0dbe 91c2 cabd
000002c0: c7a3 473d 794f 00be 29c7 343c cf93 c1bd
000002d0: 9f46 6bbd 3a4d 9ebd 81d8 0dbe 1b35 d43c
000002e0: c9a6 20be b657 1dbe fd03 d7bd ccfc 91bd
000002f0: daf1 dfbb b5ae 43bd 5c3c 85bd 6210 ffbd
00000300: 1ca2 90bd ee76 063d 98d9 d6bd 8317 143d
00000310: 5e8f a8bd b023 29bd 8f4a 11be 8831 af3c
00000320: 843c 1abe 0155 4abd a5bd 03bd e8eb 4cbd
00000330: 952a 4abd 2206 873d 13ce c3bd e326 e7bd
00000340: 9864 1fbd 3827 cebd 7297 cdbd 08be e7bd
00000350: 446b 47bd 7c63 813d 3eaa 8ebd 1b62 8abc
00000360: b7fe 8d3c af62 07b8 17ad 4cbd b9e6 f5bc
00000370: 8da4 f83c eca5 b1bd afbf 00be d876 b2bd
00000380: 7056 aabd 939f 61bc 408e 8d3d 8342 28be
00000390: d79c c5bd 63aa 723d a6bc a4bc a012 9ebd
000003a0: 6f55 9d3b e49d 1e3d 0f91 febd 95c9 d1bd
000003b0: f9fe 53bc 005e 5fbd c58d c13a 1aa7 193c
000003c0: 9db0 953c 3ce6 26bd 6024 d1bd 01f7 90bd
000003d0: 6e09 dbbc 420f 94bd 75d2 393d 0913 803c
000003e0: 095b 9abd 06ed 5bbd 60b2 b8bb 6d79 febc
000003f0: 533e c03d ef41 093d 4e32 19be b201 413c

fc2.weight f4 [256, 256]
0.036367502 -0.014102364 -0.23550846 0.034811947 0.039310288 -0.12943844 0.028920108 -0.15664278
-0.03870695 -0.04734288 0.051227752 -0.09305696 -0.04671726 0.040758487 -0.051323254 0.055218164
-0.04102227 -0.05909266 0.10902852 -0.09701754 0.10574158 -0.053907737 0.024679342 0.06443684
0.039969865 -0.007926177 -0.021800289 -0.11626719 -0.14901169 0.026288316 -0.11468925 -0.07081013
-0.033276826 -0.10835074 0.009319087 -0.13807295 -0.1255069 -0.07268466 -0.013104101 0.045619234
0.092382744 0.029395662 0.073423296 -0.027203416 0.07113669 0.038348015 0.013092946 -0.02209409
-0.19521098 -0.14303416 0.0003619982 -0.10147358 -0.25536665 0.066949055 -0.011976969 0.0058652377
0.09540499 -0.028390229 0.005799152 0.12300152 -0.051417876 -0.1288796 0.09197039 0.073045224
0.008676116 -0.0751633 -0.055920403 0.00942122 -0.05389111 -0.17739755 -0.11095285 -0.029492958
-0.18339747 -0.28506207 -0.08630206 -0.1535886 -0.18541744 -0.2573067 -0.028652668 -0.023391241
-0.025062043 -0.0513084 0.0034097547 -0.06477078 -0.038376637 -0.23178978 0.13917331 0.0023056376
0.011082357 -0.031249702 0.0020621622 -0.06288363 -0.026927695 0.083368145 -0.026793508 -0.1895457
0.03215751 -0.08164239 -0.0026177194 0.06376152 0.040303383 -0.0782005 -0.005233031 -0.117611945
0.06380336 0.029345542 -0.02971557 0.09011792 -0.1185297 0.020839496 0.020156749 -0.09732223
0.068458185 -0.06078306 -0.016295416 -0.010150821 0.067302726 -0.014573689 0.08134631 0.05059221
0.1251608 -0.11744218 -0.018365128 -0.17313051 0.0028051587 0.005781117 -0.07432019 -0.065041
-0.0038620424 0.05928528 -0.12722869 0.014606689 -0.0875128 0.08802193 -0.13672785 -0.015817769
-0.17011866 -0.1247461 -0.054524757 0.10687008 0.056780823 0.039332803 -0.12956817 -0.07324515
-0.03456806 -0.25620347 -0.22516741 -0.0439378 -0.12119175 0.046641316 -0.07189223 -0.03514582
0.10127197 -0.24961932 -0.10998622 0.09504952 -0.07055611 0.09382799 -0.069266245 0.024689592
-0.018343898 -0.0667961 0.0018967193 -0.029798785 -0.01427336 -0.059972834 -0.0011452978 0.09394437
-0.07182694 0.045363873 -0.09808996 -0.031188734 0.05397332 0.10801319 -0.082041204 -0.009481378
-0.086787835 -0.016257105 -0.19213885 -0.057996277 -0.03684899 -0.24490818 -0.05445046 0.0080826925
-0.14117774 0.06559373 -0.08791496 -0.021841805 -0.054144982 -0.16990241 -0.21136779 -0.05725684
-0.09708931 -0.015380262 0.1185824 0.107444115 -0.0984136 -0.17485376 0.13565178 -0.088399306
-0.03008397 0.017146762 -0.09855703 -0.16030936 -0.18384448 0.03587946 -0.0599436 -0.18479215
-0.11103853 0.07548975 0.018726392 -0.00857369 -0.031022508 0.025778579 -0.18123105 3.1370844e-05
-0.16653307 -0.17754032 -0.08584413 0.0894931 0.02579831 -0.004112991 -0.05783547 -0.06263097
-0.09207958 0.020015761 -0.054382935 0.016361296 -0.106960855 -0.12028441 -0.11039497 -0.10205252
-0.073250525 0.07906337 0.018311353 -0.089093044 -0.025492327 -0.046860896 -0.054653026 0.044847846
-0.2501459 0.0630811 -0.07669918 -0.01968522 0.031569455 0.0072012385 -0.06631234 -0.019734634
0.0020911458 -0.01673904 -0.043948684 -0.04090477 0.104468904 0.17430516 -0.089360334 0.07552827
00000000: 17f6 143d 9a0d 67bc 2129 71be f996 0e3d
00000010: d303 213d 838b 04be dde9 ec3c f766 20be
00000020: 2e8b 1ebd 9cea 41bd 31d4 513d a694 bebd
00000030: 995a 3fbd 5ff2 263d 5538 52bd 712c 623d
00000040: f806 28bd 250b 72bd 584a df3d 22b1 c6bd
00000050: 0b8f d83d 5cce 5cbd 552c ca3c 76f7 833d
00000060: 71b7 233d ccdc 01bc 8596 b2bc 7e1d eebd
00000070: 8596 18be 985a d73c 33e2 eabd e704 91bd
00000080: 484d 08bd fee6 ddbd 15af 183c ff62 0dbe
00000090: e184 00be b2db 94bd 95b2 56bc 3cdb 3a3d
000000a0: 2a33 bd3d 2ccf f03c f45e 963d b3d9 debc
000000b0: 1db0 913d cf12 1d3d cc83 563c aafe b4bc
000000c0: 63e5 47be 8c77 12be 93ca bd39 61d1 cfbd
000000d0: 6bbf 82be 961c 893d 0d3b 44bc 2e31 c03b
000000e0: b163 c33d a092 e8bc d006 be3b 39e8 fb3d
000000f0: 8d9b 52bd 04f9 03be f95a bc3d bc98 953d
00000100: 4526 0e3c 37ef 99bd cb0c 65bd 765b 1a3c
00000110: edbc 5cbd b4a7 35be 3f3b e3bd 379b f1bc
00000120: 8ccc 3bbe a8f3 91be 22bf b0bd 5446 1dbe
00000130: 12de 3dbe b4bd 83be 00b9 eabc fd9e bfbc
00000140: ea4e cdbc c228 52bd 3176 5f3b 8ba6 84bd
00000150: d230 1dbd 4d5a 6dbe 7383 0e3e 2e1a 173b
00000160: c692 353c 60ff ffbc 5725 073b 22c9 80bd
00000170: 7897 dcbc ebbc aa3d 0f7e dbbc 4518 42be
00000180: 98b7 033d 2034 a7bd 0b8e 2bbb 6695 823d
00000190: 2915 253d 9527 a0bd d979 abbb 88de f0bd
000001a0: 56ab 823d 1066 f03c 116e f3bc be8f b83d
000001b0: b3bf f2bd 97b7 aa3c c41f a53c e150 c7bd
000001c0: ce33 8c3d a8f7 78bd f77d 85bc a14f 26bc
000001d0: 03d6 893d 7bc6 6ebc e598 a63d c739 4f3d
000001e0: 272a 003e 8785 f0bd 7772 96bc 2049 31be
000001f0: c1d6 373b 866f bd3b 2f35 98bd 3734 85bd
00000200: 521a 7dbb 1fd5 723d 3d48 02be e550 6f3c
00000210: e939 b3bd d744 b43d 6302 0cbe 4494 81bc
00000220: 9633 2ebe e27a ffbd 5a55 5fbd b3de da3d
00000230: 0293 683d 6f1b 213d 85ad 04be 8e01 96bd
00000240: 3d97 0dbd 1a2d 83be 4992 66be 1ff8 33bd
00000250: 6133 f8bd f70a 3f3d 3c3c 93bd 10f5 0fbd
00000260: ae67 cf3d 359c 7fbe 7540 e1bd 53a9 c23d
00000270: b97f 90bd e428 c03d 76db 8dbd d441 ca3c
00000280: f145 96bc 65cc 88bd 579b f83a 951c f4bc
00000290: d0da 69bc 13a6 75bd d11d 96ba e865 c03d
000002a0: 011a 93bd 78cf 393d 64e3 c8bd 847f ffbc
000002b0: 2113 5d3d 0536 dd3d 3805 a8bd c857 1bbc
000002c0: d2bd b1bd 9f2d 85bc 0cc0 44be 818d 6dbd
000002d0: f7ee 16bd 36c9 7abe 7207 5fbd 456d 043c
000002e0: e690 10be 0156 863d c20c b4bd 96ed b2bc
000002f0: 21c7 5dbd e6fa 2dbe cc70 58be 2686 6abd
00000300: c3d6 c6bd 7ffd 7bbc 54db f23d a90b dc3d
00000310: 128d c9bd dd0c 33be 4de8 0a3e b20a b5bd
00000320: a872 f6bc 5e77 8c3c 45d8 c9bd 2328 24be
00000330: ba41 3cbe 57f6 123d 6c87 75bd 273a 3dbe
00000340: 2b68 e3bd 5f9a 9a3d 1768 993c aa78 0cbc
00000350: ea22 febc 992d d33c a294 39be 3094 0338
00000360: a587 2abe 21cd 35be 0ccf afbd 2948 b73d
00000370: fa56 d33c 45c6 86bb e3e4 6cbd aa44 80bd
00000380: 3894 bcbd 18f8 a33c a4c0 5ebd 2008 863c
00000390: 4b0e dbbd ac57 f6bd c216 e2bd e900 d1bd
000003a0: 5f04 96bd faeb a13d b101 963c 6a76 b6bd
000003b0: 49d5 d0bc 36f1 3fbd dadb 5fbd 60b2 373d
000003c0: 2013 80be aa30 813d 7614 9dbd e642 a1bc
000003d0: f94e 013d 5ef8 eb3b c4ce 87bd 87aa a1bc
000003e0: 9b0b 093b 5020 89bc 8903 34bd c38b 27bd
000003f0: cbf3 d53d 0d7d 323e 8d02 b7bd 91ae 9a3d

fc2.bias f4 [256]
-0.023148382 0.0076173707 -0.04639969 -0.024045711 -0.045883425 0.01084778 0.0698949 -0.077454254
0.0042452267 -0.10491832 0.075642236 -0.045950692 -0.063327536 0.035662096 0.06291983 0.013794088
0.09178201 -0.05272421 0.010170065 -0.11041379 -0.057029035 -0.02637599 -0.05050081 -0.05583503
-0.05367828 -0.06642343 -0.08283651 0.014606074 -0.058625616 -0.07247839 -0.006064969 -0.08836614
0.014214009 -0.042406607 -0.05164296 -0.0021188213 -0.09131716 -0.11561968 -0.040511817 -0.07143321
-0.077505186 0.035789784 -0.06486376 -0.07619107 -0.021233443 0.0019725394 -0.06187427 0.039762385
-0.06019097 -0.045800477 -0.065164074 0.0070926324 0.0091671 0.00439513 -0.0432793 -0.03672358
-0.03568811 -0.03698907 -0.053970754 0.011031428 -0.013340061 0.007399493 -0.080440775 -0.01857007
-0.063967 -0.047867708 -0.036262162 -0.04545995 0.03356067 -0.07973983 -0.030606713 0.03441407
0.055860642 -0.039531372 -0.0638587 -0.008473276 0.043200586 0.0026399877 -0.08438425 0.00017270466
0.091750994 0.10263073 -0.006827463 -0.051490754 -0.06503718 -0.046261158 -0.004287789 0.00025185288
0.05717137 -0.006766611 -0.10672529 -0.040539015 0.061217494 -0.042287335 0.058406904 0.008990643
-0.046369042 0.05996683 -0.06202143 -0.007854684 0.0137401065 -0.057077263 0.044078477 -0.06274715
-0.08690414 0.017946765 -0.035696846 -0.028353155 0.10098735 -0.032811403 -0.06474913 -0.09525753
0.036684074 -0.06971982 -0.04636599 0.008160285 -0.029663423 -0.013276127 0.015770415 0.047776867
0.014738069 -0.050719697 0.0107151335 -0.068587184 0.018985763 -0.008483613 -0.01959493 -0.08151192
-0.023913952 -0.033391166 -0.038903043 -0.054846633 0.05947681 -0.011953255 0.00030981327 0.0024529109
0.0072328076 0.0034414434 -0.03477824 -0.02685019 -0.03742955 -0.07940942 -0.052294634 0.048849605
-0.06300978 -0.024763525 0.008005605 0.054051485 -0.0064693647 -0.012965298 -0.034137145 -0.017626414
-0.0070369625 0.08108551 -0.0471432 -0.039592057 0.052258246 -0.046346623 0.0123947505 -0.10343313
-0.05002143 -0.048932306 0.06705773 -0.03041033 -0.011307043 -0.0826473 -0.058039997 0.021236654
0.0479421 -0.05352776 -0.011267858 -0.06024369 -0.06886659 -0.025736053 0.1058071 0.110684894
0.021095991 -0.14590219 -0.029566268 -0.027569612 0.017986497 0.03899736 -0.011843213 -0.07990125
-0.0324713 -0.08707497 -0.065765336 0.046498388 -0.024304278 -0.014477362 0.0007009634 -0.020074083
0.10079716 0.009585911 -0.046132535 0.03143353 -0.07749937 -0.013318277 -0.068635 -0.07750708
-0.020845754 0.06307151 0.014519376 -0.07883756 -0.006895476 -0.019497441 0.008893491 0.021427808
-0.015540307 -0.035761423 -0.03695471 0.0049259034 0.031841155 -0.020619819 -0.061543133 0.060585216
-0.045787655 0.09212615 -0.008903929 0.04784562 -0.03803345 -0.03857057 0.030563785 -0.059797328
0.023536194 0.0010293211 0.02187668 0.0034520857 0.031291854 -0.012553439 -0.017328093 -0.08000856
-0.05882997 0.050562352 -0.0149825765 -0.070668146 -0.03877944 -0.052371643 -0.09107694 -0.049766235
-0.102525696 -0.048833996 -0.020674769 0.040766757 -0.07442624 -0.09995297 -0.003923715 -0.09108725
0.0136098955 -0.0008367027 -0.009950298 -0.021079734 -0.07036844 -0.08119393 0.02229429 0.05770646
00000000: ada1 bdbc 239b f93b 9a0d 3ebd 83fb c4bc
00000010: 42f0 3bbd e3ba 313c 0f25 8f3d 56a0 9ebd
00000020: 8b1b 8b3b 6bdf d6bd 51ea 9a3d cb36 3cbd
00000030: deb1 81bd 6b12 123d 1ddc 803d 9900 623c
00000040: 35f8 bb3d 57f5 57bd 58a0 263c a020 e2bd
00000050: 4797 69bd 7612 d8bc f0d9 4ebd 46b3 64bd
00000060: c2dd 5bbd 0209 88bd 30a6 a9bd 514e 6f3c
00000070: 6a21 70bd 8d6f 94bd a6bc c6bb 4ff9 b4bd
00000080: e0e1 683c 8db2 2dbd 9287 53bd ecdb 0abb
00000090: 7e04 bbbd 03ca ecbd b8ef 25bd 934b 92bd
000000a0: 0abb 9ebd 4f98 123d 4ad7 84bd 100a 9cbd
000000b0: c2f1 adbc b845 013b e06f 7dbd e2dd 223d
000000c0: ce8a 76bd 4899 3bbd be74 85bd 5069 e83b
000000d0: 9b31 163c 0605 903b a345 31bd 776b 16bd
000000e0: b22d 12bd da81 17bd 7010 5dbd 2abd 343c
000000f0: 4590 5abc 7277 f23b 22be a4bd 4220 98bc
00000100: 2101 83bd ee10 44bd a287 14bd 3634 3abd
00000110: ea76 093d a34e a3bd eeba fabc c5f5 0c3d
00000120: 21ce 643d a6eb 21bd 5ac8 82bd 7fd3 0abc
00000130: 19f3 303d a503 2d3b a6d1 acbd 0e18 3539
00000140: f2e7 bb3d 0f30 d23d e9b8 dfbb f8e7 52bd
00000150: 3732 85bd 577c 3dbd 9580 8cbb 1f0b 8439
00000160: 872c 6a3d 72ba ddbb ca92 dabd 3d0c 26bd
00000170: 32bf 7a3d 7c35 2dbd 143c 6f3d 7d4d 133c
00000180: 77ed 3dbd c79f 753d 2f0a 7ebd efb0 00bc
00000190: 2f1e 613c d9c9 69bd a28b 343d 9481 80bd
000001a0: ccfa b1bd 1805 933c db36 12bd e044 e8bc
000001b0: 75d2 ce3d 4065 06bd 319b 84bd 6116 c3bd
000001c0: 0a42 163d 44c9 8ebd 44ea 3dbd b7b2 053c
000001d0: b500 f3bc 1d84 59bc f530 813c adb1 433d
000001e0: f177 713c 75bf 4fbd 878e 2f3c 7077 8cbd
000001f0: 0888 9b3c dafe 0abc 8c85 a0bc b9ef a6bd
00000200: 31e7 c3bc 2dc5 08bd cc58 1fbd dda6 60bd
00000210: f59d 733d 96d7 43bc 6f6e a239 04c1 203b
00000220: 3001 ed3b d789 613b a173 0ebd eef4 dbbc
00000230: ba4f 19bd 68a1 a2bd e632 56bd 8616 483d
00000240: 460b 81bd e0dc cabc f129 033c 1765 5d3d
00000250: f7fc d3bb 676c 54bc 64d3 0bbd 4565 90bc
00000260: 5296 e6bb 2910 a63d 3a19 41bd 482b 22bd
00000270: be0c 563d f5d5 3dbd 5a13 4b3c c0d4 d3bd
00000280: 45e3 4cbd 3e6d 48bd 9055 893d 161f f9bc
00000290: 2d41 39bc fd42 a9bd 59bb 6dbd 7ef8 ad3c
000002a0: ef5e 443d ed3f 5bbd d29c 38bc 16c2 76bd
000002b0: ed09 8dbd 6ad4 d2bc 65b1 d83d c3ae e23d
000002c0: 80d1 ac3c 6267 15be f534 f2bc abd9 e1bc
000002d0: 6b58 933c b2bb 1f3d 090a 42bc 44a3 a3bd
000002e0: a000 05bd 5d54 b2bd faaf 86bd 1875 3e3d
000002f0: c419 c7bc 7532 6dbc dcc0 373a 6772 a4bc
00000300: be6e ce3d 3a0e 1d3c 78f5 3cbd 72c0 003d
00000310: fdb7 9ebd e734 5abc 8290 8cbd 08bc 9ebd
00000320: b7c4 aabc a32b 813d ade2 6d3c 9675 a1bd
00000330: 72f3 e1bb 19b9 9fbc 01b6 113c 5f89 af3c
00000340: c69c 7ebc 927a 12bd d25d 17bd 7969 a13b
00000350: df6b 023d e5ea a8bc a714 7cbd 3428 783d
00000360: d68b 3bbd a3ac bc3d c9e1 11bc c5f9 433d
00000370: f6c8 1bbd 2dfc 1dbd e760 fa3c 0bee 74bd
00000380: face c03c 49ea 863a b936 b33c 633c 623b
00000390: e32b 003d f0ac 4dbc a5f3 8dbc 87db a3bd
000003a0: b2f7 70bd 781a 4f3d 7b79 75bc 76ba 90bd
000003b0: 31d7 1ebd a683 56bd 8c86 babd aed7 4bbd
000003c0: fef8 d1bd 2806 48bd 225e a9bc 0bfb 263d
000003d0: c96c 98bd 25b4 ccbd 8292 80bb f48b babd
000003e0: 0afc 5e3c 2b56 5bba 9306 23bc 68af acbc
000003f0: 541d 90bd 0149 a6bd 84a2 b63c 9c5d 6c3d

fc3.weight f4 [5, 256]
-0.023983903 -0.014304899 -0.04378605 0.06776384 0.12522471 -0.037611112 0.03575118 0.094400175
0.051429093 0.01936525 0.01871473 -0.016395146 0.009106324 0.016072737 0.04228161 0.067603536
0.035853896 -0.0433673 -0.023599716 0.053198807 0.077507645 -0.0418088 -0.04168558 -0.025071708
-0.076548204 0.05800863 0.14118893 0.022516415 0.0027980008 -0.03730176 -0.03950903 -0.002745933
-0.03423395 -0.053287875 -0.03837169 -0.043134686 -0.041827627 -0.013499333 -0.00900388 -0.070382886
-0.057749532 0.06036986 -0.081728816 -0.05372524 0.06288826 -0.034182407 -0.011833127 0.055834416
-0.07377232 0.0063627865 0.035223506 0.009114553 0.060073875 0.08412043 0.098428115 -0.045981113
0.06943218 0.12669781 -0.031454448 0.03957277 -0.04646894 0.107852794 0.007562534 0.008639518
-0.10615357 -0.036057845 -0.04368913 -0.068754405 0.05976205 -0.021773783 0.085301735 0.07716915
0.07432321 -0.014501428 -0.043867756 0.059113514 -0.009370468 -0.09234679 -0.049684737 0.042414453
0.029762955 0.041809577 -0.05060588 -0.018790722 -0.053477556 -0.042023424 -0.012441813 0.052165397
0.12641059 0.060026977 0.0038859427 -0.0082013225 0.071745016 0.012576477 0.07570806 -0.040381994
0.008107419 0.07781416 -0.039994847 -0.040094577 -0.022199295 0.034938768 -0.06645919 -0.0747455
0.020992218 0.0035789784 0.016544834 0.04048815 0.046361793 0.033923645 -0.06412478 -0.022967802
0.1281999 -0.034102526 -0.04965167 0.014516483 -0.05074697 0.07300418 0.044497628 0.07750191
0.008826991 0.069145545 0.058113035 -0.05537622 -0.060044996 0.08552504 0.08266418 -0.025507182
0.04634521 -0.03685276 0.019493299 -0.019098453 0.052340172 0.08313983 0.08164913 0.065593146
3.818507e-05 0.056415316 -0.052611593 0.06771648 0.02701798 0.033553626 0.08057457 0.09591871
-0.07536426 0.02517361 0.063876346 0.0070707533 0.022817828 -0.022629516 -0.03883625 0.05252325
0.052685726 0.02373082 -0.031514954 0.09110919 -0.075242445 0.0542504 0.0075850366 -0.029778827
0.12294715 -0.06510722 0.02380347 -0.05587164 0.007691904 -0.027934577 -0.035315428 0.052307382
0.05041447 0.06612669 0.08550275 -0.0068797683 0.020001069 -0.04319928 0.061777864 0.029574126
0.011094063 -0.054284956 -0.0051817927 -0.00066401897 0.014331632 0.019268686 0.04262225 0.028448122
-0.049878012 -0.024976036 -0.049576674 0.07102659 0.017436793 -0.04001749 0.044321086 0.020383038
0.016892051 0.011314263 -0.07077165 -0.022431599 -0.050868638 0.06999482 -0.053911008 0.15811606
-0.045936685 0.024193048 0.013234894 -0.020736452 0.015195518 -0.0011681938 0.011579293 -0.029471267
0.05010541 0.040240306 0.07736627 0.029115118 0.029139252 -0.021036379 0.060847677 0.07447423
0.08165202 0.06552723 0.0779964 0.052938536 -0.01796308 -0.019456211 0.056267645 -0.03152847
0.041093122 0.018433793 0.0076649366 -0.077724196 0.03834724 0.09929532 0.07860673 -0.04692964
0.096972555 0.050951112 0.03947267 0.063342616 0.06802868 -0.079534 0.0030522705 -0.03737941
-0.06613329 0.027694717 0.016795324 0.081133775 0.043780677 0.12146788 0.044598106 -0.040336624
-0.034281995 0.094194494 0.08973822 0.015791327 -0.022406958 0.08000604 0.11085407 0.0560254
00000000: e479 c4bc 185f 6abc 0059 33bd c5c7 8a3d
00000010: e83a 003e 1c0e 1abd d46f 123d e154 c13d
00000020: 50a7 523d dfa3 9e3c a24f 993c 1d4f 86bc
00000030: b132 153c f9aa 833c 7b2f 2d3d b973 8a3d
00000040: 89db 123d e9a1 31bd 3154 c1bc fee6 593d
00000050: 54bc 9e3d b43f 2bbd 80be 2abd 2f63 cdbc
00000060: 4ec5 9cbd 759a 6d3d d593 103e 5874 b83c
00000070: aa5e 373b bbc9 18bd 38d4 21bd 1cf5 33bb
00000080: e638 0cbd 6344 5abd a22b 1dbd ffad 30bd
00000090: 7253 2bbd 4e2c 5dbc 0385 13bc e724 90bd
000000a0: c68a 6cbd 6346 773d 7061 a7bd ff0e 5cbd
000000b0: 8fcb 803d da02 0cbd bbdf 41bc a1b2 643d
000000c0: f115 97bd ec7e d03b 8646 103d 3555 153c
000000d0: 0610 763d 5547 ac3d ae94 c93d b156 3cbd
000000e0: 7532 8e3d 12bd 013e 61d6 00bd 0f17 223d
000000f0: 3756 3ebd ede1 dc3d 22cf f73b c48c 0d3c
00000100: 0b67 d9bd 64b1 13bd 60f3 32bd 1ccf 8cbd
00000110: 0dc9 743d ef5e b2bc adb2 ae3d dc0a 9e3d
00000120: c436 983d 6697 6dbc adae 33bd 0321 723d
00000130: 9786 19bc 5020 bdbd 3982 4bbd c7ba 2d3d
00000140: 71d1 f33c 8540 2b3d 1c48 4fbd 00ef 99bc
00000150: 480b 5bbd c120 2cbd bfd8 4bbc 62ab 553d
00000160: c771 013e d9de 753d 4dab 7e3b d75e 06bc
00000170: 0def 923d 910d 4e3c d40c 9b3d 9767 25bd
00000180: fbd4 043c 085d 9f3d a3d1 23bd 363a 24bd
00000190: 4cdb b5bc f41b 0f3d c11b 88bd 2b14 99bd
000001a0: dff7 ab3c 4b8d 6a3b 0889 873c e7d6 253d
000001b0: dde5 3d3d 85f3 0a3d da53 83bd f926 bcbc
000001c0: d646 033e 17af 0bbd 8d5f 4bbd 8bd6 6d3c
000001d0: 0edc 4fbd 3783 953d 2543 363d 52b9 9e3d
000001e0: 159f 103c 2e9c 8d3d ef07 6e3d 2dd2 62bd
000001f0: bef1 75bd c127 af3d d64b a93d 70f4 d0bc
00000200: 7ad4 3d3d ebf2 16bd 69b0 9f3c 5c74 9cbc
00000210: a662 563d 3745 aa3d a937 a73d b355 863d
00000220: e828 2038 bf13 673d 417f 57bd f0ae 8a3d
00000230: d054 dd3c 876f 093d 4804 a53d 0771 c43d
00000240: 9458 9abd e338 ce3c 9ad1 823d c7b1 e73b
00000250: 74ec ba3c 8961 b9bc c212 1fbd 9f22 573d
00000260: fdcc 573d 2367 c23c d315 01bd 7497 ba3d
00000270: b618 9abd ab35 5e3d e68b f83b baf2 f3bc
00000280: b7cb fb3d ef56 85bd 7fff c23c a9d9 64bd
00000290: 5e0c fc3b 0ed7 e4bc e9a6 10bd 4440 563d
000002a0: 677f 4e3d 6e6d 873d 111c af3d ae6f e1bb
000002b0: 48d9 a33c baf1 30bd c90a 7d3d 7045 f23c
000002c0: dfc3 353c e759 5ebd 07cc a9bb 8f11 2eba
000002d0: 39cf 6a3c 5dd9 9d3c ab94 2e3d 090c e93c
000002e0: e34c 4cbd 8b9a ccbc e910 4bbd 6476 913d
000002f0: 9bd7 8e3c 61e9 23bd 078a 353d 54fa a63c
00000300: 3361 8a3c 755f 393c baf0 90bd 79c2 b7bc
00000310: a25b 50bd 7259 8f3d cad1 5cbd 2de9 213e
00000320: 1b28 3cbd 8030 c63c 2bd7 583c 7edf a9bc
00000330: 9ff6 783c 141e 99ba 13b7 3d3c ba6d f1bc
00000340: 553b 4d3d 05d3 243d 3572 9e3d d482 ee3c
00000350: 71b5 ee3c 7c54 acbc 6a3b 793d f285 983d
00000360: 2d39 a73d 2433 863d 94bc 9f3d 14d6 583d
00000370: 4f27 93bc a262 9fbc e778 663d ff23 01bd
00000380: 4351 283d 7702 973c 262a fb3b dd2d 9fbd
00000390: ff11 1d3d 585b cb3d 91fc a03d 4b39 40bd
000003a0: 8c99 c63d 1db2 503d 18ae 213d c6b9 813d
000003b0: 9f52 8b3d b9e2 a2bd 9a08 483b 271b 19bd
000003c0: e470 87bd 08e0 e23c 5996 893c 7729 a63d
000003d0: 5e53 333d 27c4 f83d 81ac 363d 0438 25bd
000003e0: 476b 0cbd 0be9 c03d acc8 b73d d05c 813c
000003f0: cc8e b7bc 35da a33d 7507 e33d e47a 653d

fc3.bias f4 [5]
0.040454544 -0.016406119 -0.055605568 -0.012857245 -0.02858644
00000000: aab3 253d 2066 86bc aac2 63bd 32a7 52bc
00000010: 1c2e eabc
