Model/DQN/[S1]net_Q(param).pt (torch, 315042 bytes, 6 tensors)

fc1.weight f4 [256, 42]
000000 8c 31 89 3d 68 a5 f3 3e 61 19 ad be 06 f5 b9 3e
       0.066989034 0.47587132 -0.33808425 0.3631975
000010 ec be 3e 3e 43 b6 75 be ff 42 a1 be 40 07 ac 3e
       0.18627518 -0.23995309 -0.31496426 0.3359928
000020 7c 0f 20 3e 08 86 cb bd 7f 15 f6 3e 5a 15 d1 3e
       0.15630907 -0.09937674 0.48063275 0.40836602
000030 9c bb de be 4b 76 15 be 68 d6 c8 be f4 27 1c be
       -0.4350251 -0.14595906 -0.3922608 -0.15249616
000040 d3 50 06 3e 25 09 87 bd 05 20 98 3c b3 9c ae 3d
       0.1311677 -0.06593541 0.018569956 0.08525982
000050 16 85 71 3d cc da 85 3e 7e b4 27 3e 9c 98 b7 bd
       0.05896481 0.2614349 0.16377446 -0.08964655
000060 cf f2 0d bd ee b3 02 be b8 87 a3 3d d0 48 64 bc
       -0.03465539 -0.1276395 0.07984871 -0.0139333755
000070 bf 06 f7 be 4c a9 35 be d6 aa d3 3c f1 bc 7c bc
       -0.48247334 -0.17740363 0.025838297 -0.0154259065
000080 b2 59 50 be 39 aa 32 3e a1 43 a6 3e f7 19 ec 3d
       -0.20346716 0.17447747 0.32473472 0.1152839
000090 89 0d 84 bd fe 30 f9 3c ad 44 60 3e 4e d5 cc bd
       -0.06447894 0.03041887 0.21901198 -0.10001622
0000a0 a7 36 83 3d 3d f2 c4 3d cb 90 0a bf 44 1d 04 3b
       0.064069085 0.09616516 -0.54127187 0.0020159045
0000b0 3a e5 42 3e d4 8b 7f be d3 5e 38 bf 44 b1 f3 be
       0.19032755 -0.24955684 -0.7201969 -0.4759618
0000c0 87 42 82 3e f3 dd e5 3e e1 41 d7 be ca a6 a8 bd
       0.2544138 0.44895896 -0.4204245 -0.082349375
0000d0 2a 7f b3 be b0 8e 89 3c 8a 8a 3f 3f 61 9b 6c 3f
       -0.35057956 0.016791672 0.7482077 0.9242459
0000e0 39 3e cc 3e 81 84 eb be 43 26 5b 3e ae 91 89 be
       0.39891222 -0.4599953 0.21401314 -0.26868957
0000f0 31 f4 a7 3e ae 6a 14 3e b9 c7 36 be 80 58 9a 3d
       0.3280349 0.1449382 -0.17849626 0.07536411
000100 4c f4 e1 3e fe 87 5a bd 76 00 13 3e ce 15 01 be
       0.44131696 -0.05335235 0.14355645 -0.12605974
000110 3c 7b d2 bd 9a 69 ad 3d 29 19 88 bc 1e 3a cb bc
       -0.10277411 0.084674075 -0.01661356 -0.024807986
000120 35 9e d0 3c 27 30 4b bd 92 f3 91 bd e1 55 19 bd
       0.025466064 -0.04960647 -0.071265355 -0.037435416
000130 9a 25 84 3e da a7 46 3e cf c1 2c bd 3c a1 50 bd
       0.25809938 0.19399968 -0.042177018 -0.050935015
000140 00 f6 9f be b0 f1 9d bc e2 15 86 3d c0 f9 0a bf
       -0.3124237 -0.019280285 0.065471426 -0.5428734
000150 aa 7f a8 3e 8d 97 80 3e 4a 68 30 3f 1a ef 5b 3f
       0.329099 0.25115624 0.6890913 0.85911715
000160 aa 66 36 3f 30 b8 c3 3d f6 19 f8 bb be bc b9 bd
       0.712504 0.09556615 -0.007571454 -0.09069203
000170 cf c6 d5 3e 97 76 67 be 59 89 43 bf b3 b4 17 bf
       0.4175324 -0.22603832 -0.7638145 -0.592601
000180 ae 93 20 bf 64 4c 01 3e a6 b5 0a 3d 51 ec 75 be
       -0.6272534 0.12626797 0.03386464 -0.24015929
000190 72 73 d7 3d a0 61 5f be 67 4c ed 3c 4d f7 05 3e
       0.10520066 -0.21814585 0.028967096 0.13082619
0001a0 dc ca 22 3e 87 12 af be 15 3e e1 3d c5 51 18 bd
       0.15897697 -0.34193823 0.10998169 -0.037187357
0001b0 0d 4f 0f bd db ae 0a 3e ed 65 16 bf d0 fe 06 be
       -0.034987498 0.13543265 -0.58749276 -0.13183141
0001c0 64 12 04 be 1d ad 4c 3d e5 23 9f 3d e9 ae 32 be
       -0.1289764 0.04996978 0.07770518 -0.17449535
0001d0 63 e1 49 3e d5 dc c0 3d 59 21 2b be 94 d5 d1 3d
       0.19714884 0.0941712 -0.1671194 0.10245815
0001e0 7d fb 69 3e 1a 62 c3 bd 51 77 a1 bd 21 20 80 bc
       0.22849841 -0.09540196 -0.07884086 -0.01564032
0001f0 05 f2 14 3e 0d 70 3f 3e dc df 77 be 1c e6 be be
       0.14545448 0.18695088 -0.2420649 -0.37284935
000200 4d a3 e7 bb 46 92 a5 be 23 91 7c bd 42 57 5d be
       -0.0070690275 -0.3233816 -0.06166185 -0.21615317
000210 e0 ff 7a 3d ef fb fa 3d 45 20 11 be 86 0a 58 3e
       0.061279178 0.12255084 -0.14172466 0.21097764
000220 60 3d 5c 3e 4b 66 0e 3c e9 69 4a 3e 2c 9e a9 3c
       0.21507788 0.008691381 0.19766964 0.020705305
000230 d8 c5 9c 3d 1b bd 72 3e 71 ff 8e 3e 6c ba f0 3e
       0.07654923 0.2370495 0.2792926 0.4701723
000240 32 89 39 be f3 a5 d0 3e e1 9b 19 3e 03 e6 05 be
       -0.18118742 0.4075161 0.1500087 -0.13076024
000250 48 cf e4 3e f7 2a d3 bd 28 8f d2 bd 9c ca 9f 3d
       0.44689393 -0.10310929 -0.10281211 0.078023165
000260 12 dc 04 3e 90 d8 bb 3d 1a f0 3a be db 2d ad 3d
       0.12974575 0.091721654 -0.18255654 0.08456012
000270 90 ce 10 be 78 31 e0 bd dc f5 bc 3d 1a d7 b2 3d
       -0.14141297 -0.109469354 0.092265815 0.087324336
000280 c6 3e 16 be 27 a9 ad be ed 31 de bd ac ac 00 be
       -0.14672384 -0.33918115 -0.10849366 -0.12565869
000290 92 23 e3 3d 5b 95 5b 3e d6 55 c1 be 14 88 89 3d
       0.11090769 0.21443693 -0.377608 0.06715408
0002a0 75 7e 3f 3b 1d 0a 18 bf ee 88 cd be c7 37 cd 3e
       0.0029219661 -0.5939043 -0.40143532 0.40081617
0002b0 9a 1b 21 3e 81 85 78 bd f1 c3 1d be 0f c8 6f 3e
       0.15733185 -0.060674194 -0.15406777 0.2341616
0002c0 89 9b ac bd cb 1f 85 3e 01 52 88 3e d5 8d 4b bd
       -0.084281035 0.2600082 0.26625064 -0.04969581
0002d0 fc 0c e5 be bb 14 07 3e 2c 51 bf 3e 28 e6 c9 bd
       -0.4473647 0.13191502 0.37366617 -0.09858352
0002e0 be 14 11 3d c0 74 29 bf a8 3a 60 3e 39 9c 8d 3e
       0.035420172 -0.6619377 0.21897376 0.2765825
0002f0 5f 5d ee be de ff 9e 3e 59 44 d1 3e 49 94 00 be
       -0.46555611 0.31054586 0.40872458 -0.12556566
000300 4e e8 0c bd 0b 13 da 3d f8 47 49 bd da 9d a7 bb
       -0.03440123 0.106481634 -0.0491409 -0.005115253
000310 8b 31 90 be c4 d5 71 3d 89 29 46 3e 8d 10 48 be
       -0.28162798 0.059041753 0.19351782 -0.19537564
000320 04 c3 81 bc 05 ad 77 be 8b 96 d0 bd 98 b8 81 bd
       -0.015840061 -0.24187095 -0.10184964 -0.063340366
000330 83 6e 8f be 99 51 1e 3e 30 d5 42 bd 63 21 d2 be
       -0.28014 0.15460815 -0.047566593 -0.41041097
000340 a5 10 44 be c0 76 50 3d 53 f1 9b be 80 63 ed bd
       -0.19146974 0.0508945 -0.30457553 -0.11591244
000350 3c c9 1e be 48 73 10 3d dc e6 f1 be 21 2b 13 be
       -0.15506452 0.03526619 -0.47246444 -0.14371921
000360 cf 2d ab 3e 0b 04 3a 3d 6d b3 0b be ee 9c 0c be
       0.33433387 0.045414012 -0.13642664 -0.13731739
000370 2a 6e fa 3e 8b f5 8c 3e 7e ec de be 69 75 a1 be
       0.48912174 0.27531084 -0.43539804 -0.3153489
000380 9b 79 e1 3d ab 2d ec 3e 3e b5 2a be 47 d2 c4 be
       0.110095225 0.46128592 -0.16670701 -0.3844168
000390 9e e8 80 be d4 16 91 3d 4c c8 cd be 9b eb 07 bf
       -0.25177473 0.07084432 -0.40191877 -0.5309388
0003a0 7e 0e 25 3d 9a 8b 9a 3d f3 83 c3 bd 03 4d e1 3d
       0.040297024 0.07546158 -0.09546652 0.11001017
0003b0 32 1f 46 3e ea a1 27 be 3f 5e 3a bd bc 2f 5c bd
       0.19347838 -0.16370359 -0.045500036 -0.05375646
0003c0 05 c2 2c bc ce 65 4f b9 eb 9a 18 3e 63 04 78 be
       -0.010544305 -0.00019778984 0.14902847 -0.24220423
0003d0 35 e5 fc 3d 05 d5 6a be 12 9d 02 be 7b 6e a6 bd
       0.12348405 -0.22932823 -0.1275523 -0.08126541
0003e0 92 34 f2 3d 6c 09 d6 3d 02 70 2d 3e 32 56 82 be
       0.11826433 0.10451016 0.16937259 -0.25456387
0003f0 8b c2 26 bd a0 b4 53 3e ac bc af be 00 73 e7 bd
       -0.040712874 0.20674372 -0.34323633 -0.113012314

fc1.bias f4 [256]
000000 f9 b4 76 3d 80 63 12 bd f6 c5 d3 bd 5d 02 48 bd
       0.060231183 -0.03573942 -0.103404924 -0.04883038
000010 53 53 0b be a1 b5 d7 bd 1d 48 73 bd 48 e2 d6 3d
       -0.13606004 -0.1053269 -0.059394944 0.104923785
000020 b5 ef 17 3c 84 b2 c4 3d 5a 86 80 bd 7c 2e b9 bd
       0.009273459 0.09604362 -0.062756255 -0.09042069
000030 7c 8d 67 bd 51 e5 31 be 9a 4d 1b 3e 8a 26 f8 3d
       -0.056531414 -0.17372634 0.15166321 0.12116726
000040 7a 66 24 bc 36 8d 2d 3d ee 61 68 3c 04 75 c9 bc
       -0.010034198 0.042370997 0.0141835045 -0.02459193
000050 38 33 ff 3c 5d e4 86 3d 8c c2 c8 bd d9 fd a5 bd
       0.031152353 0.065865256 -0.09802732 -0.08105058
000060 b3 9f c0 3d fc 69 1c be 00 fb 20 3e 14 bb ac bd
       0.0940546 -0.15274805 0.15720749 -0.0843412
000070 04 2f 45 be 7f a9 3b be 28 bf 1b 3d 22 48 db bd
       -0.19256216 -0.18326376 0.038024098 -0.107071176
000080 e9 44 f6 bd 6c 7d 03 3d 1f b5 12 3e c8 56 34 3b
       -0.12024862 0.032102033 0.14326905 0.0027517546
000090 8f 83 9f 3d db b4 d0 bc cc fc ef bd c0 8d 1c bd
       0.07788765 -0.025476864 -0.11718139 -0.03822112
0000a0 09 42 61 bd 37 0b 5a be b7 7e 10 3e 82 1e 15 3d
       -0.054994617 -0.2129334 0.14110838 0.036406048
0000b0 c4 21 c9 3d 4c 4b 71 be d4 8e dc bd ad eb 24 bd
       0.098208934 -0.2356388 -0.1076943 -0.04026382
0000c0 37 8b 6f be d2 82 a4 b9 3b 00 ac 3d cd 84 c0 bc
       -0.2339295 -0.00031377986 0.083984815 -0.023500824
0000d0 f7 90 17 3d e5 58 32 be c7 6f 1e 3e 51 48 2f 3d
       0.037003484 -0.17416723 0.15472327 0.042793576
0000e0 9b 57 01 be 6c 28 95 3d da ce 41 3e 18 72 d0 bd
       -0.12631075 0.072831005 0.18926564 -0.10178012
0000f0 eb b1 b8 3d 51 ad 12 3e 3b 20 e6 3c 75 b0 18 3e
       0.0901831 0.14323927 0.02809154 0.14911063
000100 c2 f3 62 3d 2d 87 47 be 5c d2 e0 bd c3 d1 08 be
       0.055408247 -0.19485159 -0.10977623 -0.13361268
000110 2f 83 b6 3d e1 f5 57 3d 50 d5 49 bd dd fe 5a 3d
       0.0891174 0.052724723 -0.049275696 0.053465713
000120 d5 07 27 be 30 06 d0 bd 00 d3 eb bd 51 bb c1 bd
       -0.16311581 -0.1015743 -0.115148544 -0.09459556
000130 35 e7 85 bc c2 d3 75 bb b3 9a 25 be aa 6d ba 3c
       -0.0163456 -0.003751025 -0.16172294 0.02275737
000140 47 3d f2 3d 5b 18 58 bd ed a6 8f bd 2d ae 2e 3d
       0.11828094 -0.052757602 -0.070142604 0.042646576
000150 11 b7 16 be 3a c8 5b be a0 ba c7 3c 37 87 56 3e
       -0.14718272 -0.21463099 0.024380982 0.20950018
000160 0e b6 8d bd 12 f3 fe 3d ce 8a e1 bd aa 27 1a be
       -0.0691949 0.12448706 -0.11012803 -0.15054193
000170 17 01 c0 bd cf db 2a be 7d ab 56 be 11 1c b6 3c
       -0.09375208 -0.16685413 -0.20963855 0.02223018
000180 ba 66 c0 bd a9 35 c7 bc da fc a7 bd 07 9a 27 bd
       -0.093945935 -0.02431758 -0.082025245 -0.040918376
000190 4c 88 4d 3d 72 af 1b 3e 44 6f 8f 3d 55 64 55 be
       0.05017881 0.15203646 0.07003644 -0.20839055
0001a0 2d 51 69 3e 47 3e af 3d 55 2f c5 3c ae 68 fe 3d
       0.22784872 0.085568 0.024070421 0.1242231
0001b0 ed bd 2b 3e 0b 60 9a 3d 9c 26 84 bd 04 7f ef bd
       0.1677167 0.0753785 -0.06452677 -0.11694148
0001c0 07 61 6c be b1 a0 f8 bd 03 1d c7 bd 3f 77 87 3d
       -0.23083888 -0.121400245 -0.097223304 0.06614541
0001d0 88 83 1d 3d 29 fe 63 be e8 1e 25 be 11 ad 46 be
       0.038455516 -0.22264923 -0.16125071 -0.19401957
0001e0 2d 06 6d bd 77 27 36 bc ec 42 fc bd 7a a8 aa bd
       -0.057867218 -0.011117808 -0.12317452 -0.083329156
0001f0 4c 91 85 39 3b 82 c0 bd 33 db da bd 7b 67 38 be
       0.0002547599 -0.093998395 -0.1068634 -0.18008225
000200 36 86 fa bd 83 e0 0e bd fb 49 c1 bd 64 cf 9a 3b
       -0.1223263 -0.03488208 -0.09437939 0.00472443
000210 1d 4a 49 bd 3e 89 2d be 0a 36 23 3e 9b 17 fb 3d
       -0.049142946 -0.16946885 0.15938583 0.12260362
000220 9b b7 3f be e4 64 51 be c1 02 e9 bc b0 14 0b 3e
       -0.18722384 -0.20448643 -0.028443696 0.1358211
000230 3a 63 13 3e 03 f7 8d bd 50 0a da bb f8 5d 6e bd
       0.1439332 -0.06931879 -0.0066540614 -0.058195084
000240 94 b2 1f bb fa a3 b2 bc 20 56 aa bd f5 95 84 3d
       -0.0024367915 -0.021806706 -0.08317208 0.064739145
000250 1f 98 bb bb ac 80 97 bd 59 55 08 3d d5 d0 51 3d
       -0.0057249214 -0.07397589 0.03328452 0.05122455
000260 c5 2d 6d be 03 52 1a 3d 10 73 9e bd fd f8 54 bc
       -0.23161991 0.03767587 -0.0773679 -0.012998817
000270 89 47 d8 3d d4 60 f4 3c 92 52 09 3e 0f 96 4e bd
       0.10560519 0.029831327 0.13410404 -0.050436076
000280 ef 96 16 3e d0 e8 16 3e a7 77 c4 bd 41 d2 b1 bd
       0.14706014 0.14737248 -0.095931344 -0.08682681
000290 7d 46 3b be 40 c7 b4 bc bf fc a5 bd e0 07 93 3d
       -0.18288608 -0.022067666 -0.08104848 0.071792364
0002a0 8a f7 24 be 30 48 0d be f6 b7 a3 bd 6a 19 2b bd
       -0.16110054 -0.13797069 -0.07994072 -0.041772284
0002b0 d0 c1 ab bc a2 e8 86 bd bc 0e 85 3d 2e 89 89 bd
       -0.02096644 -0.0658734 0.06496951 -0.06715618
0002c0 c4 78 89 bc 3a 58 a9 bd 5d 7b 82 bd d9 c8 82 be
       -0.016781218 -0.08268781 -0.06371186 -0.2554386
0002d0 df 9e 4f 3d 01 e7 8d ba 9c bc 89 bd b1 c7 37 3d
       0.05068862 -0.0010826291 -0.067254275 0.044868175
0002e0 c7 4d 9c 3d 21 bd f7 bc 9c 07 de bd 85 1c 26 3e
       0.07632022 -0.03024155 -0.10841295 0.16221817
0002f0 d9 bc 7d bd e1 73 9d 3d 42 d5 b7 bc 33 89 0e be
       -0.061947677 0.07688118 -0.022440556 -0.13919525
000300 f1 77 80 be f4 ba 08 be eb ac 30 3e 90 00 a8 3d
       -0.25091508 -0.13352567 0.17253463 0.08203232
000310 ad fa 08 3e 7f 53 08 bd 57 e3 e3 bd 11 ea f9 3d
       0.13376875 -0.033282753 -0.11127346 0.12202848
000320 e3 f0 5e be 6d 2a 8b bd 3b 87 5b 3d 10 59 15 3e
       -0.21771578 -0.067952015 0.053595763 0.14584756
000330 90 a2 4d 3c 6f c3 9f 3d b8 15 33 3c 18 83 82 3d
       0.012550965 0.07800948 0.010930471 0.063726604
000340 e6 ec b7 bd 40 75 10 3d 24 1a 0f be 31 d8 98 bd
       -0.08980732 0.03526807 -0.13974816 -0.0746311
000350 13 58 45 3e 2c 83 04 3d 4a de ca bd e8 2a b1 bd
       0.19271879 0.032351658 -0.099056795 -0.08650762
000360 a2 60 94 bd a5 10 48 be ab bf f7 3d 26 ba b0 bd
       -0.07244994 -0.195376 0.12097105 -0.08629255
000370 3f 5f 55 be f0 12 48 bd c7 bf 18 3e 0e e7 c1 bd
       -0.20837115 -0.048846185 0.14916907 -0.09467898
000380 ec 01 55 be 07 b9 4f be 51 72 be 3d d5 78 f1 3d
       -0.20801514 -0.20285426 0.09299148 0.11790625
000390 de f7 e3 bd 95 b5 8d 3c 1f fa 73 bc 32 d1 c0 3d
       -0.11131261 0.0172985 -0.0148911765 0.09414901
0003a0 3c 9c 17 bd 77 1e fa 3d 6e 11 72 bd a1 85 eb 3c
       -0.03701423 0.12212842 -0.059098653 0.028750243
0003b0 c5 44 39 3e ca ef 52 3c 9c 49 21 be 55 e2 c9 bd
       0.1809264 0.012874553 -0.15750736 -0.098576225
0003c0 e4 6d 0a 3d a6 3f 37 3d 4d 4d 76 3d 16 10 60 3d
       0.033796206 0.044738434 0.060132314 0.05470284
0003d0 2d f3 0e 3d 7f 86 50 bd 5f 3e a9 bd 58 0a 68 bd
       0.03489988 -0.050909515 -0.082638495 -0.05665049
0003e0 c9 d7 b3 bd 7c 09 26 3e ab bc e6 bd cb ed ff bd
       -0.08781392 0.16214556 -0.11266454 -0.12496527
0003f0 b3 ed 5f 3b f3 ac 5b be 71 10 d0 3d 9c b0 c8 bd
       0.003416878 -0.21452694 0.10159386 -0.097993106

fc2.weight f4 [256, 256]
000000 80 30 40 bd a1 61 92 3c 73 51 3f bd b6 52 37 bd
       -0.046921253 0.017868819 -0.046708535 -0.044756614
000010 28 73 e0 bc c9 53 56 3d a8 6b 6c bd 8a c8 17 3c
       -0.02739866 0.052325998 -0.057719857 0.009264121
000020 6b b3 c1 3c b0 6a c4 bb 27 d9 81 bd 06 84 9e bd
       0.023645123 -0.0059941635 -0.06340247 -0.07740025
000030 32 fe 0c bd 41 2d 68 bc 91 97 d0 3c 05 57 5d bd
       -0.034422107 -0.014170946 0.025462897 -0.054038066
000040 2f 36 19 3d 02 28 c1 3b b2 12 21 bd 0b f9 96 bc
       0.03740519 0.005894662 -0.03932447 -0.0184293
000050 3a 9a e7 3b 1f 0f 3f bd 7f a0 a5 39 ab aa 9a bd
       0.007067946 -0.04664528 0.0003159083 -0.075520836
000060 4b 4e 18 3d 62 ef b0 3b 80 07 5e bd fc db 81 3d
       0.03718404 0.0053996304 -0.05420637 0.06340787
000070 a4 21 9f bc 69 8a b5 3a 74 cf a3 bc e5 39 13 bc
       -0.01942522 0.0013850454 -0.019996382 -0.008985971
000080 56 19 ce bc 87 c3 8d bc 11 b5 28 3c 27 21 8e bd
       -0.025158565 -0.017305149 0.010297076 -0.06939917
000090 43 8a 73 bd 14 82 37 3c 7d cb 71 bd 91 ea 25 3d
       -0.05945803 0.011200447 -0.059031952 0.040506903
0000a0 c5 d5 82 bd 4a 34 2d 3c 58 2c 40 3c e0 e5 e2 3b
       -0.063884296 0.010571549 0.011729322 0.006924376
0000b0 dc 80 49 3d 8f 6d 86 bd 89 05 2a bc 48 34 2c bc
       0.049195156 -0.065638654 -0.010377296 -0.010510512
0000c0 f2 01 21 bd 7a 22 49 bd 74 77 5e bd c4 94 55 bd
       -0.039308496 -0.049105145 -0.054313138 -0.052143827
0000d0 36 c0 03 3d 5d a5 52 3c 33 32 8d 3c 18 d5 95 ba
       0.03216573 0.0128568085 0.01723585 -0.0011431305
0000e0 9d 26 8b bd 6a 2f d2 b9 19 c0 68 bd 22 6f 84 bd
       -0.06794474 -0.00040089648 -0.056823824 -0.064665094
0000f0 b4 df 0a bd 61 f5 a5 bd a7 a4 08 bc 7f c8 42 bb
       -0.033904746 -0.08103443 -0.008340037 -0.0029721556
000100 ae ff 10 3d 72 46 b8 bc 66 20 af 3c 63 09 76 bd
       0.035400085 -0.022494528 0.021377753 -0.060067546
000110 07 3f 29 bd ca 15 d9 3c b0 bc 71 bd f5 08 1f bd
       -0.041319873 0.026499648 -0.059017837 -0.0388269
000120 f3 fa 42 bd 25 ca ad bd 37 c8 00 3d 91 69 25 3d
       -0.047602605 -0.08485822 0.03144094 0.04038388
000130 e6 41 80 bd 0e 25 7e bd 0c 1e de 3b 31 86 98 3c
       -0.06262569 -0.062047057 0.006778484 0.018618675
000140 d6 48 77 bd fd 83 36 bd 15 79 95 3c e6 5a 6d bc
       -0.060372196 -0.044559468 0.018246213 -0.014487004
000150 35 f8 96 bd a0 cf 60 bd 50 f2 9d bd 7c f0 af 3c
       -0.073715605 -0.054885507 -0.07712233 0.021476977
000160 27 54 8b ba ef 7a 88 3b bc 02 33 3d c3 1d 1b bc
       -0.0010629938 0.0041650455 0.04370378 -0.009467545
000170 07 3f 33 3d 52 e4 ff bc 7a 40 69 bd b2 96 6a bd
       0.04376128 -0.031236801 -0.056946255 -0.05727262
000180 39 04 a2 bc a4 87 8a bd 59 11 15 bd e3 19 85 bd
       -0.019777404 -0.06764153 -0.036393497 -0.06499078
000190 81 f6 6b bd 7c 4d e6 bc 0a 42 82 bd 6a 95 c4 3c
       -0.05760813 -0.02811312 -0.06360252 0.023997027
0001a0 7f db 3d bd 8e 1b 50 bd 84 20 85 bd ab c9 5d 3d
       -0.046351906 -0.05080753 -0.065003425 0.054147404
0001b0 7b 58 67 bd a9 64 07 3c bc d2 77 3d 2a 8d 7b bd
       -0.056480866 0.008263745 0.060503706 -0.06141392
0001c0 06 4e 63 bd ac 25 70 3d 9e 6a 12 3d 19 90 e5 bd
       -0.05549433 0.058629677 0.03574621 -0.11209125
0001d0 96 24 a6 bb a0 8f 90 bd b9 c0 3b bd 24 f9 ef bb
       -0.0050702794 -0.07058644 -0.04583809 -0.007323401
0001e0 82 1d d4 bc 1a 26 49 3c 02 8a c0 bc ba cb 71 bd
       -0.025892977 0.0122771505 -0.023503307 -0.05903218
0001f0 1c 81 57 bc c6 e3 31 3c 80 eb fa 3c 6b 61 ad 3b
       -0.013153341 0.010857528 0.030629873 0.005291154
000200 5a 4b 4d bd 51 85 2f 3d 26 11 85 bc 93 29 f4 bc
       -0.05012069 0.04285175 -0.016243529 -0.02980498
000210 e0 b8 5f bd 37 18 6d bd 5a 21 42 3b ad 20 ea bc
       -0.05461967 -0.05788442 0.002962193 -0.028580034
000220 ea 6f 71 3d 39 21 7c bd 8f 53 25 3d 78 67 8f bd
       0.05894462 -0.06155512 0.04036289 -0.07002157
000230 62 07 f7 bc 0a 94 0f bd d9 15 85 bd c0 3e 25 bd
       -0.030154888 -0.03505329 -0.06498308 -0.040343046
000240 62 30 14 3c de ca d4 bc f5 f0 68 3c 79 34 ee 3b
       0.0090447385 -0.02597564 0.014217605 0.007269439
000250 0c 3c 67 bd 20 7e c9 3c 60 0b 3b 3b 54 7c 88 bc
       -0.05645375 0.024596274 0.0028540716 -0.016660847
000260 0c 9d 2c 3c 72 d4 bc bd db 14 8d bd c8 ba fd 3c
       0.01053549 -0.09220208 -0.068887435 0.030972853
000270 91 44 23 bd 66 04 cb 3c de 43 39 3d 51 a3 9b bb
       -0.039860312 0.02478237 0.04523074 -0.0047496934
000280 a8 f4 60 bd 14 54 4d 3d 9e 3d e8 bb 60 76 10 3d
       -0.054920822 0.05012901 -0.0070874235 0.03526914
000290 a9 45 4a bc a1 c9 0f 3d c8 bf dc bc 65 52 fc 3b
       -0.01234571 0.035104398 -0.026946917 0.007700252
0002a0 2d f1 ca bc b1 f7 af bd fc 56 93 bc a0 e0 d2 bc
       -0.024773205 -0.08592165 -0.017985813 -0.025741875
0002b0 7c cb fa 3c 2c 1c 6d bd 31 ce 73 3b 59 05 ec bc
       0.030614607 -0.057888195 0.0037201757 -0.028811144
0002c0 49 75 19 3c cd ea c2 bc a5 27 57 bc 43 9b ab 3c
       0.009366342 -0.023793602 -0.013132011 0.020948058
0002d0 9a 17 8c 3c 01 03 ba bc ab fd cf 3b 3f 00 ed 3c
       0.017101098 -0.02270651 0.0063473783 0.028930781
0002e0 4d d1 14 3c 6d a3 cf 39 18 64 15 3d d7 94 91 bd
       0.009083104 0.00039603878 0.03647241 -0.07108467
0002f0 a2 26 f5 3c 24 fc 21 3d ec 0a 40 bd 8c fb b3 3c
       0.029925648 0.0395471 -0.046885416 0.021970533
000300 3c 35 aa bc 8b 77 57 bc 86 e2 c1 bb be ff a2 bd
       -0.020777337 -0.01315106 -0.0059168963 -0.07958935
000310 82 52 f3 bc ee ab 57 3b a9 6d 7c bd a2 70 8a bd
       -0.029702429 0.0032908875 -0.061628018 -0.06759764
000320 2a b9 3e bd 3f 2b 84 bd eb ae 8c bd 6b e5 5e bd
       -0.046563305 -0.06453561 -0.068693005 -0.05441801
000330 b0 79 10 bc 62 df 9c bd 16 ed 3e bd cc 33 da bc
       -0.008818075 -0.076597944 -0.04661282 -0.026636027
000340 cb 3e cf bc 94 59 f2 bc 29 e2 5c bd 30 be a4 bc
       -0.025298497 -0.02958373 -0.05392662 -0.02011022
000350 be 78 0d bd 16 00 9f bc 19 7f 1d 3d 7d f5 c0 3b
       -0.034538977 -0.01940922 0.038451288 0.0058886395
000360 3c d3 64 bd 0a d9 7d 3d 21 a8 b6 bd 6e 83 b9 3c
       -0.05586551 0.061974563 -0.08918787 0.022645678
000370 a0 28 98 3c a7 bf b6 3c 6b 7b 08 3d 20 52 a7 bc
       0.018574059 0.022308184 0.033320826 -0.020424902
000380 1b 0c 3f bd f0 ec 35 3d 07 4b fb 3c a5 1e c8 3c
       -0.046642404 0.044415414 0.030675424 0.024428675
000390 b2 3c 09 bd 35 0e 2a bd 82 fc 87 bc 59 3b 3e bc
       -0.03350515 -0.041517455 -0.016599897 -0.011610829
0003a0 1a f1 54 bd df a7 d8 3c 95 38 a7 bd 74 36 82 bc
       -0.051987745 0.026447235 -0.08165089 -0.015895106
0003b0 9f c0 48 3c f9 41 c0 bc d4 45 00 3d 59 c6 f8 3c
       0.012252956 -0.023468958 0.031316593 0.030368017
0003c0 00 25 1d 3d ea 53 b6 bc 7f e7 69 3c 95 6a 7b bd
       0.038365364 -0.02225681 0.014276384 -0.06138094
0003d0 cb 40 21 bd 89 1e ec bc 06 d9 a5 bc 43 e0 7e bd
       -0.039368432 -0.028823154 -0.020245086 -0.06222559
0003e0 c2 39 cb 3a 2a 31 49 bd 3e 4f 10 3d a1 95 0c 3d
       0.0015504884 -0.049119152 0.03523182 0.034322385
0003f0 53 1a 77 bd 62 ff 56 bd 1e e2 4c 3d 43 22 9f bd
       -0.06032784 -0.052489646 0.05002033 -0.07770207

fc2.bias f4 [256]
000000 35 b4 f0 bb a9 35 95 3d d7 4d f5 bd 41 ae db bc
       -0.007345701 0.072856255 -0.119777374 -0.02681649
000010 3d de 36 bc 1f cf ef 3c 38 5e 20 bd 66 b3 e0 bd
       -0.011161384 0.029273568 -0.039152354 -0.109717175
000020 54 fd cb bd a7 bd 80 bc a7 6c b2 3c 81 53 79 bd
       -0.09960428 -0.015715433 0.021780325 -0.06087065
000030 e2 0f 5e 3d fb fd 16 bd 66 af 76 3e 4f 7c cf 3d
       0.054214366 -0.03686331 0.24090347 0.10131132
000040 cf cb 0c 3e ec b9 61 bd be fb 9d 3d 73 31 b2 bd
       0.13749622 -0.05510895 0.07714032 -0.08700838
000050 34 ef 7c 3e 5e 46 fe bd 34 3e c7 bc 09 5a 7f 3e
       0.24700624 -0.12415765 -0.024321653 0.2493669
000060 6c 12 53 3e 7d c2 c7 3d 86 61 3f 3e f6 e3 92 3d
       0.20612496 0.097538926 0.18689546 0.07172386
000070 5f 60 e3 3c 56 8f 8f bd 9e 1e 8d bd b6 0b d9 bc
       0.027755914 -0.07009761 -0.068906054 -0.026494842
000080 ff c4 de bc c6 e6 b6 bd 93 d4 bf 3d bf 5e b8 3b
       -0.027193544 -0.08930735 0.09366717 0.005626529
000090 ee 79 89 3c 79 a5 23 3e 7e 25 96 3d d7 e0 dd 3c
       0.016781773 0.15981092 0.0733137 0.027084751
0000a0 01 46 10 3e 1e 2b 3a 3e e7 4f fe 3d bd 27 ef bc
       0.14089204 0.1818051 0.12417584 -0.029193753
0000b0 24 75 63 3e d8 e0 43 bc 7a ef 17 3e 43 ef e2 3d
       0.22212654 -0.011955462 0.14837447 0.11080792
0000c0 b6 33 4c 3e 80 ec 01 be d8 15 af bd 2c ff fc 3c
       0.19941601 -0.12687874 -0.08549088 0.030883394
0000d0 27 95 f6 3d f5 a8 26 3d d5 54 bc bd 66 28 55 bd
       0.12040167 0.040688474 -0.09195868 -0.05204048
0000e0 7f a2 e2 bc a9 ca 29 be db c5 b1 bd 6d 2f c2 bd
       -0.027665375 -0.16581215 -0.08680316 -0.09481702
0000f0 61 8f ae bb ef 1f a6 bd e3 8c 5b bd 51 48 db bd
       -0.0053271507 -0.081115596 -0.053601157 -0.10707153
000100 1b f3 5f bd b7 81 73 3e a4 c5 f0 bd 43 a2 34 3e
       -0.054675203 0.23779951 -0.11756447 0.17640023
000110 d9 70 26 3e 7b 51 90 bd 1f 0a 12 3d 0a ad fd bc
       0.16253985 -0.07046791 0.035654183 -0.0309663
000120 2e 5c e2 bc d3 33 df 3d 18 f8 79 bd ce 2e b6 bd
       -0.027631845 0.108985566 -0.061027616 -0.08895646
000130 20 72 41 3c c2 54 ba bd 4f 8f 4e bd 4b 19 05 bd
       0.011806995 -0.090981975 -0.05042964 -0.032494824
000140 c2 58 6c bc 79 24 21 3b 48 92 e9 3d e9 5b 65 3d
       -0.014425458 0.002458839 0.11404854 0.055995855
000150 aa 30 dd 3c 0f 09 a2 bd 8b bf d4 3c ff 8c dc 3a
       0.027000744 -0.07911884 0.025970241 0.0016826688
000160 e3 bb 33 bd c9 c0 66 bd de 9a f8 3d 13 c9 33 bd
       -0.043880355 -0.056336198 0.121389136 -0.04389293
000170 c5 bf 8e bb 08 9d a9 bd d0 89 a8 3c e4 13 45 3c
       -0.004356357 -0.082819045 0.020573527 0.012028668
000180 93 03 10 3c 0a 6a 80 3d 78 03 7e 3b 32 59 81 bd
       0.008789915 0.06270225 0.0038759392 -0.06315841
000190 5b 40 20 bd bd 08 b7 bd e6 b1 e8 bd ba 4f 3b bb
       -0.039123874 -0.089372136 -0.113620564 -0.0028581456
0001a0 e0 00 d4 3d 2e a7 b3 3d 05 ab 77 bd 63 6e fb 3d
       0.103517294 0.08772121 -0.06046583 0.12276914
0001b0 f0 57 42 3e d1 3f 91 3c 49 cf 2d be c4 1f 35 3e
       0.18978858 0.017730625 -0.16973604 0.17687899
0001c0 05 72 1d bd e4 be 42 bd 2c fc 73 bd ea a7 5d 3c
       -0.038438816 -0.04754533 -0.05956666 0.013528803
0001d0 6d a9 b2 3c 29 4d e5 3c cc 2c 31 3e e9 54 ec bd
       0.021809304 0.027990894 0.17302245 -0.11539633
0001e0 3c 0c 55 3c 3b af 2c bd 64 fc dd bc 4b 02 fc bc
       0.013003405 -0.0421593 -0.027097888 -0.030762812
0001f0 b6 42 9e 3d 58 aa 10 3d 82 2f c7 bc 18 97 58 3d
       0.07727568 0.035318702 -0.024314646 0.05287847
000200 1f a6 01 be c7 46 bb bd d2 e3 a3 ba 84 0d 65 3e
       -0.12661026 -0.09144359 -0.0012503809 0.22368437
000210 50 03 87 bd b7 e4 94 3d 8b 92 f9 3c 92 dd b8 ba
       -0.06592429 0.072701864 0.030465385 -0.0014104119
000220 c6 7a 0d 3e 8c ee 76 3e b5 3d ce 3d 2f fa 90 bd
       0.13816366 0.24114436 0.100703634 -0.07078969
000230 49 b7 38 bd 2d b9 39 bd 80 b2 a8 3c 75 5c 9b bd
       -0.04509667 -0.045342613 0.020592928 -0.07585994
000240 3f 7b d0 bc 69 d6 b3 bc 44 c4 bb 3d 3d 05 a9 ba
       -0.025449393 -0.021952825 0.09168294 -0.0012895238
000250 c4 54 85 bd ff 60 63 3e 3f bf fb bc 32 30 fd 3d
       -0.065103084 0.2220497 -0.030730842 0.12362708
000260 ce 5b 97 bd ed 49 2f 3c 94 7d 4d 3e 14 5c b4 3b
       -0.07390557 0.010698778 0.20067436 0.0055041406
000270 07 fd 31 3d 75 cc 21 3c 00 42 35 3d e4 de 52 bd
       0.043454196 0.0098754065 0.044252396 -0.051482096
000280 84 c7 1c bd 92 49 d3 3d 3a 48 b9 bd 58 17 49 bd
       -0.03827621 0.10316767 -0.09046979 -0.049094528
000290 a0 13 5b 3e 9d 8d a7 bc 17 ce 21 3c 6a e4 62 bd
       0.21394205 -0.020453269 0.009875796 -0.055393614
0002a0 24 6f cd 3c d7 d8 12 bd 97 f7 48 bd 58 fe 1b 3b
       0.02507741 -0.035851326 -0.049064245 0.0023802724
0002b0 9e 8f c2 bd d1 bf 47 3e 50 0a 00 3d a3 f6 b5 3d
       -0.09500049 0.19506766 0.031259835 0.08884933
0002c0 8f 57 e4 3d 0f 83 82 bd e5 86 f7 3d 45 41 82 3d
       0.11149513 -0.06372654 0.12086276 0.063601054
0002d0 85 d5 02 3c 6f 62 17 bd 95 2a a0 bd 7d 30 36 3e
       0.007985477 -0.036959108 -0.07820622 0.17791934
0002e0 aa 5e 5d bd fa da a8 bd 69 0d 75 3e 5b b6 b1 b8
       -0.054045357 -0.082448915 0.23930897 -8.473984e-05
0002f0 f2 2a 8b bc 7d 8c f4 bd 4c d4 cf bb a5 97 94 bc
       -0.016988251 -0.119408585 -0.0063424464 -0.018138716
000300 11 39 95 39 18 81 69 3e 27 4f 59 bd 79 c8 f0 bb
       0.00028462012 0.22803152 -0.053054 -0.007348117
000310 be ea 35 3e ec 48 37 bc bd 1e b8 bd 9b e1 45 bd
       0.17765328 -0.0111868195 -0.08990238 -0.048310857
000320 9f ff d9 bd 14 74 84 3e 0b b6 f5 bc 43 74 5d bd
       -0.10644459 0.2586981 -0.029994031 -0.054065954
000330 16 a5 25 bc 9a 5f a0 bd ba 70 0a 3d 3d 20 e9 3d
       -0.01011016 -0.078307346 0.03379891 0.11383102
000340 24 c9 37 3e ac 1a 60 bd ec 7c 42 bd 21 07 aa 3c
       0.17947823 -0.054712936 -0.047482416 0.020755352
000350 b4 3c 1a 3e a8 43 50 bd 8c af ab bc 86 5a 7d bc
       0.15062219 -0.050845772 -0.02095773 -0.015463477
000360 05 81 72 bd 03 47 ad bc e1 2a 4e bd 47 b6 58 3e
       -0.059205074 -0.021152025 -0.05033386 0.21163283
000370 ae a5 00 bc a4 1b 13 be e0 44 a2 bc e2 49 61 bd
       -0.007852001 -0.14366013 -0.019808233 -0.0550021
000380 5f fc d9 3c 59 ae 3f 3c 45 8b 14 be b0 e1 0e 3e
       0.026609598 0.011699283 -0.14506252 0.1395328
000390 97 a3 3d 3e 7a 5a 6d 3c 1e f7 e0 3c e0 3e 9c 3e
       0.18519436 0.014486903 0.027461585 0.3051672
0003a0 42 bd a5 3d f7 68 3e bd 6a 60 bc bd ce 2b f8 3a
       0.08092739 -0.04648682 -0.09198077 0.0018933953
0003b0 13 c3 a3 3c d4 08 bc 3c e6 6a 92 3d 63 23 a5 3d
       0.01999048 0.022953428 0.071492955 0.0806339
0003c0 2f 14 9b 3d c5 ff 0b be 51 ea b0 3c e9 f8 84 bd
       0.07572209 -0.13671787 0.021596106 -0.06492788
0003d0 c9 da 04 3e 4f d3 08 3e 26 a4 01 bd 05 0c a7 bd
       0.12974085 0.13361858 -0.031650685 -0.081565894
0003e0 7f 41 ba bd a0 5b 53 3d d1 e5 01 bd d2 b1 43 3e
       -0.09094524 0.051601052 -0.03171331 0.19110802
0003f0 4a 68 7b bd e0 89 1b bd 92 aa 95 3a ce d1 83 bd
       -0.061378755 -0.037973285 0.0011418632 -0.064365014

fc3.weight f4 [5, 256]
000000 60 33 33 bd 55 f8 9b 3d ac 8e ec bc c1 81 a3 3c
       -0.043750167 0.07615725 -0.028876625 0.019959332
000010 b0 1a 96 bc 4f 3e c2 3e 8f bc 2e 3d 10 ca 51 bd
       -0.018323272 0.37938163 0.042660292 -0.051218092
000020 ba 69 fc 3e b0 0f 45 3d 5d fc 07 3d d0 f6 33 ba
       0.49299413 0.048110664 0.033199657 -0.0006865086
000030 b8 ca bd 3e f2 ce 90 be f9 e5 69 3e ce c2 21 3e
       0.37068725 -0.28282887 0.22841634 0.15796968
000040 0c 5a 04 3f 8a cc 9c 3e 59 55 38 3e e4 d1 06 be
       0.516999 0.306248 0.18001308 -0.13166004
000050 0b 0c 1c 3f 71 3d 8b bc cd 17 40 3b 05 6f f7 3e
       0.60955876 -0.016997071 0.0029311061 0.4832689
000060 cf af 61 3e 67 0f 8a 3e f2 ff 24 3f 34 d2 66 3e
       0.22039722 0.26964876 0.6445304 0.22541124
000070 26 2a ba bc 97 8c 89 be c8 d9 69 bc 4b 8f 93 bd
       -0.022725176 -0.26865074 -0.0142731145 -0.07205065
000080 9b 12 9c bd 65 62 ff bc 08 a6 28 3e 24 9c 37 3f
       -0.07620736 -0.031174848 0.16469586 0.71722627
000090 85 3f 59 ba ef ff 38 3e 6d e8 90 3e 45 f8 2b 3d
       -0.0008287358 0.18066381 0.28302327 0.041984815
0000a0 34 fe 5f 3e d0 c9 25 3e 98 25 91 3e 95 5e 07 3d
       0.21874315 0.16190267 0.28348994 0.033049185
0000b0 6a d0 43 3e 7a c8 1c be 8f 57 bf 3f 4a 99 3b 3f
       0.19122472 -0.1531085 1.4948596 0.73280776
0000c0 97 ad 24 3e d6 4b 94 be a5 9f 44 3b 2d d7 3e 3d
       0.16081844 -0.28964108 0.0030002382 0.046591926
0000d0 83 d2 b4 3e f8 70 10 3f 29 ab a2 3e 15 a3 34 3c
       0.35316858 0.56422377 0.3177121 0.01102521
0000e0 73 ee 20 3e 11 23 ec bd d1 da f9 3c 62 e1 d4 3d
       0.15715961 -0.11530126 0.030499848 0.10394551
0000f0 8d 6e c9 b9 61 e8 28 be 30 07 cb 3d 1d 41 be ba
       -0.00038420074 -0.16494896 0.0991348 -0.0014515255
000100 bf b0 de bc 3b 39 d4 3e f8 03 2e 3d 9d 09 0b 3e
       -0.027183888 0.41449913 0.042484254 0.13577886
000110 09 ef 0e 3f e6 c8 26 3c b8 82 38 bc 4e 2d 36 be
       0.5583349 0.010179734 -0.0112616345 -0.1779072
000120 13 2a bc b9 0e 6f 94 3e 18 13 67 3e ab 62 b8 bd
       -0.00035889502 0.28990978 0.22565877 -0.090031944
000130 e2 79 15 3f 1d 32 ce 3b 01 36 48 3e b5 a1 f1 bb
       0.58389103 0.006292595 0.19551851 -0.0073740133
000140 ab 0d 10 3e 1e 8a 11 3d e7 b9 fe 3f 21 83 d9 3d
       0.14067714 0.03553211 1.9900483 0.10620714
000150 e6 16 6e 3e 49 d7 c0 3d ee f3 8b 3d 96 99 59 3c
       0.23250923 0.094160624 0.06833635 0.013281247
000160 a0 33 e1 3d 17 32 13 be 6a 05 bf 3f ba 1c 9f bd
       0.10996175 -0.14374577 1.4923527 -0.07769151
000170 75 71 56 3c 44 e9 85 be d8 fd 15 3d 03 83 36 be
       0.013088574 -0.2615453 0.036619037 -0.17823415
000180 05 54 c7 3c 75 06 8d 3e 42 3d 33 3d fa 9a c8 bb
       0.024332056 0.2754399 0.043759592 -0.0061219903
000190 ef a3 85 bd a9 9a 6c 3d 97 b2 e6 3d 43 ca 25 3c
       -0.065254085 0.057764683 0.11264532 0.010119024
0001a0 74 a0 9a 3e 6f dc 1d 3f d2 ed 2b bd a6 f6 18 3e
       0.3020054 0.6166448 -0.04197485 0.14937839
0001b0 dc cd 43 3e eb 69 00 3d c0 ed d4 bd 67 1c 32 3e
       0.19121498 0.03135101 -0.1039691 0.17393647
0001c0 c8 e9 0f be 9c d5 1f 3e 24 b4 80 3c 4e e1 22 3f
       -0.14054024 0.1560883 0.015710898 0.6362504
0001d0 13 fb 08 3d 6c 26 8d bb b4 78 d3 3e e7 2c 84 bd
       0.033442568 -0.0043075588 0.41303027 -0.06453877
0001e0 b5 9c 1d 3c 31 6e c8 3d 6c bd 00 be 7c 8f 8e 3e
       0.009619881 0.09786642 -0.12572259 0.27843845
0001f0 ca e7 32 3c 11 cb 76 bc b6 7e 39 bb 2c b7 9b 3e
       0.010919521 -0.015063063 -0.0028304285 0.30413187
000200 c1 38 15 be ac 14 c7 3b 1d 52 1a 3e bd b8 84 3f
       -0.14572431 0.0060754623 0.15070386 1.0368878
000210 c5 bf 80 bd 34 47 dc ba 3b a7 58 be c4 f7 74 3b
       -0.06286577 -0.0016805888 -0.21157543 0.0037379125
000220 0c 6d 89 3e d4 9f 99 3e 70 0a b9 3e 31 f7 b5 bd
       0.2684101 0.30004752 0.36140776 -0.08885039
000230 73 a6 21 3c e5 10 d1 ba ff bc 1f bd 6e b5 27 bc
       0.009866345 -0.001595047 -0.0389986 -0.010236127
000240 bc e9 a9 3e a9 2a e8 3d 78 6a 18 bc e8 8a 26 ba
       0.33186138 0.11336262 -0.009302728 -0.0006353096
000250 56 5f 67 3d b9 f8 60 3f cb c6 59 bc f6 37 e0 3e
       0.056487404 0.8787952 -0.013292025 0.43792695
000260 78 d5 87 3d c5 c5 93 3c 62 29 1e 3f a6 72 3b bc
       0.06632513 0.01803864 0.61781895 -0.011440909
000270 10 6d bc bd 97 5a 22 3e 79 0d 02 3e ed 90 a6 bd
       -0.092004895 0.1585487 0.12700452 -0.08133111
000280 ae 2c cc bb d2 96 54 3e 88 b7 a3 bd 37 43 6a bd
       -0.006230912 0.20760658 -0.0799399 -0.057193007
000290 03 0c 05 3f 3e fc c3 ba d2 ba 44 3e 85 18 be 3a
       0.51971453 -0.0014952493 0.19211891 0.0014503157
0002a0 bc e7 51 3c 40 ee 14 3d a1 e0 21 3c 10 2f 96 3d
       0.012811597 0.036360025 0.009880216 0.07333195
0002b0 63 7f 0b be fc 2c 51 3e 17 ac e8 3b c2 3b e1 3e
       -0.13622813 0.20427316 0.007100593 0.43990904
0002c0 08 12 24 3e d9 4f a8 bd 48 a2 b0 3e 76 67 3d 3e
       0.16022503 -0.08218355 0.3449881 0.18496498
0002d0 65 74 56 3c c3 28 d2 3b c3 f1 64 bd b1 e2 82 3e
       0.013089274 0.0064135506 -0.055894624 0.25563577
0002e0 ee f0 e9 3c bf cc 30 3c 61 4b e4 3d f7 3e 94 be
       0.028557267 0.010791003 0.1114719 -0.28954288
0002f0 9b c4 9a 3e a1 b7 7f bd 02 bb 03 bc 13 b3 8a 3b
       0.30228123 -0.06243098 -0.008040192 0.004232773
000300 62 b1 6c 3e e0 18 37 3e 04 8e 51 bd 6d 1c 9c bc
       0.23114541 0.17880583 -0.051160827 -0.019056523
000310 7d 25 ab 3e 00 dc 5e bd 05 8b fe 3c 16 15 f5 bd
       0.3342704 -0.054409027 0.031072149 -0.119669124
000320 67 bc d8 3d 1d f7 3a 3e 05 a3 57 3d b7 f9 29 3b
       0.1058281 0.18258329 0.052645702 0.0025936195
000330 b0 6c a2 3e 0c 64 98 bc f0 b3 1f 3d f6 7b 42 3e
       0.31723547 -0.018602394 0.03898996 0.189926
000340 05 95 18 3f 1b 8e 3e 3d 6c 49 d7 bb 34 db 6b 3d
       0.59602386 0.04652224 -0.006570032 0.057582095
000350 70 3a ad 3e b4 2a c0 3c c3 76 1c be 00 ea 68 3e
       0.33833647 0.023457862 -0.15279679 0.22745514
000360 ec 2a 93 bb 59 3f 5d 3b 82 00 8d 3e 7d 21 fd 3e
       -0.0044912007 0.0033759682 0.2753945 0.49439612
000370 2c af b4 bc 39 78 25 3e 04 cd 1e 3b 59 9e e8 3a
       -0.022056185 0.16159143 0.0024231086 0.0017747387
000380 ed 3c 8c 3e b7 e1 91 bc bc ac 7b be cb e9 2f 3e
       0.27390233 -0.017807825 -0.24577612 0.17179029
000390 6e 4d ca 3e e8 f7 c6 3c 71 77 fb 3e 50 03 87 3e
       0.395122 0.024288133 0.49114564 0.26369715
0003a0 e8 4a 31 3e 40 31 11 bd 34 d1 19 bd 53 f4 02 3e
       0.1731373 -0.03544736 -0.037553027 0.12788515
0003b0 1a 75 b7 bb 75 8c cd 3e 6b 5c 86 3e 61 16 49 3f
       -0.0055986764 0.40146223 0.26242384 0.7854977
0003c0 82 47 6f 3f ba 52 52 be 8e 43 1e bd 41 5f 03 3d
       0.9346849 -0.2053937 -0.038638644 0.032073263
0003d0 ce 7e d7 3f dc 34 06 3f 21 21 b6 3c 53 f0 33 3c
       1.6835573 0.52424407 0.022232594 0.010982591
0003e0 c9 00 c9 3a d9 e8 33 3f 8d 95 00 be 5d e5 6f 3e
       0.0015335317 0.7027717 -0.12557049 0.23427339
0003f0 7b 7e 7e 3e 73 d9 aa 3e 52 ce 09 3e 19 a6 89 3a
       0.24852936 0.33369026 0.13457611 0.0010501771

fc3.bias f4 [5]
000000 bc 81 3b 3e aa 1f 86 bc 14 4d 9d bb ae f4 70 3c
       0.18311208 -0.01637252 -0.004800448 0.014706774
000010 03 b2 0f 3d
       0.035081875
