Model/DQN/[S1][semiconv_ego]net_Q(all).pt (torch, 912794 bytes, 18 tensors)

weight f4 [256, 31]
000000 28 b1 b0 bf 08 a7 15 3f 09 dd 14 be 84 77 80 3e
       -1.3804064 0.58457994 -0.14537443 0.25091183
000010 38 7e 56 3e e6 3b 54 3f d7 32 b4 3f b4 69 32 3f
       0.20946586 0.829039 1.4078015 0.6969254
000020 e3 5e 6c be a7 e2 7c be e3 42 70 3f 78 23 ef 3d
       -0.23083071 -0.24695836 0.9385206 0.11676687
000030 b6 4c 34 3f 97 24 b3 bf a5 ac 9e bf 43 be bf 3d
       0.7042955 -1.3995541 -1.2396437 0.093624614
000040 1a 4b 09 c0 20 31 46 c0 16 7d e4 bf 9e 0b f1 bf
       -2.1452088 -3.0967484 -1.7850673 -1.883167
000050 dd f2 e3 bf fc f7 76 bf 47 98 6d 3f e2 04 33 3f
       -1.7808491 -0.96472144 0.9281048 0.69929326
000060 a4 4d 91 3f 22 cf 70 c0 af 22 f2 c0 30 91 bb c0
       1.1351819 -3.7626424 -7.566734 -5.861473
000070 f9 68 cc c0 3a 7a dc c0 f6 3a ae c0 54 62 8b 3e
       -6.387814 -6.88992 -5.4446974 0.27223456
000080 c2 b0 1d be 74 5d e6 3a 77 81 32 bf 88 b5 2c bf
       -0.15399459 0.0017575459 -0.697288 -0.67464495
000090 e4 1c b4 b9 67 bf 33 be 23 8c 4b bf 8a b8 75 bf
       -0.000343538 -0.17553483 -0.79510707 -0.9598471
0000a0 5a a5 85 3c dc e7 a3 be b8 06 a9 be 47 e5 6f bf
       0.016314197 -0.32012832 -0.33012938 -0.93709224
0000b0 ef ae 9a bf 82 65 18 bf 1b 78 94 bf fc 33 db 3e
       -1.2084635 -0.5952989 -1.1599153 0.42813098
0000c0 ab 00 90 3e d9 55 34 bf 58 fa a0 bd 9f f6 85 c0
       0.2812551 -0.70443493 -0.07860249 -4.186355
0000d0 bb 1d 92 bf f5 70 ac bf be 4d e8 bf 6b 90 e9 be
       -1.1415323 -1.3471972 -1.8148725 -0.45617995
0000e0 70 b0 49 bf d1 ce 88 be 11 1c 3c be ff 59 59 bf
       -0.7878485 -0.26720288 -0.18370081 -0.8490295
0000f0 78 4e 1c 3e 71 91 66 be 4d 6a b2 be c2 e8 68 3f
       0.15264308 -0.22516419 -0.34846726 0.9098016
000100 01 60 d7 3f d1 a3 83 3f e2 18 64 3f ee 9b 36 3f
       1.6826173 1.0284368 0.8910047 0.7133168
000110 04 29 cd bf 22 0d 3a 3d 77 63 52 bf b0 ce 5e bf
       -1.6028142 0.04542268 -0.8218302 -0.8703413
000120 11 d6 48 3e d4 4e 1f c0 a6 36 c1 3f da 65 e2 bf
       0.1961291 -2.4891863 1.5094802 -1.7687333
000130 89 bd 24 bf 56 53 92 3e 38 87 34 c0 ec fa 77 3d
       -0.6435171 0.28579205 -2.820753 0.060542032
000140 e1 40 31 c0 78 03 a7 bf 70 6c b4 bf 6c e1 1e 3f
       -2.769585 -1.3047934 -1.4095592 0.62062716
000150 65 13 e0 3f 66 39 92 3f 92 bb 50 bf 49 54 5e c0
       1.7505919 1.1423767 -0.8153621 -3.4738944
000160 04 9d d5 3d 74 d5 ac 40 82 a5 99 c0 4c 4b 11 bf
       0.10430339 5.4010563 -4.8014536 -0.5675552
000170 8d 24 1e 3f 25 e4 bd be d2 63 c5 be f9 25 02 c0
       0.6177452 -0.37088123 -0.3855272 -2.0335677
000180 52 7e a4 bf 11 f4 e4 3f bf 43 f6 c0 ef 06 fe bf
       -1.285105 1.7886983 -7.69577 -1.9845866
000190 67 2e 35 3e 27 a5 b7 3e 41 e7 05 3f 68 6d a7 c0
       0.17693482 0.3586819 0.5230599 -5.2321053
0001a0 21 28 eb be ac dd 7c bf ba 3e d0 be 7e 3a a0 bd
       -0.45929053 -0.98775744 -0.40672857 -0.078236565
0001b0 58 69 0c c0 6e a9 2a 3f 1e 0f a0 3e b7 60 08 3f
       -2.1939297 0.6666478 0.31261533 0.53272575
0001c0 fd 22 aa 3f 82 54 90 3e 52 bf 12 3f a9 89 d5 3e
       1.3291928 0.28189474 0.5732318 0.4170659
0001d0 76 eb 29 bf b6 d4 10 bf fb dd 70 c0 42 60 48 c0
       -0.6637491 -0.5657457 -3.7635486 -3.130875
0001e0 7d 69 df 3f e9 10 69 c0 c5 aa 22 c0 6b 0d 18 bf
       1.7454067 -3.641657 -2.541673 -0.59395474
0001f0 97 f2 5c c0 16 26 09 c0 f1 88 3a c0 8f b6 23 c0
       -3.4523065 -2.1429496 -2.9146082 -2.5580175
000200 7a 66 d5 c0 6c ab 0a c1 05 80 9c c1 19 f5 38 c1
       -6.6687593 -8.666851 -19.56251 -11.559838
000210 f9 c5 56 bf 2e 65 65 c1 af 75 56 3d 7b 16 e6 bf
       -0.8389583 -14.337202 0.052358326 -1.797561
000220 0c 2e 1a 3f 12 00 0e 3e 39 f0 2b 3f 2b db 38 3f
       0.6022651 0.13867214 0.67163426 0.72209424
000230 75 82 ad bf 3a f5 80 bf 12 15 cd bf bf 3d 94 be
       -1.3555437 -1.0074837 -1.6022055 -0.2895336
000240 6b 0f ac 3f 07 73 9d be 40 f2 45 bf ed ed 79 3f
       1.3442205 -0.3075182 -0.7732277 0.9762867
000250 f7 fd 19 c0 78 0f 79 bf 6f 3b 1c c0 85 46 0f bc
       -2.4061258 -0.9728923 -2.4411275 -0.0087448405
000260 61 06 02 c0 ee 4f 2e c0 9e 2a 15 c0 d0 d2 37 c0
       -2.0316393 -2.7236285 -2.3307261 -2.872242
000270 6c 54 8d c0 fe 0a 0b c0 3d 16 a5 bd 2b bf 37 c0
       -4.4165554 -2.172546 -0.08060882 -2.871043
000280 bc ad 76 c0 e4 c8 95 bf 8c 67 1f c0 ee 9b 00 3f
       -3.854354 -1.1701932 -2.490695 0.5023793
000290 20 33 24 c1 37 7e 0b c1 e9 0e 39 c0 ac fe ad c0
       -10.262482 -8.718314 -2.891535 -5.437338
0002a0 e7 0e 42 c0 47 c6 ae 3e c5 90 cf bf 23 2b 9c 3e
       -3.0321596 0.3413565 -1.6216055 0.3050166
0002b0 d9 51 c3 bf cc e0 39 c0 26 85 be bf 82 18 e4 c0
       -1.5259353 -2.9043455 -1.4884384 -7.1279917
0002c0 c5 16 8d c0 50 c7 c8 bf 96 a9 cc bf f6 8b 98 c0
       -4.4090295 -1.5685825 -1.5989254 -4.767085
0002d0 62 ce be be a6 a0 ff bf 76 c7 53 c0 d5 0a 64 c0
       -0.37266833 -1.9970901 -3.3090491 -3.5631611
0002e0 3c 2b 39 c0 64 08 7b bf ba 5d 01 bf ac 73 e5 bf
       -2.8932638 -0.9805968 -0.5053364 -1.7925925
0002f0 ce 61 bf 3e 6a a4 c5 bf 07 8c e9 bd 93 ab 8e c0
       0.37379307 -1.54408 -0.11403661 -4.458444
000300 ea 4f 8a c0 de ad 47 bf fb 59 4c bf cf 57 02 3f
       -4.322255 -0.77999675 -0.798248 0.50915235
000310 6d b2 8d 3f e2 87 80 3f 33 86 91 3f e7 f0 86 3f
       1.1070076 1.0041468 1.1369079 1.0542268
000320 30 64 be bf 72 0f e3 be 62 32 95 bf 72 7f 10 be
       -1.4874325 -0.4434772 -1.1656001 -0.14111117
000330 a7 6f 8b bf da 50 a5 bf b2 f6 5f bd 5f 2b 3e bf
       -1.0893449 -1.2915299 -0.054678626 -0.7428493
000340 9a 28 ca be d4 33 20 be 71 ee 04 c0 27 57 2d c0
       -0.39484102 -0.15644771 -2.0770533 -2.7084444
000350 38 4b ad c0 7c 46 13 c0 40 ff 32 c0 a2 38 0b c0
       -5.415432 -2.301177 -2.7968292 -2.1753316
000360 ae 2f 82 c0 be f4 df 3f 13 e3 85 3f 11 b7 45 3f
       -4.0683203 1.7496564 1.0459923 0.7723246
000370 9b 73 65 3e 03 bf 1a bf 00 b0 ac 3f 08 2e 6a 3f
       0.22407381 -0.6044771 1.3491211 0.9147649
000380 4f 21 c5 be 03 27 da bf 08 dc 90 bf 7b 9b a5 be
       -0.38501975 -1.7043155 -1.1317148 -0.32345185
000390 0f 58 44 bf bd 6d 0b c0 9f fc fb bf 03 bf 49 be
       -0.76696867 -2.178573 -1.9686469 -0.19701771
0003a0 c1 e8 1d bf aa 0a 9d bf 3e 67 f4 be 3d 11 64 c0
       -0.6168328 -1.226888 -0.47735018 -3.5635521
0003b0 0e f7 0f c0 ad f2 2f 3f 61 2b 38 c0 9f 44 58 c0
       -2.249454 0.6872967 -2.8776476 -3.3791883
0003c0 86 42 92 c0 6a 08 8d c0 ed b1 f6 3f 80 39 1b 40
       -4.5706205 -4.407277 1.9273049 2.4253845
0003d0 04 74 c0 bf 9c c1 89 40 de 63 9f be cc 27 63 3f
       -1.5035405 4.304884 -0.3113088 0.887326
0003e0 a0 26 14 c0 61 dc a4 bf 9f d4 2f bf af f5 eb be
       -2.3148575 -1.2879754 -0.6868381 -0.4608588
0003f0 d2 4b 2d 3f 66 4c de bf 98 22 26 3f e3 4b 2e bf
       0.6769382 -1.7367065 0.64896536 -0.68084544

bias f4 [256]
000000 45 9e ec 3d 98 38 f4 be b9 d2 a6 3f 8c ff 8b 3f
       0.11553625 -0.47699428 1.3033057 1.0937362
000010 a2 bf 99 3f 81 47 79 3f 06 32 3e 3e 6a a5 8b be
       1.2011607 0.9737473 0.1857377 -0.27274638
000020 f1 dd 94 be 39 33 28 c0 0c 05 4d 3f 39 4c cb bf
       -0.29075578 -2.6281264 0.80085826 -1.5882636
000030 7b de c9 3f 3c 5b a8 3e ba c6 48 bf d0 85 33 3f
       1.5771021 0.32882106 -0.7842823 0.70126057
000040 78 a8 b1 3f 70 70 87 3f 1e b0 45 3e 36 57 c1 3f
       1.3879538 1.0581188 0.19305465 1.510474
000050 b5 84 af 3f 02 66 12 be ad dd 19 be 1b 12 13 3e
       1.3712374 -0.14296725 -0.15025969 0.14362375
000060 41 98 f9 3f fc 14 04 3f ae 6c db 3e cc a9 93 bf
       1.9499589 0.5159452 0.42856354 -1.1536193
000070 d1 35 48 bf f4 51 f2 3f 7f a0 ec 3f f5 45 48 3f
       -0.7820712 1.893126 1.848648 0.78231746
000080 cf d1 86 be 32 ea 35 3f f3 5a 87 3f 8e e7 d3 3f
       -0.26331946 0.7106048 1.057463 1.655504
000090 59 ce c8 3f 51 bd 9a 3f d1 08 98 3f e3 81 9e 3f
       1.5687972 1.2089025 1.187769 1.2383388
0000a0 bf b6 24 bf f4 4e 0f c0 36 90 02 be 9f 68 f4 3f
       -0.6434135 -2.239194 -0.12750325 1.9094428
0000b0 84 8c 48 be 31 6c 7a 3f 04 e2 2f 3f 7a 9c b6 be
       -0.19584852 0.97821337 0.6870425 -0.35666257
0000c0 4f 4c 94 bd 10 e7 15 3f 2f ff e3 3f ae 78 9b 3e
       -0.07241117 0.585557 1.7812251 0.3036551
0000d0 3b 65 01 bd fa d2 97 3f e8 7d e1 3f 86 5b 0f 40
       -0.03159068 1.186126 1.7616549 2.2399611
0000e0 70 4f 91 3f 94 70 29 bf 5d f0 48 3e a1 95 19 bf
       1.1352367 -0.66187406 0.19622941 -0.5999394
0000f0 91 cf 37 3f d1 a1 c7 be ea ba 79 3f 46 82 22 bf
       0.71801096 -0.38990644 0.97550833 -0.6348003
000100 63 5e fa be 8c f7 b7 be bc d1 2b bf 8b 64 d3 3d
       -0.48900136 -0.3593105 -0.67116904 0.103219114
000110 0d b1 e0 3f 25 be d7 bd f8 a9 c1 bf 5c 8f 53 3e
       1.7554032 -0.10534314 -1.5129995 0.20660156
000120 46 dc 85 3f 5f 17 22 bf 8d 2a 6e 3f d4 9d e9 3f
       1.0457847 -0.6331691 0.9303368 1.825129
000130 d5 2b e8 bf f8 23 7c bf 84 c5 13 3f 45 67 d0 be
       -1.8138376 -0.98492384 0.5772326 -0.40703788
000140 d0 07 96 bd 33 1d 22 bf 66 40 40 3e bb f4 8a 3f
       -0.07325709 -0.63325804 0.18774566 1.0855936
000150 3f 9d b6 3f 17 8a 7b 3e c6 3e 43 3f 30 7a 06 3f
       1.4266738 0.24564396 0.7626766 0.52530193
000160 c4 df 82 3f d3 1e 55 3f 18 f9 62 bf 04 fc 05 bb
       1.0224538 0.8325016 -0.88661337 -0.0020444402
000170 3a 0f 41 be 87 06 44 3f 61 87 ca bf 4a 01 54 3f
       -0.18853465 0.7657246 -1.5822564 0.82814467
000180 1a 40 26 bf 0c 1f 70 3f d0 40 f4 be 92 b0 5a 40
       -0.6494156 0.93797374 -0.47705698 3.417027
000190 6c 15 74 be eb b8 48 3e b9 8e 76 bf f5 a8 02 bf
       -0.23836297 0.1960179 -0.9631153 -0.5103906
0001a0 b2 a9 94 3e 38 63 4c bf 0c 09 27 3f 0a 76 9d bf
       0.29035717 -0.79838896 0.6524818 -1.2301648
0001b0 96 1e 34 bb f5 55 9c bf 7b a5 31 bf 56 b4 ac bd
       -0.002748405 -1.2213732 -0.6939313 -0.08432834
0001c0 8a 0c 1b bf d3 74 92 bd 24 97 83 3e 63 6b bd bf
       -0.6056601 -0.07151189 0.2570125 -1.4798397
0001d0 cb 71 4b 3f 1a 84 b0 3f 7f 42 6a c0 e9 c6 97 3f
       0.7947051 1.3790314 -3.6603086 1.1857578
0001e0 c7 8a dd 3e 72 84 ae 3f 6c 6d e2 3e c1 8f e3 bc
       0.4326994 1.3634169 0.44224107 -0.027778508
0001f0 a0 5c 74 3f f9 03 7c 3f 9c 7c ef 3d e3 42 17 be
       0.95453835 0.9844356 0.11693689 -0.14771609
000200 c7 83 bb 3e 36 a4 a1 3f 45 ac da 3e 68 e8 8a 3f
       0.36623976 1.2628238 0.42709556 1.0852175
000210 14 1a cc 3d 1f 12 05 bf 49 d9 bd be f6 08 ff 3e
       0.099659115 -0.51980776 -0.37079838 0.49811524
000220 82 2e c2 bb aa c2 d6 3f 7c a2 e0 bf 7c da 89 bf
       -0.0059259543 1.6778157 -1.7549586 -1.0769801
000230 5f ef 84 3f 52 8c 67 be 58 8f fc 3e 3c 33 2b 3e
       1.038555 -0.22612122 0.49328113 0.16718763
000240 2f fc 02 40 a1 9e 8e bf 3a 50 79 bf e3 ba d0 3f
       2.046642 -1.114216 -0.9738804 1.6307033
000250 f9 55 54 3f 38 75 88 bd 77 4e 71 ba 19 80 de be
       0.82943684 -0.06662983 -0.00092051126 -0.43457106
000260 c8 b5 81 3f ca 66 cf 3f a4 54 45 bf 3f 4e d1 3e
       1.01336 1.6203244 -0.77082276 0.4088001
000270 63 17 3e bf 9f a8 4d 3f d9 6e a8 3e 03 76 8c bb
       -0.74254435 0.8033542 0.3289707 -0.004286529
000280 1c 74 07 bb 72 4b 10 c0 f5 fb f5 3d 07 8a 52 3f
       -0.0020668572 -2.2546048 0.120109476 0.82241863
000290 a0 8a e2 3f 57 40 1d 40 ca fb 9e 3e bd d5 84 3e
       1.7698555 2.457052 0.31051475 0.2594432
0002a0 19 c9 e7 be 77 66 c2 be 66 b0 04 bf 92 17 9e 3f
       -0.45270613 -0.379688 -0.5183166 1.2350943
0002b0 d4 38 9d 3e 5c 72 fe bd 9a 36 0f be ce 40 2d 3f
       0.3070742 -0.12424156 -0.13985673 0.6767701
0002c0 95 e0 32 3f a1 87 0d 3f a2 ea 29 3f 25 47 98 3f
       0.69873935 0.5528508 0.66373646 1.1896712
0002d0 19 94 e3 3e 20 81 0c bb 6e ea 6c 3f 88 b8 6d bd
       0.44448927 -0.002143927 0.9254521 -0.05803731
0002e0 28 6e a6 3f c1 8f ae ba 63 2f 53 3f b6 e5 87 3f
       1.3002367 -0.0013317988 0.8249418 1.0616977
0002f0 48 1a 8a be f7 f0 91 3f 49 83 0d be b1 3d 44 3f
       -0.26973176 1.1401662 -0.13819613 0.76656634
000300 24 ac 17 40 bb 7e 3a 3f 6b 93 c3 bd 1d 60 b3 3f
       2.3698816 0.72849625 -0.09549602 1.4013706
000310 51 6a 95 3f 1f 66 5a 3f c8 10 c4 3f ed 03 49 3f
       1.167307 0.85312074 1.5317621 0.78521615
000320 b2 5b 2b be b8 db d6 be 6d 32 03 3f b5 0a 0b c0
       -0.16734198 -0.41964507 0.5124882 -2.1725285
000330 b6 1f 90 3f af 7a fe be 7d 76 02 bf c7 87 86 be
       1.1259677 -0.49702975 -0.5096205 -0.26275465
000340 c5 a8 42 bf fe e4 01 be 9d ee a9 3f 51 5b 99 bc
       -0.7603877 -0.1268501 1.3275944 -0.0187203
000350 d7 d0 82 bf bc 36 ac 3e d4 1a ad 3e 42 74 71 3f
       -1.0219983 0.3363551 0.3380953 0.9431802
000360 9e 47 01 40 6f 93 7a 3f 96 40 a4 be 2b d1 4a be
       2.0199962 0.97881216 -0.32080525 -0.19806354
000370 17 87 6e be 2c 7e be ba 04 d3 11 3f 8e a6 52 3f
       -0.2329372 -0.0014533452 0.5696261 0.8228539
000380 6a 58 9c 3f 7c 2a ce 3d 7d 55 5e be 43 82 33 40
       1.2214482 0.10066697 -0.21712299 2.8048255
000390 6e dd 40 bf eb 6d ba be 4c 78 b0 bb 2b 6e 8e bf
       -0.75337875 -0.36411986 -0.0053854343 -1.112737
0003a0 fb ba cc 3e 16 b0 40 bf 77 61 84 bf 91 be 86 be
       0.39986405 -0.75268686 -1.0342244 -0.26317266
0003b0 8c 69 c8 be f9 e5 f0 3f 17 cc d6 3d bc c6 c8 3e
       -0.39143026 1.8820182 0.10488146 0.39214122
0003c0 0a 83 49 3f 18 71 c7 3f 66 14 29 be 92 55 11 3f
       0.78715575 1.5581388 -0.16511688 0.56771195
0003d0 d9 25 14 bf d0 7d a1 3f 7e 30 f1 3e c4 6a 1b 40
       -0.5787025 1.261652 0.4710731 2.4283915
0003e0 26 88 81 3f ce d3 78 be d9 1d d9 3d d9 7c e1 be
       1.0119674 -0.24299547 0.10601396 -0.44040564
0003f0 d9 4a 2a c0 d2 30 d9 be 0c 87 7b bf 28 75 ed 3e
       -2.6608183 -0.4242006 -0.9825294 0.46378446

weight f4 [256, 256]
000000 73 f3 16 3d 38 be a8 3e e3 8d 58 bf 50 a1 a7 be
       0.036853265 0.32957625 -0.845915 -0.3274026
000010 a1 ac 46 3e 66 71 1c be eb b4 04 be e9 b5 09 be
       0.1940179 -0.15277633 -0.1295964 -0.134483
000020 fe 16 9b bd 43 47 c0 3d b3 c4 24 be 76 d2 09 bf
       -0.07572745 0.09388592 -0.1609066 -0.5383676
000030 30 cc 3d 3e d1 c0 fb 3e 46 c6 f2 3d a6 5a b6 be
       0.18534923 0.49170545 0.11854224 -0.35616034
000040 1a 6f b7 be ba ac 04 be ba 4e 00 be 65 47 e5 3d
       -0.3582695 -0.12956515 -0.12530032 0.11195258
000050 e8 65 cc 3d 14 ce 91 be a7 46 88 be 81 3f e0 be
       0.099803746 -0.28477538 -0.26616403 -0.4379845
000060 2e 51 1c be 5f c7 c4 be 5c a0 59 3e 34 86 32 bf
       -0.15265343 -0.38433358 0.21252578 -0.6973603
000070 38 4d c9 bc 25 5e 10 bd c8 b3 87 bd 27 34 cf bd
       -0.024572954 -0.035246033 -0.066260874 -0.10117369
000080 97 5e 91 3e 5e 95 a9 3e 2b eb c0 bb ec b7 e2 be
       0.2839248 0.3312177 -0.005887409 -0.44280946
000090 69 21 01 bf 69 a3 06 3e 78 47 99 bd 22 85 e0 3c
       -0.50441605 0.13148274 -0.07484335 0.027407233
0000a0 65 31 1c be 1b e7 d1 bd 58 4b 07 bf 6c 8d d9 bd
       -0.15253218 -0.10249158 -0.5284934 -0.10622677
0000b0 cb 57 85 3c 0e 6c ce bd 9a 4e f2 be c9 00 df 3e
       0.016277215 -0.100792035 -0.47325593 0.43555287
0000c0 a7 f3 76 3e 22 04 ba 3d b8 92 9d 3e 11 19 b5 be
       0.24116383 0.090828195 0.30776 -0.35370687
0000d0 ca 87 c7 be bf 18 e4 be 56 33 2a bf 2f 97 82 bd
       -0.38970786 -0.4455013 -0.6648458 -0.06376492
0000e0 82 12 f6 be d0 0e 08 3d d7 d2 88 bf 36 82 f2 be
       -0.48060995 0.03321725 -1.0689343 -0.47364968
0000f0 b1 9c 5e be 20 fb 28 be 40 15 a6 3f 98 71 69 be
       -0.2173946 -0.16502047 1.2975235 -0.22797239
000100 55 1a 71 be df 67 f0 3e 3d a4 a1 be 73 0d 41 bf
       -0.23545201 0.46954247 -0.31570616 -0.75411147
000110 7e 32 75 be 3a 15 01 be 58 2d a4 3d e7 62 82 bd
       -0.23945042 -0.12605754 0.08016461 -0.063665204
000120 6c 11 a0 be 89 bd 97 3d 1c 4a cf 3c 59 17 9e bd
       -0.31263292 0.07409198 0.025303893 -0.07719297
000130 7a 66 a5 be 62 3e 35 bd 74 18 9a be 11 b9 8c bb
       -0.32304746 -0.044248946 -0.3009678 -0.0042945226
000140 ce 31 a7 3c c4 5f 0e be f2 dd 60 be 76 bd 62 3e
       0.02040949 -0.13903719 -0.21959665 0.22142586
000150 e8 20 65 bd 8e 49 df be f3 fd 9d be c2 06 c6 3c
       -0.055939585 -0.43610805 -0.3085781 0.024173144
000160 ac 40 31 bb 17 02 b4 3d 1d f5 c9 bd 87 ef 55 3d
       -0.0027046604 0.08789461 -0.09861205 0.052230384
000170 19 37 58 be 4a a0 e5 bd 1d 39 b2 be 94 88 e9 3e
       -0.21114768 -0.11212213 -0.348092 0.45612013
000180 61 88 3c bd 26 3e 17 be 04 aa 9d be 92 ed b2 3e
       -0.0460285 -0.14769801 -0.30793774 0.34946877
000190 40 16 0c bf f1 f9 40 bf aa f8 c8 bd 06 ec 51 be
       -0.5472145 -0.7538138 -0.09813054 -0.20500192
0001a0 d4 25 3d bf 0d 45 0d 3e cc 15 34 bd 6f 01 1f be
       -0.73885846 0.13795872 -0.0439661 -0.1552789
0001b0 2c 47 17 be cf 4e e7 be 3c a1 0f 3f 5a d1 a8 be
       -0.14773244 -0.45177314 0.561054 -0.32972223
0001c0 0c c9 b5 be ec 9d a0 3c 67 17 ae be d3 0c 19 3e
       -0.3550495 0.019606553 -0.3400223 0.14946298
0001d0 dc 4f b3 be 79 26 03 3e 24 16 7a be 55 6a 01 be
       -0.35021865 0.12807645 -0.24422508 -0.12638219
0001e0 fd c6 6a be 65 c8 3c 3e e1 62 e5 be a8 42 80 bd
       -0.2292747 0.1843582 -0.44802 -0.06262714
0001f0 e9 39 9c be 11 7e 48 be e1 e5 4c 3e 5b c8 2b be
       -0.30512932 -0.1957934 0.20009567 -0.16775648
000200 3a f7 10 3d 9d e0 ac bd 1a b7 9d 3c 65 18 4f bd
       0.035392024 -0.08441279 0.019252349 -0.050560374
000210 dd b5 1f bf 50 64 dc bd 18 63 3b 3e 18 a3 93 3e
       -0.62386876 -0.107613206 0.1829952 0.28835368
000220 dd 3b 2e 3d 2d 7c 7e 3d 0b 05 ba 3d bb a6 65 be
       0.04253756 0.062130142 0.09082993 -0.22426884
000230 54 93 1d be 77 43 dc 3c 67 1c 6b 3e 03 73 71 be
       -0.15388232 0.026887638 0.22960053 -0.2357903
000240 01 4c 3e bd c5 e8 bc 3d 4e 48 cb be c4 20 fd 3e
       -0.0464592 0.09224085 -0.39703602 0.4943906
000250 5d 47 c7 3d 2a 99 4d 3f b4 ab 0c be 89 b1 33 be
       0.09730408 0.80311835 -0.13737375 -0.17548193
000260 c4 a7 b3 3e e8 f8 c8 be f9 a0 c0 3c 7c 25 39 bf
       0.35088933 -0.392524 0.023514258 -0.7232282
000270 6c 2b 7a be 6e 3f 27 be 78 b9 51 3d 36 03 cc be
       -0.24430627 -0.1633279 0.051202267 -0.398462
000280 28 9b a6 3d 44 15 b4 be 0c df 03 be b6 f9 fb be
       0.081350625 -0.35172474 -0.12878054 -0.49213952
000290 f3 bf ba bd 28 34 76 be 42 1f 46 bf cd 5e ea bd
       -0.09118643 -0.24043334 -0.77391446 -0.11443863
0002a0 de 5e 01 be 6b 56 cd bd a2 13 93 3d 0b 0b 92 bd
       -0.12633845 -0.100262485 0.07181479 -0.071310125
0002b0 e7 9e a4 be 15 dd 3d be 1a e4 52 bf a4 1d 68 3e
       -0.32152483 -0.18541367 -0.82379305 0.22667557
0002c0 44 66 af 3e c4 49 a0 be 05 a0 18 be cb 3c 94 be
       0.3425771 -0.3130628 -0.14904793 -0.2895263
0002d0 b0 fa bf 3d cd 05 c4 bd 48 a1 c8 3d 91 fc 3d be
       0.09373987 -0.09571419 0.09796387 -0.18553378
0002e0 85 f0 02 bf 6e ee 75 3e f2 d5 24 3d 3d 31 e7 bd
       -0.51148254 0.24016735 0.040243097 -0.11288688
0002f0 6d fe 7b bc 50 e3 e7 bc 94 7d 4b 3d 3a b9 9f 3d
       -0.015380484 -0.028306633 0.049680308 0.07799001
000300 76 15 60 3d 7c 8e fc be 09 38 0c 3f 8e 8a f7 be
       0.054707967 -0.49327457 0.54773 -0.48347896
000310 ec 5e 38 bf d8 2d 82 3e 29 ae 21 3e a6 9f 0d be
       -0.7201984 0.254256 0.15789093 -0.13830432
000320 87 ab 84 bd 5e 98 c5 be 0b 9f 9f 3d b9 30 c4 bd
       -0.06478029 -0.3859281 0.07794007 -0.095796056
000330 b3 d1 25 be 28 0f 64 3e cd 72 09 bd 3e c3 5d 3e
       -0.16193275 0.22271407 -0.03355675 0.2165651
000340 7c a9 8f 3d fd ad 3a bf e8 41 96 be ff 4f 51 3f
       0.070147485 -0.72921735 -0.29347157 0.8176269
000350 70 03 8d 3c b3 04 7d 3d 5a 07 d1 3e 6f 65 91 bd
       0.017213553 0.06177206 0.4082592 -0.07099425
000360 d7 f5 5a be fd 5b 59 3d 18 f9 18 3e e7 66 b3 3c
       -0.21382843 0.053066242 0.14938772 0.021899654
000370 d3 a5 53 be 86 60 f9 3d 5e b6 4f be 9e 8c 76 be
       -0.20668726 0.121766135 -0.20284411 -0.24077079
000380 01 33 b3 bd ac 3e d1 be 48 42 e2 bd ed fc a5 be
       -0.087499626 -0.40868127 -0.110477984 -0.3241953
000390 3f 78 9f 3e 4b eb d0 be 69 88 33 be c8 d4 a9 be
       0.31146428 -0.40804514 -0.17532505 -0.33170152
0003a0 0a 5e b5 bd 85 6c 13 3f 25 a6 bd 3d b3 2a 19 be
       -0.08855827 0.5758746 0.09260205 -0.14957695
0003b0 15 81 3f 3e a8 e2 6c 3d aa 19 81 bd 76 04 30 bf
       0.18701585 0.057833344 -0.06303723 -0.68756807
0003c0 0f 69 8c 3e 46 6e 0d bd 7e 6b ec 3e d0 93 8f 3c
       0.27423903 -0.034528993 0.4617576 0.017526537
0003d0 e2 52 06 be 02 b1 8f 3d d1 25 1d 3e f4 14 f0 be
       -0.13117555 0.070161834 0.15346457 -0.46890986
0003e0 de 34 1d bf 6a 88 49 be 33 47 1b bd 7a 46 85 bf
       -0.61408794 -0.19680944 -0.037909698 -1.0412133
0003f0 60 d1 04 be 7b cf 29 3e 4d 71 ff be 3c 70 e1 3e
       -0.12970495 0.16583054 -0.4989113 0.4403094

bias f4 [256]
000000 67 c0 31 be ae 48 c2 be 3c 69 d3 bd 4f 6c df 3d
       -0.17358552 -0.37946075 -0.10322806 0.1090933
000010 5c fb e6 be 3c b2 7b 3d 24 6e 4b bc d9 84 a8 bd
       -0.45113647 0.061449274 -0.012416396 -0.08228464
000020 c4 92 2d 3f 9e e1 8f 3d e1 9e d4 3e 17 aa 44 bd
       0.6780207 0.07025455 0.41527465 -0.048013773
000030 df 1e a9 40 65 79 a5 bd 2b 03 83 bd 42 64 73 3f
       5.2850184 -0.08079795 -0.063970886 0.95074856
000040 17 d7 61 be 94 a0 12 40 d0 e4 e9 bd 70 cd a0 bd
       -0.22054707 2.291051 -0.11420596 -0.07851684
000050 8a 86 87 be 92 5a 02 3e 34 bc fd 3b ee 0f 9d 3d
       -0.26469833 0.12729862 0.007743383 0.07669054
000060 0e 0f d1 be 3a 95 32 bf e1 53 86 bd 20 7f f1 3b
       -0.40831798 -0.6975895 -0.065589674 0.007369891
000070 a7 00 e4 be fd 17 76 3f e7 b9 c2 bd 0a 67 a0 be
       -0.44531748 0.96130353 -0.09508114 -0.31328613
000080 d2 16 e2 bc 3e 1c 84 3d 02 ae 6b 3d 94 ed 24 be
       -0.027598772 0.06450699 0.057538994 -0.16106254
000090 43 c0 da bd fa b4 60 3b 42 2a 87 3e 96 49 86 bc
       -0.10681202 0.0034287558 0.26399428 -0.01639251
0000a0 af 04 27 be 6a 11 63 bf b7 a0 45 bd 55 bd 1a bf
       -0.1631038 -0.88698447 -0.048248973 -0.6044515
0000b0 cf 4a 41 bf 82 65 0c bc dd 09 15 bd 43 75 7a 3e
       -0.75504774 -0.008569123 -0.03638636 0.24458794
0000c0 65 e5 7d 3e 68 1e 1f bc 8b 38 36 be 0b 70 78 3f
       0.24794538 -0.009711839 -0.17795007 0.97045964
0000d0 e0 3a 5d bd e6 60 12 40 3d 56 87 bd 06 f8 e2 bc
       -0.054011226 2.2871642 -0.066082455 -0.027706157
0000e0 9c 28 52 3e 73 12 82 bd 5d e1 1a bd 15 6b ab 3a
       0.20523304 -0.06351175 -0.03781258 0.0013078178
0000f0 b7 35 dd be a2 b5 15 3d 13 31 35 bc c2 ca e7 3e
       -0.43205044 0.03655017 -0.0110590635 0.4527188
000100 1e ef 02 bf 60 67 e6 be c0 7c e1 3e 20 20 c4 39
       -0.51146114 -0.45000744 0.4404049 0.00037407968
000110 7f bf d8 be 64 02 d5 bd d5 ee 24 3d 0a dc 1a bd
       -0.423336 -0.104008466 0.04026683 -0.0378075
000120 06 aa 40 bd d9 15 21 be 17 46 b6 be c3 5d 54 bf
       -0.047037147 -0.1573099 -0.3560035 -0.8295557
000130 20 b8 0f 3e 28 1a f4 3d 8c 90 c9 bc d7 e3 a3 3d
       0.14035082 0.119190514 -0.024605058 0.080024414
000140 94 3d c3 ba f4 8b 93 bf b3 83 f9 bc 76 4c 52 be
       -0.0014895671 -1.1527085 -0.030458307 -0.2053698
000150 a0 70 7d 3c 04 1d eb be fa 90 25 be c3 56 ae 3e
       0.015468746 -0.45920575 -0.16168585 0.3405057
000160 bf fe d7 3c fd 8c 2d bf 13 71 1e be f7 e6 54 be
       0.02636659 -0.67793256 -0.15472822 -0.20791231
000170 71 77 d6 3d 39 98 9f 3d da 27 04 bf 69 3a 4c bd
       0.104720004 0.07792706 -0.5162331 -0.04986039
000180 fa 2f ab 3e b4 3f ba bc 7b 2b 01 bf 32 dd 70 3d
       0.3343504 -0.022735454 -0.5045697 0.0588047
000190 b1 a0 3e be 15 f7 ab 3f fe 65 3f 3f 4b b7 ba bd
       -0.18615986 1.3434778 0.74765 -0.091169916
0001a0 4f 9a 1c be 0b ae 43 3c 89 b2 c4 bd 2a 24 84 3d
       -0.15293239 0.011943351 -0.096043654 0.0645221
0001b0 82 2d 4c 40 88 06 64 3f c5 ce da bd e6 e5 85 be
       3.1902776 0.89072466 -0.106839694 -0.2615196
0001c0 fc 0e 8e be 84 f4 3b 3d 8e 54 e7 3c 70 1a b6 3f
       -0.27745807 0.045887485 0.028238561 1.4226818
0001d0 7c 81 82 ba 3b be 44 be 35 ca 84 3c 85 49 38 be
       -0.0009956802 -0.19213192 0.016209701 -0.17996795
0001e0 34 f5 d7 bd 13 c6 3e bd 46 e1 9a bd b8 9c d5 3f
       -0.10544816 -0.046575617 -0.07562499 1.6688452
0001f0 19 81 b6 3f 82 d8 5a be e0 14 6b bf 88 f2 63 be
       1.4258147 -0.21371654 -0.9182873 -0.22260487
000200 6b 27 ed bb ee a6 ec bd bc 8b ec 3e 67 2e 08 bd
       -0.007237365 -0.11555277 0.4620036 -0.033247378
000210 2c d9 f6 be 9e 19 a3 3e 09 be 13 be 7a ec 31 be
       -0.48212564 0.31855482 -0.14427961 -0.17375365
000220 c1 39 b2 3e 4d ae 2a 3d 25 ca ac bd 0a 46 cd bd
       0.34809688 0.041670132 -0.084369935 -0.100231245
000230 07 08 22 be cd c6 0e 3d f6 6e 73 3c 38 aa ef bd
       -0.15823375 0.03485756 0.014857998 -0.117023885
000240 c6 09 ef 3d 99 85 db be fc 0e e2 3c be 79 08 3e
       0.11671786 -0.42875364 0.027595036 0.13327691
000250 b9 ba 6e 3f 7e 23 82 3c 71 6f f3 3c 1d 08 08 be
       0.93253666 0.015886065 0.029716225 -0.13284345
000260 83 b2 65 bf e1 00 89 be f4 04 33 3e c4 01 a1 3b
       -0.8972551 -0.26758483 0.17482358 0.0049135406
000270 d3 46 c5 3e 47 50 0c 3f a4 63 54 be 0f 0b 00 be
       0.38530597 0.54809994 -0.20741135 -0.12504219
000280 0c 7c 2a 3e 7a 7e 1c 3f 45 e5 61 bd 94 41 6d be
       0.16648883 0.6113049 -0.05515029 -0.23169547
000290 e9 83 74 be 5a d9 7e be b5 93 ac be 21 1b da 3e
       -0.23878445 -0.248876 -0.33706442 0.42598823
0002a0 ba 34 c1 3f 13 9d 03 3d bb fd b5 3d c6 97 fc bd
       1.5094216 0.03213222 0.08886286 -0.12333636
0002b0 d5 85 0e 3f 76 85 7f 3c 4f 0b 71 bd d6 30 c7 3e
       0.5567296 0.015595784 -0.058848675 0.38904446
0002c0 25 fe c1 bd f0 13 00 be e9 0f b1 bd 4e bb b2 bc
       -0.09472302 -0.12507606 -0.08645613 -0.02181783
0002d0 c0 a8 f2 3c f0 66 8a 3e f2 08 0f 3b be 48 9d be
       0.029621482 0.2703166 0.00218254 -0.3071956
0002e0 3b be bc be 71 89 2a 3e c9 e5 75 be a7 74 33 3f
       -0.36863884 0.16653992 -0.24013437 0.7009987
0002f0 67 22 13 bb 31 b3 98 3e 30 fa 15 3e ae e7 c8 bd
       -0.0022450925 0.29824212 0.1464622 -0.098098144
000300 83 3f 1d 3f 11 e7 a7 ba 9e 35 12 3e 9a 2d c8 bc
       0.61425036 -0.0012809952 0.14278266 -0.024435807
000310 ed d1 d6 bd 6e 2b cf bc 1d e8 3d bd 8c 07 42 be
       -0.10489259 -0.025289264 -0.04636394 -0.18948191
000320 fe 5e 1a 3f f8 81 02 be 27 01 d4 3e 8d 99 58 bd
       0.60301197 -0.12744892 0.4140713 -0.052880812
000330 d5 ec 3f be ce 27 41 be 52 db 12 be 8d ff d3 bc
       -0.18742688 -0.1886284 -0.14341477 -0.025878692
000340 f2 ef 16 be 46 cb 4a be a4 ee 81 be 20 65 b1 3e
       -0.1473997 -0.19804105 -0.2537738 0.34647465
000350 18 1a 06 3e 35 dd 04 3f d2 4b 1b bf fb 26 ec bc
       0.13095891 0.51900035 -0.6066257 -0.028827181
000360 ac 62 af bd 02 9e 1d 3f 41 4e 83 bb 0c af 70 3e
       -0.08563742 0.61569226 -0.0040071313 0.23504275
000370 bb f2 57 bd b1 17 10 3e 93 3b 8a 3e 04 7e d7 bf
       -0.05272172 0.14071538 0.26998577 -1.6835332
000380 11 10 51 3f 82 6a 15 3e 95 ab 0a bd 06 0d 02 be
       0.8166514 0.14591411 -0.03385504 -0.1270028
000390 7d d7 04 3e c2 20 a6 bd 31 01 1f bf 39 96 cf bd
       0.12972827 -0.08111717 -0.6211119 -0.101360746
0003a0 88 fc 25 3f 76 3f 27 bf 47 64 5f 3e e1 26 f5 bc
       0.6483846 -0.6533121 0.21815597 -0.029925765
0003b0 ed 44 99 bd 09 9f ea 3f 71 ca 8b be 8c 54 83 3c
       -0.0748385 1.8329784 -0.27302888 0.016031526
0003c0 6e 11 ab 3e f4 9c db 3b 90 02 34 3d 1d 41 b1 bd
       0.33411735 0.00670206 0.043947756 -0.086549975
0003d0 15 02 b2 bd 77 b5 d8 3e 5b bb b0 bc bf 5d 8e 3f
       -0.08691803 0.42325947 -0.021573713 1.1122359
0003e0 bd 54 3a 3e 3c 06 ab bd 40 e2 2c 3b 3b c5 98 bd
       0.18196388 -0.083507985 0.0026379973 -0.07459494
0003f0 8c e0 d4 bd ed 03 97 be 20 97 63 3e 7b cc 7d 3c
       -0.103943914 -0.29495183 0.22225618 0.0154906465

weight f4 [5, 256]
000000 46 b5 1e 3e 1a 51 37 40 60 9b 06 3b c3 a4 93 3f
       0.15498838 2.864325 0.0020539388 1.1534656
000010 a9 dd ae 3f 29 25 54 3f d0 c4 49 bd 57 3a f9 3e
       1.3661395 0.828692 -0.04925996 0.48677322
000020 69 00 8a 3f b7 d7 d1 3f c8 66 16 40 45 a5 28 be
       1.0781375 1.6393956 2.3500233 -0.16469295
000030 cc 6d 28 3d 57 78 0f 3f f2 b7 05 3f 89 f7 82 3f
       0.041120335 0.56043 0.52233803 1.0231792
000040 8c e1 5b 3f 8f 19 8c 40 80 03 44 3f 94 12 35 3e
       0.8589103 4.37812 0.7656784 0.17682868
000050 9d cb 99 c0 b8 16 91 3f 08 6a a7 3f fa f8 b1 3f
       -4.806105 1.1335058 1.3079233 1.3904107
000060 e7 1b f3 be 32 3c 83 bf ff b3 10 3d 9f 4b 4b 3e
       -0.47482225 -1.0252745 0.035327908 0.19853066
000070 38 ac e3 40 76 04 77 40 0b 25 b8 3e e0 54 c0 be
       7.114773 3.8596473 0.35965762 -0.37564754
000080 f2 34 e9 3e 35 8e 3f 3f 4e 4e 71 3f a5 e3 85 3f
       0.45548207 0.74826366 0.9426011 1.0460097
000090 73 7f 0c 3f 03 fc 8d 3e 3f 37 c2 3f 2c c9 a9 3f
       0.5488197 0.27731332 1.517311 1.3264518
0000a0 0d 68 52 3f aa 5b fc c0 71 c2 45 3f 7f 30 aa bf
       0.8219002 -7.8861895 0.7724982 -1.329605
0000b0 ba a1 9f bf dd 95 3f 40 f1 54 e7 3e 93 53 42 3f
       -1.247123 2.993522 0.45181993 0.75908774
0000c0 35 07 1f 3f 58 89 35 40 dc 79 f7 3e f5 62 bb 3f
       0.6212037 2.8365078 0.4833516 1.4639574
0000d0 f7 cf 24 3f 04 4b 58 40 08 69 1d 3f c6 74 cb 3e
       0.6437983 3.3795786 0.6148839 0.3973753
0000e0 7c c7 19 3f 01 d9 40 3f 9a 46 c5 3e 7f 4a 84 bf
       0.60070014 0.7533112 0.38530427 -1.0335234
0000f0 01 40 b0 be 0d 77 54 3f 6f 3a 84 3f 80 0f 4b 3f
       -0.3442383 0.8299416 1.0330333 0.79320526
000100 c0 74 17 ba 51 35 22 bf e1 59 2e 3f 5a 35 2a 40
       -0.000577759 -0.63362604 0.68105894 2.6595063
000110 34 d9 e4 3e 3f 39 14 bd 0f 61 05 3f 96 38 14 3f
       0.44696963 -0.036187407 0.52101225 0.57898843
000120 97 b4 19 40 21 f8 02 3f 79 83 5e 3f 0b 59 80 be
       2.4016473 0.51159865 0.8691936 -0.25067934
000130 5f 7a 4c 3f 47 3e 39 3f c1 91 84 be e3 69 f9 3e
       0.79874223 0.7236065 -0.2589245 0.48713598
000140 bc 75 86 3e 70 d0 a3 3f e4 ca fd 3c c5 f0 e0 3f
       0.262617 1.2797985 0.030980535 1.7573477
000150 cd 02 fa 3e 65 36 f6 3f 15 9f f3 3e 8b 69 27 40
       0.48830262 1.923535 0.47582307 2.6158168
000160 e7 3e 2a 3f b9 31 1b 3f 3d 8d 07 bf 79 ab 75 3f
       0.6650223 0.60622746 -0.5294989 0.9596477
000170 2a b0 58 3f d9 d0 9e 40 b1 86 66 3e 40 e4 94 3f
       0.84643805 4.962994 0.22512318 1.1632156
000180 91 8e 2a 40 cf 31 e8 3e 2b d6 a0 3e 06 2d 8a 3f
       2.6649516 0.453505 0.31413397 1.079499
000190 a6 35 0c c0 f2 2d 37 40 4b 07 22 3f a3 51 b2 3e
       -2.1907744 2.8621793 0.6329238 0.3482791
0001a0 f5 3d 11 3f da 73 44 3f f7 ee 00 3f c2 83 0b 40
       0.56735164 0.76739275 0.5036463 2.1799169
0001b0 26 5e 7c 40 29 28 91 3f 51 82 2b 3f e8 4f 95 3e
       3.9432464 1.1340381 0.6699572 0.29162526
0001c0 dd 76 e6 be 52 07 0c 3f e3 49 c3 3f 23 e3 82 40
       -0.4501256 0.5469867 1.5256923 4.0902267
0001d0 b3 c8 6e 3f 43 60 c2 3e 55 21 12 3e a7 42 b4 3f
       0.9327499 0.37964067 0.14270528 1.4082841
0001e0 08 10 e4 3b 4a 4e a9 3e 62 d5 12 3f b7 dc 4d 40
       0.006959919 0.33067542 0.57356846 3.2165964
0001f0 93 92 8e 3f aa 56 85 3f 2e 70 41 3f 4f 8e 16 3f
       1.1138481 1.0417073 0.755618 0.58810896
000200 52 bd e0 3f 5e c2 1f 3f a3 66 d5 3e 36 0a 4b 3f
       1.7557776 0.62405956 0.41679868 0.79312456
000210 e2 67 77 3f ad 15 30 3f 84 b8 29 3f 1b 56 37 3f
       0.9664289 0.68783075 0.66297174 0.7161576
000220 07 24 2c 3f 36 f5 9a 3d 32 8d 43 3f df fb 37 3f
       0.67242473 0.075663015 0.7638732 0.718687
000230 a8 7e 5a 3f 44 97 a8 3e f8 f3 3f 3e 65 7a cf 3c
       0.8534951 0.32927907 0.1874541 0.025326917
000240 8b 71 8a 3f 75 83 15 40 76 55 86 3f 0c af 99 3f
       1.08159 2.3361485 1.0494831 1.2006545
000250 5e 14 b1 3f 21 92 f8 3e 50 c4 7e 3f 16 a5 da 3e
       1.383434 0.48548988 0.995183 0.42704076
000260 6e d6 f0 3e 72 e3 10 3f 5e ca 06 3f 35 65 b9 bf
       0.47038597 0.56597054 0.5265254 -1.4484011
000270 ac 58 7c 40 d2 ae 30 3f 8f 11 ca bf ab f6 9e 3f
       3.942912 0.69016755 -1.5786608 1.2419027
000280 64 3a 99 3f 7f ca 95 40 0a 3e c8 3e ee 91 4f 40
       1.1970944 4.6809688 0.39109832 3.2432818
000290 ac 35 cc 3e b2 24 76 3f 9f 1b dc 3e 20 f5 50 40
       0.39884698 0.9614974 0.42989823 3.2649612
0002a0 23 a0 e2 3f b2 e7 47 3f f5 d3 0d 3f d1 71 02 40
       1.770512 0.78087914 0.55401546 2.0381968
0002b0 13 98 2f 3f e5 13 79 3f 3c 79 a4 bd 0f a1 66 3f
       0.6859142 0.9729598 -0.08030936 0.90089506
0002c0 b3 63 9f bb 94 03 dc 3e a7 b2 fa 3e 0d c1 54 3f
       -0.00486418 0.4297148 0.48964426 0.8310707
0002d0 c5 50 de 3e 25 ec cd 3e de 3d 78 3e 2b 55 ee 3e
       0.43420997 0.40219226 0.2424235 0.46549353
0002e0 0e f9 ae 3e f2 6b e4 3e 3b d3 26 3f 52 3b 90 3f
       0.3417439 0.44613606 0.6516606 1.1268103
0002f0 c6 e2 ce 3d 74 05 47 3f 18 37 1a 3f 2b a9 b1 3c
       0.10101847 0.77742696 0.60240316 0.02168711
000300 11 39 6d 3f 03 bf a2 3e 96 15 30 3f 93 5e b5 3c
       0.926652 0.31786355 0.6878294 0.022139823
000310 85 d1 a3 3f 90 b9 00 3f 6a 8c 47 3f 9e 67 46 40
       1.2798315 0.50283146 0.7794863 3.1000743
000320 7e 54 7d 3f 80 4e f3 3f 69 10 2d 3f c7 21 b6 bb
       0.9895705 1.9008331 0.67603165 -0.005558226
000330 46 5f 13 3f 04 76 5a 3f 4f 50 0b 40 04 69 10 bc
       0.5756725 0.8533633 2.1767766 -0.0088141
000340 df 9e 66 3f fb 78 0a be d6 47 05 c0 e8 06 6c 40
       0.9008617 -0.13522713 -2.0825095 3.6879215
000350 c9 f2 fd 3e 22 f8 2a 40 22 33 87 3f f8 de 90 3f
       0.49599293 2.6713948 1.056248 1.1318045
000360 05 a6 bb 3e f4 c8 81 3f 64 dc d7 3c c0 97 eb 3e
       0.366501 1.0139451 0.026350208 0.46014214
000370 bb b9 72 3f a1 c3 bc 3e 9c 81 81 40 f2 18 f8 3f
       0.9481465 0.36868003 4.0470715 1.9382613
000380 ba a4 79 3f 1f 84 cc 3e a7 3c 9e 3e 38 0d e5 bc
       0.9751698 0.3994455 0.3090565 -0.027960405
000390 5a 19 6f 3f c4 4c 5e bd 50 d4 d3 3f 89 5b 2e 3f
       0.9339806 -0.05427243 1.6549168 0.6810842
0003a0 57 06 ff 3e eb 23 e3 3f 54 c6 8c 3f de 96 90 3e
       0.49809524 1.7745336 1.0998025 0.28240103
0003b0 6d ea 1e 3f 7a 32 e2 3f d9 b3 22 40 c7 45 8b 3f
       0.62076455 1.7671654 2.542227 1.0880669
0003c0 f4 8d d7 3f d0 6f 0f bc 07 c2 4a 3f 6c 87 e8 3c
       1.6840196 -0.0087546855 0.7920231 0.028384887
0003d0 a0 50 53 3c 8e 53 98 40 fd 1b 82 3e 8b a4 ca 3f
       0.0128976405 4.7601995 0.25411978 1.5831465
0003e0 0b ce 9d 3e 50 e3 c4 3c 26 97 61 3f 53 1d d2 3f
       0.3082126 0.024034172 0.8812126 1.6415199
0003f0 18 f2 1b 3f 98 eb 72 3f d3 a5 7e 3f 3b b0 29 3f
       0.6091628 0.9489074 0.9947178 0.6628453

bias f4 [5]
000000 42 b2 68 bf 7d 79 68 bf 44 71 68 bf 77 8d 68 bf
       -0.90897 -0.90810376 -0.9079783 -0.9084086
000010 78 6e 68 bf
       -0.9079356

exp_avg f4 [256, 31]
000000 87 c2 80 b0 d9 89 0a 34 1d f4 4b 34 28 07 80 b0
       -9.368514e-10 1.29024e-07 1.8994656e-07 -9.31526e-10
000010 66 ac 96 b2 13 30 0c 34 db 90 bd 34 9a 52 ee 34
       -1.7540696e-08 1.3056005e-07 3.530939e-07 4.4391055e-07
000020 4d 3b de 33 eb 54 99 32 51 80 46 34 b0 96 06 35
       1.0348467e-07 1.785016e-08 1.8486868e-07 5.013817e-07
000030 0c 04 19 35 71 ab 04 34 51 1b e8 32 87 f9 7f b3
       5.700283e-07 1.2355828e-07 2.7020777e-08 -5.9598758e-08
000040 9e ff 02 b1 e2 ec 68 32 4b 21 38 32 1f c7 78 32
       -1.9062791e-09 1.3558038e-08 1.07177796e-08 1.4480775e-08
000050 76 76 c7 b2 91 8d 06 b2 ae 0e 1d b3 a1 75 4f b3
       -2.3220519e-08 -7.832015e-09 -3.6567762e-08 -4.8302926e-08
000060 4c 5d 86 b2 04 00 00 80 04 00 00 00 04 00 00 00
       -1.564208e-08 -6e-45 6e-45 6e-45
000070 04 00 00 80 04 00 00 00 04 00 00 00 04 00 00 00
       -6e-45 6e-45 6e-45 6e-45
000080 04 00 00 00 04 00 00 00 04 00 00 00 04 00 00 00
       6e-45 6e-45 6e-45 6e-45
000090 04 00 00 00 04 00 00 00 04 00 00 00 04 00 00 00
       6e-45 6e-45 6e-45 6e-45
0000a0 04 00 00 00 04 00 00 00 04 00 00 00 04 00 00 00
       6e-45 6e-45 6e-45 6e-45
0000b0 04 00 00 80 04 00 00 00 04 00 00 00 04 00 00 00
       -6e-45 6e-45 6e-45 6e-45
0000c0 04 00 00 00 04 00 00 00 04 00 00 00 04 00 00 00
       6e-45 6e-45 6e-45 6e-45
0000d0 04 00 00 00 04 00 00 00 04 00 00 00 04 00 00 00
       6e-45 6e-45 6e-45 6e-45
0000e0 04 00 00 00 04 00 00 80 04 00 00 80 04 00 00 00
       6e-45 -6e-45 -6e-45 6e-45
0000f0 04 00 00 80 04 00 00 80 46 fc d9 b1 5c bd 06 34
       -6e-45 -6e-45 -6.3442114e-09 1.2548611e-07
000100 14 1a 79 34 92 58 6a b4 16 fd 5b b4 25 85 fd 33
       2.3199419e-07 -2.182517e-07 -2.0488037e-07 1.18054494e-07
000110 54 27 8e 34 8a 93 b8 34 67 a3 25 b4 db d9 4f b4
       2.6478176e-07 3.438002e-07 -1.5426268e-07 -1.9357633e-07
000120 b1 70 21 34 ab 5a dc 34 6a bc 11 35 b6 af 11 b3
       1.503529e-07 4.1044163e-07 5.429089e-07 -3.392025e-08
000130 e2 16 c9 b3 a6 93 aa b3 ca ac 06 34 f4 60 60 34
       -9.363954e-08 -7.943099e-08 1.2542583e-07 2.0896897e-07
000140 fd 28 0b 33 2f 39 be b2 33 2d 05 33 a9 75 1e 34
       3.2400738e-08 -2.2144915e-08 3.1007584e-08 1.4757701e-07
000150 41 30 f6 33 7e c8 5d b2 4e d6 b5 b3 04 00 00 00
       1.1464045e-07 -1.290948e-08 -8.467451e-08 6e-45
000160 04 00 00 00 04 00 00 00 04 00 00 00 04 00 00 80
       6e-45 6e-45 6e-45 -6e-45
000170 04 00 00 00 b1 9b e6 b2 bd 3b 19 b3 60 7b 20 33
       6e-45 -2.6846324e-08 -3.567742e-08 3.7365112e-08
000180 91 93 5a 34 06 b5 c7 34 2b b8 67 b1 22 bb a2 b2
       2.0356516e-07 3.719835e-07 -3.3719612e-09 -1.894438e-08
000190 1c ae 93 31 c6 da fd 33 2a 95 dc 34 fd 76 ed 31
       4.298057e-09 1.1821025e-07 4.1086724e-07 6.911135e-09
0001a0 85 5c 19 33 f0 2a 81 34 be f1 40 34 db ec 95 34
       3.5707235e-08 2.4059364e-07 1.7969339e-07 2.7925748e-07
0001b0 02 9e 6e 33 61 84 80 34 88 03 08 35 a6 97 8d 34
       5.55574e-08 2.3938176e-07 5.0669087e-07 2.6373635e-07
0001c0 bb 34 b3 33 db 99 c6 33 16 d2 f2 34 ff 3f 37 35
       8.344929e-08 9.2480796e-08 4.522887e-07 6.826594e-07
0001d0 b2 ad f7 34 dd 67 6f 33 04 00 00 80 04 00 00 80
       4.6133715e-07 5.5740987e-08 -6e-45 -6e-45
0001e0 04 00 00 80 04 00 00 80 04 00 00 80 04 00 00 80
       -6e-45 -6e-45 -6e-45 -6e-45
0001f0 85 f9 30 b1 3a c7 5d b0 a2 c8 cd b0 17 4d c1 2f
       -2.5753206e-09 -8.068245e-10 -1.4972736e-09 3.516127e-10
000200 1e aa c9 2f 30 5b 09 b2 a7 92 61 2e 04 00 00 00
       3.6682563e-10 -7.995183e-09 5.128933e-11 6e-45
000210 04 00 00 80 04 00 00 00 65 18 6f b4 2a 6f bd b3
       -6e-45 6e-45 -2.2267484e-07 -8.821219e-08
000220 0b 72 9e b1 8d 4f f3 32 0c 05 f9 32 f7 c7 3c b4
       -4.6113704e-09 2.8325099e-08 2.898971e-08 -1.7581611e-07
000230 8d 97 48 b3 6a 26 62 30 3b 1a d9 32 8c 90 8f 32
       -4.6703963e-08 8.227291e-10 2.5274053e-08 1.6713123e-08
000240 fa 85 06 b4 09 eb 4e b1 82 bb d2 31 c3 1b c8 32
       -1.2528463e-07 -3.0110547e-09 6.1331216e-09 2.3295689e-08
000250 b3 10 c6 b2 04 00 00 00 04 00 00 80 04 00 00 00
       -2.3057828e-08 6e-45 -6e-45 6e-45
000260 04 00 00 00 04 00 00 00 04 00 00 80 7b b8 ab 32
       6e-45 6e-45 -6e-45 1.9990912e-08
000270 ee 28 98 b2 4e 67 8f b3 fb d5 ce b3 19 0e 7f b2
       -1.7713742e-08 -6.6777474e-08 -9.631545e-08 -1.4846159e-08
000280 23 e3 32 31 04 00 00 00 04 00 00 00 04 00 00 00
       2.6031521e-09 6e-45 6e-45 6e-45
000290 a9 74 7b 30 04 00 00 00 04 00 00 00 04 00 00 80
       9.147905e-10 6e-45 6e-45 -6e-45
0002a0 04 00 00 80 d1 a0 98 27 e8 55 0d 2d 04 00 00 00
       -6e-45 4.2362832e-15 8.033997e-12 6e-45
0002b0 04 00 00 00 04 00 00 00 2e a4 fb 27 00 5b 1e 2e
       6e-45 6e-45 6.98445e-15 3.6005865e-11
0002c0 04 00 00 80 04 00 00 00 3c 8e f2 32 e0 e1 07 34
       -6e-45 6e-45 2.8237189e-08 1.2655028e-07
0002d0 04 00 00 00 04 00 00 80 04 00 00 00 04 00 00 80
       6e-45 -6e-45 6e-45 -6e-45
0002e0 04 00 00 80 04 00 00 00 e8 3a 9d b1 5f 53 e2 2f
       -6e-45 6e-45 -4.5759982e-09 4.11684e-10
0002f0 36 ee e1 32 38 70 15 33 c7 ad 26 34 17 97 81 30
       2.6301773e-08 3.479383e-08 1.5523175e-07 9.428928e-10
000300 0d 00 00 00 6a 68 fa 33 ed ee a6 33 a2 15 a5 33
       1.8e-44 1.1660525e-07 7.773438e-08 7.687346e-08
000310 e6 bd 71 b6 ca 6e 72 b6 44 d2 6a b5 92 45 05 35
       -3.6022334e-06 -3.6125298e-06 -8.747777e-07 4.96476e-07
000320 37 7d d2 34 23 91 40 b6 6d 88 0e b6 64 b9 98 b4
       3.9206654e-07 -2.869471e-06 -2.123906e-06 -2.8447096e-07
000330 3a 98 ed 34 bb 90 89 34 f0 ae 05 b6 24 c0 6f b5
       4.425545e-07 2.5623544e-07 -1.9920371e-06 -8.931404e-07
000340 f2 53 6c b4 5c 8a df b3 3a 7f 47 b4 04 00 00 00
       -2.2009752e-07 -1.0409414e-07 -1.8579604e-07 6e-45
000350 04 00 00 00 04 00 00 00 04 00 00 00 04 00 00 00
       6e-45 6e-45 6e-45 6e-45
000360 04 00 00 00 2b 4c 04 36 d5 78 c8 35 ed 7a 61 35
       6e-45 1.9713868e-06 1.4936328e-06 8.399791e-07
000370 e8 d6 f1 34 56 00 3b 34 35 7d c9 35 84 a5 a1 35
       4.5046113e-07 1.7415854e-07 1.5012107e-06 1.2043606e-06
000380 9f f7 24 35 ec 02 2a 34 2c 8f c0 33 c3 a0 5e 35
       6.1455097e-07 1.5833547e-07 8.9667395e-08 8.2935384e-07
000390 c8 18 0f 35 6c 89 51 34 78 10 26 b2 25 68 00 33
       5.330771e-07 1.9514636e-07 -9.666216e-09 2.989704e-08
0003a0 69 4d f0 34 88 3d 75 34 58 f9 c4 33 f6 65 b6 b1
       4.4759807e-07 2.2839788e-07 9.1723166e-08 -5.3084888e-09
0003b0 77 6b 67 b0 ef 2b 62 34 ee f7 9a 33 cb 2a cd 32
       -8.4190027e-10 2.1063873e-07 7.216282e-08 2.3884601e-08
0003c0 10 e1 1b b1 75 d3 f4 2d 04 00 00 80 04 00 00 80
       -2.2683402e-09 2.7833494e-11 -6e-45 -6e-45
0003d0 04 00 00 00 04 00 00 80 04 00 00 80 04 00 00 00
       6e-45 -6e-45 -6e-45 6e-45
0003e0 04 00 00 00 04 00 00 00 04 00 00 00 04 00 00 00
       6e-45 6e-45 6e-45 6e-45
0003f0 04 00 00 00 04 00 00 00 04 00 00 80 04 00 00 00
       6e-45 6e-45 -6e-45 6e-45

exp_avg_sq f4 [256, 31]
000000 ba 65 0f 2b a6 11 29 2b 54 6b 19 2b 99 b1 5f 2a
       5.094498e-13 6.0065353e-13 5.4505467e-13 1.9867995e-13
000010 59 5a 08 2a 4a 6a 1d 2b b8 92 3a 2b 84 51 37 2b
       1.2110572e-13 5.592511e-13 6.628409e-13 6.5127786e-13
000020 7e 99 3b 2a c7 8d 94 29 14 16 05 2b 4e 2b 22 2b
       1.666219e-13 6.597115e-14 4.728173e-13 5.761406e-13
000030 74 6a 2f 2b 9f c0 f4 29 17 61 fb 28 97 68 52 29
       6.2320223e-13 1.0869191e-13 2.7908704e-14 4.6720084e-14
000040 4e c6 10 29 2b 5c 82 28 ce 08 b6 27 8c f2 12 28
       3.2146425e-14 1.447287e-14 5.0524694e-15 8.157222e-15
000050 83 6c 54 28 e7 ac 4d 29 a4 6e a4 29 82 46 f7 29
       1.1791894e-14 4.5669113e-14 7.302256e-14 1.09812346e-13
000060 30 c7 f8 29 f4 01 00 00 f4 01 00 00 f4 01 00 00
       1.1047966e-13 7e-43 7e-43 7e-43
000070 f4 01 00 00 f4 01 00 00 f4 01 00 00 f4 01 00 00
       7e-43 7e-43 7e-43 7e-43
000080 f4 01 00 00 f4 01 00 00 f4 01 00 00 f4 01 00 00
       7e-43 7e-43 7e-43 7e-43
000090 f4 01 00 00 f4 01 00 00 f4 01 00 00 f4 01 00 00
       7e-43 7e-43 7e-43 7e-43
0000a0 f4 01 00 00 f4 01 00 00 f4 01 00 00 f4 01 00 00
       7e-43 7e-43 7e-43 7e-43
0000b0 f4 01 00 00 f4 01 00 00 f4 01 00 00 f4 01 00 00
       7e-43 7e-43 7e-43 7e-43
0000c0 f4 01 00 00 f4 01 00 00 f4 01 00 00 f4 01 00 00
       7e-43 7e-43 7e-43 7e-43
0000d0 f4 01 00 00 f4 01 00 00 f4 01 00 00 f4 01 00 00
       7e-43 7e-43 7e-43 7e-43
0000e0 f4 01 00 00 f4 01 00 00 f4 01 00 00 f4 01 00 00
       7e-43 7e-43 7e-43 7e-43
0000f0 f4 01 00 00 f4 01 00 00 5d b1 30 2c 88 f4 5c 2c
       7e-43 7e-43 2.510956e-12 3.1399622e-12
000100 1a 8a 79 2c 1a fb 22 2c 3e ed 12 2c c0 4c d7 2b
       3.546169e-12 2.3160974e-12 2.0879544e-12 1.5297971e-12
000110 c5 b0 08 2c 6c ef 55 2c 2f 10 c2 2b 7e 5f 93 2b
       1.942489e-12 3.0402026e-12 1.3789021e-12 1.0471483e-12
000120 b0 81 99 2b e8 3d ce 2b 4e 89 7e 2c 92 25 55 2b
       1.0907299e-12 1.4654363e-12 3.617179e-12 7.572494e-13
000130 8b 85 92 2a 52 97 96 2a 92 c9 a9 2a d2 18 93 2b
       2.6027474e-13 2.6750352e-13 3.0160298e-13 1.0451867e-12
000140 02 78 04 2b 94 22 2a 2a 0d f8 33 2b 89 4a 81 2b
       4.7062365e-13 1.511103e-13 6.3937814e-13 9.186689e-13
000150 c6 0f e3 2b b7 89 a8 2b ef b2 20 2b f4 01 00 00
       1.6133698e-12 1.1975342e-12 5.709174e-13 7e-43
000160 f4 01 00 00 f4 01 00 00 f4 01 00 00 f4 01 00 00
       7e-43 7e-43 7e-43 7e-43
000170 f4 01 00 00 de 1c b5 28 25 8e 6a 29 d3 a5 9d 2b
       7e-43 2.0107556e-14 5.2081728e-14 1.1201546e-12
000180 df cd a7 2c 1d fe 21 2d a9 81 8f 26 29 42 86 29
       4.7692818e-12 9.208215e-12 9.957763e-16 5.9622724e-14
000190 e5 4e eb 2c ec 68 35 2d a9 6f 5a 2d 5d 53 90 28
       6.6878608e-12 1.0311956e-11 1.2416659e-11 1.6023365e-14
0001a0 d3 7c bd 2b d5 0b 6d 2d 20 8b 90 2d 0b f5 96 2d
       1.3463903e-12 1.34745175e-11 1.6432689e-11 1.7161847e-11
0001b0 90 1d a2 2a 9e 55 16 2c 60 5d 5b 2d 94 a5 85 2d
       2.8797494e-13 2.136381e-12 1.2469442e-11 1.5193881e-11
0001c0 ff f1 83 2d a5 8c ee 2b 95 b1 8a 2c e0 ef 43 2d
       1.5000444e-11 1.6949954e-12 3.9419115e-12 1.113773e-11
0001d0 49 b5 61 2d 64 2a 56 2d f4 01 00 00 f4 01 00 00
       1.2830023e-11 1.2173904e-11 7e-43 7e-43
0001e0 f4 01 00 00 f4 01 00 00 f4 01 00 00 f4 01 00 00
       7e-43 7e-43 7e-43 7e-43
0001f0 12 43 c0 26 de 88 b9 25 b8 16 e5 25 68 ed a8 23
       1.3340856e-15 3.218513e-16 3.9740562e-16 1.8315142e-17
000200 14 3a 45 25 e6 e3 96 26 47 79 50 23 f4 01 00 00
       1.7106704e-16 1.0470113e-15 1.1301384e-17 7e-43
000210 f4 01 00 00 11 40 4a 22 20 0a 83 2a 9e c0 45 29
       7e-43 2.7410021e-18 2.32773e-13 4.3909856e-14
000220 d6 e4 a0 2b 7a 6f 2a 2b bc 16 52 2a 92 57 17 2b
       1.1432199e-12 6.055084e-13 1.8659634e-13 5.3767505e-13
000230 72 92 48 2a 01 e0 03 2b c9 84 8b 2a 35 cd 9c 29
       1.7814377e-13 4.6851417e-13 2.4783498e-13 6.9633894e-14
000240 90 70 ab 2b 1d de 4a 2b 84 54 db 2a 2a 19 3d 2a
       1.2181523e-12 7.207306e-13 3.896086e-13 1.6795303e-13
000250 06 ea 03 29 f4 01 00 00 f4 01 00 00 f4 01 00 00
       2.9290826e-14 7e-43 7e-43 7e-43
000260 f4 01 00 00 f4 01 00 00 f4 01 00 00 45 fc 8a 29
       7e-43 7e-43 7e-43 6.172193e-14
000270 45 26 b5 27 05 7b ce 29 ed 81 da 2a 7e 80 5b 2b
       5.0279084e-15 9.169578e-14 3.8814733e-13 7.798275e-13
000280 86 d8 bf 26 f4 01 00 00 f4 01 00 00 f4 01 00 00
       1.3311976e-15 7e-43 7e-43 7e-43
000290 62 c9 b0 27 f4 01 00 00 f4 01 00 00 f4 01 00 00
       4.9068153e-15 7e-43 7e-43 7e-43
0002a0 f4 01 00 00 9c 28 e8 28 3c 24 28 25 f4 01 00 00
       7e-43 2.5774786e-14 1.4583954e-16 7e-43
0002b0 f4 01 00 00 f4 01 00 00 9b fa 9d 29 2f 23 53 27
       7e-43 7e-43 7.015674e-14 2.9301205e-15
0002c0 e5 09 93 12 bc 62 ac 28 f3 3b 49 28 87 26 e0 29
       9.279443e-28 1.9138655e-14 1.1170741e-14 9.954282e-14
0002d0 f4 01 00 00 f4 01 00 00 f4 01 00 00 f4 01 00 00
       7e-43 7e-43 7e-43 7e-43
0002e0 f4 01 00 00 f4 01 00 00 50 38 34 28 6b 3a 1c 27
       7e-43 7e-43 1.0004218e-14 2.1681017e-15
0002f0 50 2f 40 2d ea f2 3d 2d 43 27 3a 2c 2a b4 38 26
       1.0924442e-11 1.0797344e-11 2.6453984e-12 6.408199e-16
000300 84 bc 91 27 bb 33 85 2f 3c c1 76 2f ac 31 4b 2e
       4.0449974e-15 2.4229316e-10 2.244222e-10 4.6200974e-11
000310 dc 56 d9 2e 05 85 80 2f 62 ab b2 30 5e 05 6b 30
       9.883447e-11 2.337758e-10 1.2999914e-09 8.550013e-10
000320 39 d0 0f 2f 19 b9 6f 2e 37 39 e8 2e 4f c8 8a 2f
       1.307975e-10 5.4506708e-11 1.0560302e-10 2.5244382e-10
000330 df 91 bc 2e 84 48 2a 2c 32 38 d6 2d af fb 17 2e
       8.575162e-11 2.4198707e-12 2.4353939e-11 3.4556965e-11
000340 ce 32 95 2e 14 b8 e1 2d fc d3 6d 2c f4 01 00 00
       6.78476e-11 2.5661286e-11 3.37974e-12 7e-43
000350 f4 01 00 00 f4 01 00 00 f4 01 00 00 f4 01 00 00
       7e-43 7e-43 7e-43 7e-43
000360 f4 01 00 00 43 ec 68 2e 61 82 5f 2e 6e 13 f6 2d
       7e-43 5.2960535e-11 5.082013e-11 2.797559e-11
000370 8f 79 e2 2c 54 92 f5 2b 25 3c 3f 2e 0a 71 1a 2e
       6.436802e-12 1.7448911e-12 4.348179e-11 3.5115945e-11
000380 55 2e a0 2d 41 94 49 2c 25 52 9d 2b 52 af 03 2e
       1.821047e-11 2.8646115e-12 1.1178321e-12 2.9941667e-11
000390 dc bb 97 2d 80 a7 0b 2d cb 36 79 2b 0b b2 b6 2b
       1.7250139e-11 7.938428e-12 8.853861e-13 1.2981295e-12
0003a0 4a 1b 16 2c e5 2d 75 2b 8f c2 79 2a 75 c6 0b 28
       2.133143e-12 8.7105177e-13 2.2183144e-13 7.7590835e-15
0003b0 f9 62 68 27 bc b8 9f 2b 10 fd b5 2a a4 d0 00 2a
       3.225012e-15 1.1348904e-12 3.2327656e-13 1.144107e-13
0003c0 6d 90 52 26 e1 fd bc 25 9d 37 2e 00 f4 01 00 00
       7.305412e-16 3.2784836e-16 4.244383e-39 7e-43
0003d0 f4 01 00 00 9d 37 2e 00 f4 01 00 00 f4 01 00 00
       7e-43 4.244383e-39 7e-43 7e-43
0003e0 f4 01 00 00 f4 01 00 00 f4 01 00 00 f4 01 00 00
       7e-43 7e-43 7e-43 7e-43
0003f0 f4 01 00 00 f4 01 00 00 f4 01 00 00 f4 01 00 00
       7e-43 7e-43 7e-43 7e-43
