Model/DQN/[S1]net_Q(param).pt (torch, 548578 bytes, 6 tensors)

fc1.weight f4 [256, 270]
0	0x3d9c3837	0.0762791
1	0x3d01fdc8	0.031736165
2	0xbcf54b75	-0.029943207
3	0x3d83ba57	0.06432026
4	0xbce060ec	-0.027389966
5	0x3d417816	0.047233663
6	0x3d0d455a	0.034489967
7	0x3c0c9c16	0.008582136
8	0x3d8e0922	0.06935336
9	0x3d73168b	0.05934767
10	0x3d8c581c	0.06852743
11	0xbbecd85f	-0.007227942
12	0x3d2c396d	0.042046953
13	0x3de048ab	0.1095136
14	0x3c5d6fd1	0.013515429
15	0xbbe77aea	-0.007064213
16	0x3d5beda2	0.05369342
17	0x3c0ef291	0.0087248245
18	0x3d2e99c5	0.042627115
19	0x3d34d4fe	0.044148438
20	0x3d38953f	0.045064207
21	0x3ca075b0	0.019587368
22	0xbcd328e7	-0.02577634
23	0xbbed0ce8	-0.0072342046
24	0x3d48df11	0.049040858
25	0xbc284d0c	-0.010272276
26	0x3bdbaacf	0.0067037116
27	0x3d167f29	0.036742363
28	0x3d71b937	0.059014525
29	0x3d0af5a0	0.033925653
30	0x3baffb32	0.005370521
31	0x3d64d51c	0.0558673
32	0x3d240e0d	0.040052462
33	0xbcbf9a2a	-0.02338894
34	0x3e5e01b7	0.21680342
35	0x3cd6d9b3	0.026226854
36	0x3c4a64c3	0.012353125
37	0x3d39ec90	0.04539162
38	0x3d0cd952	0.03438694
39	0xbca17766	-0.019710254
40	0x3dbaaa2b	0.09114488
41	0x3cfb176f	0.030650822
42	0x3c922718	0.017840907
43	0xbd057d4b	-0.03259019
44	0x3b8fd1fd	0.004389046
45	0x39ad8a57	0.00033100203
46	0x3d0d6576	0.03452059
47	0x3a791ed9	0.0009503193
48	0x3d57f96f	0.052728113
49	0x3cdb2d92	0.026755128
50	0x3cac21c4	0.021012194
51	0x3cb2da26	0.021832537
52	0x3cf01c50	0.029310375
53	0x3c8617c0	0.016368747
54	0xbc06d84f	-0.008230283
55	0x3ccd620e	0.02507117
56	0x3d6fbc08	0.05852893
57	0x3ce2a665	0.027667234
58	0x3d80cb05	0.06288723
59	0xbc8676cc	-0.016414069
60	0x3dacd5e4	0.08439234
61	0xbb9b8a00	-0.0047466755
62	0x3d96d38c	0.07364568
63	0xbceafb5a	-0.028684307
64	0xbd046564	-0.032323256
65	0xbd81f429	-0.06345398
66	0xbd8fc595	-0.07020108
67	0x3bb87d7d	0.0056301937
68	0x3cf14800	0.029453278
69	0x3d529f3b	0.051421385
70	0x3bb56a21	0.005536333
71	0x3c3b89bd	0.011446414
72	0x3d94af93	0.072600506
73	0xbc26cea7	-0.010181106
74	0x3d7c0009	0.06152347
75	0x3cd55ecb	0.026046177
76	0xbd34105a	-0.043960907
77	0x3b2189bb	0.0024648744
78	0x3d88593d	0.06657646
79	0x3d5e49ec	0.054269716
80	0x3b6bd429	0.0035984612
81	0x3d06dfd3	0.0329283
82	0xbcf05d47	-0.029341353
83	0x3cd3ab07	0.025838388
84	0xba858f88	-0.001018987
85	0xbc9a5324	-0.018838473
86	0x3c367db0	0.011138365
87	0x3d334697	0.04376849
88	0xbc7fdcbe	-0.015616594
89	0xbc299c8a	-0.010352263
90	0xbb8bbe8b	-0.004264658
91	0xbcf9fe59	-0.03051679
92	0x3d6a9fc0	0.057281256
93	0xbbf0be61	-0.0073469137
94	0x3c72d4eb	0.014821271
95	0x3d460ca6	0.048351906
96	0x3cb02f86	0.021507036
97	0xbc8e0196	-0.01733474
98	0x3c32844d	0.010895801
99	0x3a7a5c67	0.0009550512
100	0x3d286084	0.04110767
101	0x3d4e5783	0.050376426
102	0x3cc28823	0.023746556
103	0xbabf0d87	-0.0014576175
104	0xbd249e66	-0.040190123
105	0x3c80f71a	0.015742827
106	0x3b8253e0	0.003977284
107	0xbc3ee061	-0.011650176
108	0xbc3e804b	-0.011627267
109	0x3ca00a38	0.019536123
110	0x3d5a30b6	0.05326911
111	0x3d5184f4	0.051152185
112	0x3d018b56	0.03162702
113	0x3c12b08c	0.008953225
114	0xbc6293b4	-0.0138291605
115	0x3d70cfd1	0.05879194
116	0xbcd23d97	-0.025664134
117	0x3d045358	0.032306045
118	0x3d405aca	0.046961583
119	0x3d0979ea	0.033563532
120	0xbd058e7a	-0.03260658
121	0x3d0a5d6a	0.033780493
122	0x3d1afb79	0.03783748
123	0xbb0d6bed	-0.0021579221
124	0xba0d1780	-0.0005382225
125	0x3d828e1a	0.0637476
126	0x3cc9af19	0.024619626
127	0xbc161abf	-0.00916165
128	0x3d00f64b	0.031484883
129	0x3d32051f	0.043461915
130	0x3ca5b68d	0.020228649
131	0x3d387e79	0.04504249
132	0xbcdbe607	-0.026843084
133	0x3d5f1284	0.054461017
134	0xbc21f78d	-0.009885681
135	0x3d8055b8	0.062663496
136	0x3da6a994	0.08137813
137	0xbcadec76	-0.021230917
138	0x3d69f733	0.057120513
139	0x3dc7b0e9	0.0975054
140	0xbcea977c	-0.028636687
141	0xbc77a5fb	-0.015115256
142	0x3da31132	0.07962264
143	0x3d9aedcf	0.0756489
144	0x3d8f2aa2	0.069905534
145	0x3cf60a1f	0.030034123
146	0xbc2feff4	-0.010738362
147	0x3d8eac90	0.069665074
148	0x3cd53ae3	0.026029056
149	0x3d07d027	0.033157494
150	0x3d4722fb	0.048617344
151	0xbceb4aaa	-0.028722126
152	0x3d1b38e6	0.03789606
153	0x3d6beb4e	0.05759745
154	0x3d094de7	0.03352156
155	0x3cdf9212	0.027291331
156	0x3d683072	0.056686826
157	0x3cdcc001	0.026947023
158	0x3d89bbba	0.06725259
159	0xbcdbf2eb	-0.02684923
160	0xbd2698d1	-0.04067308
161	0xbccd50c9	-0.025062935
162	0x3db2ba38	0.08726925
163	0x3da10cd0	0.07863772
164	0x3dae715b	0.085177146
165	0x3ccb56ac	0.024821602
166	0xbc831f64	-0.01600618
167	0x3d458db4	0.04823084
168	0x3ed98db8	0.42490935
169	0xbcb8cf91	-0.022559913
170	0xbd4f49a1	-0.050607327
171	0x3c62d84a	0.013845513
172	0x3da8dfb1	0.08245791
173	0x3c7015d5	0.014653643
174	0x3c219db1	0.009864257
175	0x3daae3d3	0.08344235
176	0xbc89dfe5	-0.016830394
177	0x3be9e0a5	0.0071373754
178	0xbbe9d72b	-0.0071362457
179	0x3daf6756	0.08564632
180	0x3b8cc36a	0.004295756
181	0xbcbb8c28	-0.02289398
182	0x3db221a6	0.08697824
183	0x3c08f2a1	0.0083586285
184	0xbcb1cd8e	-0.021704461
185	0x3c4b8766	0.012422418
186	0x3d2f2b20	0.042765737
187	0xbc88199c	-0.016613774
188	0x3d527fa4	0.05139126
189	0xbb966f6f	-0.0045909206
190	0x3dacc1a0	0.084353685
191	0x3db75688	0.089520514
192	0xb9a6e735	-0.0003183425
193	0x3d867d44	0.06566861
194	0xbc871599	-0.01648979
195	0x3addac39	0.0016912288
196	0xbc352460	-0.011056036
197	0x3d23854b	0.03992204
198	0xbda475bd	-0.08030269
199	0xbd8622ae	-0.065495834
200	0xbd80ee0a	-0.06295402
201	0xbd7a8932	-0.061165996
202	0xbda1613d	-0.07879875
203	0xbd93e3a2	-0.07221152
204	0x3c7743d0	0.015091851
205	0x3d298997	0.04139098
206	0x3d419d24	0.047269
207	0xbce699bc	-0.028149478
208	0xbcfe5d59	-0.031050371
209	0x3d04c43d	0.03241371
210	0xb9c19ea4	-0.00036930025
211	0x3cb958f1	0.022625418
212	0x3c9cdde7	0.01914878
213	0xbcd815b8	-0.026377544
214	0x3b2876a7	0.0025705488
215	0x3d271230	0.04078883
216	0x3cfcf4c5	0.030878434
217	0x3d667d8d	0.05627208
218	0x3bb4de0c	0.005519634
219	0x3dc273c3	0.09494736
220	0x3d2e36e4	0.042532817
221	0xbbdd2ae6	-0.0067494987
222	0x3d5e4a14	0.054269865
223	0x3da68398	0.08130568
224	0xbcb90772	-0.022586558
225	0x3c985795	0.01859645
226	0x3cdebd80	0.02718997
227	0x3c6f1449	0.014592239
228	0x3cbb3720	0.022853434
229	0x3d7c6ce8	0.0616273
230	0x3d146885	0.03623249
231	0x3c993a88	0.018704668
232	0x3cf45bd8	0.02982895
233	0x3d851f47	0.06500106
234	0x3da376cb	0.07981642
235	0x3d3ae766	0.045630835
236	0xbd5d76a4	-0.054068223
237	0x3d47d493	0.04878671
238	0x3cc52866	0.024067115
239	0x3d161c5e	0.036648147
240	0x3ce39d7b	0.027785053
241	0x3d95f358	0.07321805
242	0x3d8b76be	0.06809758
243	0x3d9b1234	0.07571831
244	0x3d2345c1	0.039861444
245	0xbd2d257c	-0.042272076
246	0x3c9cd910	0.019146472
247	0x39a837f6	0.0003208515
248	0xbcf0ef69	-0.029411035
249	0x3d6b9d57	0.057523098
250	0x3c7a6e4e	0.015285088
251	0xbce74134	-0.028229333
252	0x3d846a2d	0.06465564
253	0x3b1d1830	0.0023970716
254	0xbc861994	-0.016369618
255	0x3cf1a972	0.029499743

fc1.bias f4 [256]
0	0x3bd7c5ce	0.0065848595
1	0xbd992ce8	-0.07479268
2	0xbd82de7a	-0.0639009
3	0xbd7f11c1	-0.06227279
4	0xbe1ead41	-0.15495779
5	0xbde830b6	-0.11337416
6	0xbd9b924c	-0.07596263
7	0xbe09d456	-0.13459906
8	0x3c0a9057	0.008457265
9	0xbd814405	-0.06311802
10	0x3c962a0a	0.018330593
11	0xbe1ca280	-0.15296364
12	0xbdca3f51	-0.09875358
13	0xbdf2785e	-0.118393645
14	0xbe0a0521	-0.13478519
15	0xbda0200f	-0.07818615
16	0xbc25f094	-0.010128159
17	0x3b19c1a6	0.002346137
18	0xbdbb1903	-0.0913563
19	0xbcd534cd	-0.026026154
20	0x3b828225	0.0039827996
21	0xbdece4bb	-0.115670644
22	0xbdb22ec4	-0.08700326
23	0xbe42ab8f	-0.19010757
24	0xbd9dae32	-0.07699241
25	0xbe3b2890	-0.18277192
26	0xbe40d6a8	-0.18831885
27	0xbd034a80	-0.03205347
28	0xbd9c448a	-0.0763026
29	0xbddd38e4	-0.10801867
30	0xbce6d468	-0.028177455
31	0xbe395f52	-0.18102768
32	0xbc9d2629	-0.019183235
33	0xbde82396	-0.113349125
34	0xbc09d15e	-0.008411733
35	0xbe0faaad	-0.14029951
36	0xbdb2c368	-0.08728677
37	0xbe067eed	-0.13134356
38	0xbe140563	-0.1445518
39	0xbd43cdc0	-0.04780364
40	0xbe44f73e	-0.1923494
41	0xbd0c8a8c	-0.034311816
42	0xbd4cca10	-0.04999739
43	0xbe58085a	-0.21096936
44	0xbdd5523c	-0.104160756
45	0xbbfbc5b2	-0.007683479
46	0xbe20e13a	-0.15710917
47	0xbe3c8d9c	-0.18413395
48	0x3c6d57a6	0.014486229
49	0xbdb108b8	-0.08644241
50	0xbda915ba	-0.08256097
51	0xbdc679a7	-0.09691172
52	0xbdcb18eb	-0.09916862
53	0xbd625626	-0.05525794
54	0xbda19512	-0.07889761
55	0xbe4c151e	-0.1992993
56	0xbca43c22	-0.020048205
57	0xbd3cd088	-0.04609731
58	0xbda007e1	-0.07814003
59	0xbe41ad86	-0.1891385
60	0xbdb55c56	-0.08855502
61	0xbd1f798e	-0.038934283
62	0xbd9e1978	-0.077197015
63	0xbd9daf13	-0.076994084
64	0xbe2d6fb9	-0.1693715
65	0xbd2510bc	-0.040299162
66	0xbdd5ec08	-0.1044541
67	0x3ca2a0dc	0.019852094
68	0xbc114ae1	-0.00886795
69	0xbe0ae7f4	-0.13565046
70	0xbda0796b	-0.07835659
71	0xbd8fcf6a	-0.07021983
72	0xbd4d0914	-0.050057486
73	0xbdba6324	-0.09100941
74	0xbe41c12f	-0.1892135
75	0xbe507529	-0.20357193
76	0xbd2b037a	-0.041751362
77	0xbde6b4cb	-0.11264952
78	0xbdac21d5	-0.084048904
79	0xbc579dd2	-0.013160186
80	0xbcf89f99	-0.03034954
81	0xbd625d4d	-0.05526476
82	0xbd520718	-0.051276296
83	0xbe5755b1	-0.21028782
84	0xbe12e778	-0.14346111
85	0xbd9cac06	-0.07649998
86	0xbce05787	-0.027385486
87	0xbd1105cb	-0.035405915
88	0xbc3a9917	-0.0113890385
89	0xbdd0f29f	-0.10202526
90	0x3c375f4a	0.011192152
91	0xbdbd33b1	-0.09238375
92	0xbd20608e	-0.03915458
93	0xbe4280d5	-0.18994458
94	0xbe3a9052	-0.18219116
95	0xbdc0d9bf	-0.09416532
96	0xbe1ae3ad	-0.15125914
97	0xbd8db351	-0.069189675
98	0xbcfdf36d	-0.030999864
99	0x3cdd5d03	0.02702189
100	0xbd43cc3d	-0.0478022
101	0xbda20b2c	-0.07912287
102	0xbdac5d28	-0.08416206
103	0xbd95f497	-0.073220424
104	0xbe1f4bac	-0.1555621
105	0xbd2fa8ca	-0.04288558
106	0xbe393adc	-0.1808886
107	0x3ba02fd8	0.004888516
108	0x3a9342c7	0.0011235111
109	0xbd960e35	-0.073269285
110	0xbd88eeab	-0.06686147
111	0xbd55a14d	-0.05215578
112	0x3c67fd01	0.014159442
113	0xbe0dddf3	-0.13854198
114	0xbde5e82e	-0.112259254
115	0xbc15f396	-0.009152314
116	0xbd2ce4e0	-0.04221046
117	0x3b806f46	0.003919515
118	0xbe288eb9	-0.16460694
119	0xbe2d0923	-0.16898017
120	0xbd542011	-0.051788393
121	0xbdd93027	-0.106048875
122	0xbc009e64	-0.007850263
123	0xbdd3c0bb	-0.10339495
124	0xbd4ba526	-0.049718045
125	0xbe46dc93	-0.1942008
126	0xbb2af984	-0.0026088664
127	0x3bb3dd6f	0.0054890434
128	0xbb0c8ec2	-0.0021447395
129	0xbd367092	-0.04454095
130	0xbc53664d	-0.012902808
131	0xbdf30c28	-0.11867553
132	0xbd724684	-0.05914928
133	0xbe474fcc	-0.19464034
134	0xbcd86a21	-0.026417794
135	0xbddaca20	-0.106830835
136	0xbd83e478	-0.06440061
137	0xbe17f96e	-0.14841244
138	0xbe196cde	-0.14982936
139	0xbd51bee0	-0.051207423
140	0xbd2e34c3	-0.042530786
141	0xbdd60257	-0.10449665
142	0xbdc17c55	-0.094475426
143	0xbe20da6f	-0.15708326
144	0xbd818e51	-0.06325973
145	0xbc90c400	-0.017671585
146	0xbd1ca6e2	-0.03824509
147	0xbd0c38cb	-0.03423385
148	0xbde41ded	-0.111385204
149	0xbe445785	-0.19174011
150	0x3cd82bdd	0.026388103
151	0x3cbce2ba	0.02305733
152	0xbdeeb176	-0.11654942
153	0xbda38609	-0.079845496
154	0xbe4e5299	-0.20148696
155	0xbdb001f2	-0.08594121
156	0xbe0abfb9	-0.13549699
157	0xbd5b2f9a	-0.053512193
158	0xbe29c194	-0.1657775
159	0xbc5b1961	-0.01337275
160	0xbc901f6a	-0.017593104
161	0xbd7bcea6	-0.061476372
162	0xbdd6bf93	-0.10485759
163	0xbddf3333	-0.10898437
164	0xbda68d96	-0.08132474
165	0xbd2c9b26	-0.04214015
166	0xbe4ed05a	-0.20196667
167	0xbdecb6aa	-0.11558278
168	0xbde440ed	-0.11145196
169	0xbdd61837	-0.10453837
170	0xbdd622c3	-0.10455849
171	0xbc58acb7	-0.013224772
172	0xbe1d77f7	-0.15377794
173	0xbdcd3ce0	-0.100213766
174	0xbe3c944c	-0.18415946
175	0xbde83b9a	-0.11339493
176	0xbd45dd47	-0.04830673
177	0xbdb4ed73	-0.08834352
178	0xbe1021aa	-0.14075342
179	0xbd6864ea	-0.056736864
180	0xbd73001c	-0.059326276
181	0xbd197f51	-0.037474934
182	0xbe31220b	-0.17298143
183	0xbd913bc5	-0.07091478
184	0x3c513886	0.012769824
185	0xbdc16b02	-0.09444238
186	0xbc9b5dba	-0.01896559
187	0x3be1d736	0.00689211
188	0xbd986362	-0.07440831
189	0xbdb72c1f	-0.08943962
190	0xbdbeae8c	-0.09310636
191	0xbdc0749d	-0.09397242
192	0xbdf37bb1	-0.11888827
193	0xbc1ff7c0	-0.009763658
194	0xbe07cf85	-0.13262756
195	0xbdac697d	-0.08418558
196	0xbca74058	-0.020416424
197	0xbe1e3f8d	-0.1545393
198	0xbd4590f3	-0.048233937
199	0xbe6385c2	-0.22218993
200	0xbd83fdee	-0.064449176
201	0xbd9ff85d	-0.078110434
202	0xbd4e544f	-0.05037337
203	0xbde45ad1	-0.11150134
204	0xbdde4478	-0.10852903
205	0xbdb8b3b1	-0.090186484
206	0xbe26a95c	-0.16275543
207	0xbd83da43	-0.064381145
208	0xbb054987	-0.0020338015
209	0xbdf9382f	-0.12168919
210	0xbdcac20a	-0.09900291
211	0xbd9b1dfc	-0.075740784
212	0x3c37872e	0.011201663
213	0x3a14e186	0.00056793576
214	0xbcd4290e	-0.025898483
215	0xbe1c0b28	-0.15238631
216	0xbe68b5a5	-0.22725542
217	0xbe05824d	-0.13037987
218	0xbda4b335	-0.080419935
219	0xbe30c155	-0.1726125
220	0xbd5f0e52	-0.054457016
221	0xbe11af22	-0.14226964
222	0xbe2029d8	-0.15640962
223	0xbd67fbee	-0.056636743
224	0xbe395c18	-0.18101537
225	0xbd9a2fc1	-0.075286396
226	0xbd3d8478	-0.04626891
227	0xbda8b501	-0.08237649
228	0xbe149953	-0.14511614
229	0xbd5b77dc	-0.053581104
230	0xbdd1ca1b	-0.10243627
231	0xbd4d418b	-0.050111335
232	0xbe42bf0f	-0.19018196
233	0xbd92ead8	-0.07173699
234	0x3edc49bb	0.43025002
235	0xbd8e22af	-0.06940209
236	0xbd55c290	-0.052187502
237	0xbe101264	-0.14069515
238	0x3c181ed6	0.009284696
239	0xbe0d8af2	-0.13822535
240	0xbc044e4b	-0.008075307
241	0xbdb52bd1	-0.08846248
242	0xbdff6a0a	-0.12471397
243	0xbd88b1e7	-0.06674557
244	0xbd78facf	-0.060786065
245	0xbd3ab362	-0.04558123
246	0xbdab942e	-0.083778724
247	0xbdf8e38c	-0.12152776
248	0xbdbe57a2	-0.092940584
249	0xbd9af078	-0.07565397
250	0x3c25c3c2	0.010117473
251	0xbcaf2be1	-0.021383228
252	0xbd14145c	-0.03615223
253	0xbd60547e	-0.054768078
254	0xbd122f0d	-0.035689402
255	0xbd96f596	-0.073710606

fc2.weight f4 [256, 256]
0	0xbd241f24	-0.04006876
1	0x3d825869	0.06364519
2	0xbec8938c	-0.3917507
3	0xbc823787	-0.015895618
4	0xbe2916cb	-0.16512601
5	0xbd202ec9	-0.039107118
6	0x3c1a8e70	0.009433374
7	0x3d0de160	0.034638762
8	0x3baef8cc	0.0053397175
9	0x3c5f185e	0.013616649
10	0xbd54a96b	-0.051919382
11	0x3ad089a0	0.0015910156
12	0x3cc0a49a	0.023515988
13	0xbe16c3ae	-0.14723083
14	0xbd5b0f58	-0.05348143
15	0x3ca7db29	0.020490246
16	0xbc9c8b9f	-0.019109545
17	0x3d303c51	0.043026272
18	0x3db9c98e	0.09071647
19	0xbd49ea5b	-0.049295764
20	0x3d41c3b5	0.04730578
21	0xbe0ab737	-0.13546453
22	0x3d12f693	0.035879683
23	0x3d8d2094	0.068909794
24	0x3c958546	0.018252026
25	0xbe148fc5	-0.14507969
26	0x3e7f398d	0.24924298
27	0xbd80e219	-0.06293125
28	0x3c9db67b	0.019252053
29	0xbe9b08cd	-0.30280152
30	0x3d218009	0.039428744
31	0xbd7c63b4	-0.06161852
32	0xbe12e821	-0.14346363
33	0xbe0137a7	-0.12618886
34	0xbca30bef	-0.019903151
35	0x3d170856	0.036873184
36	0x3b998b02	0.0046857605
37	0xbe64e11f	-0.22351502
38	0x3e11425a	0.14185467
39	0x3dc5e434	0.09662667
40	0xbe1fedf7	-0.1561812
41	0xbd8870e5	-0.06662158
42	0x3d33ac3b	0.043865424
43	0xbe015e1b	-0.12633555
44	0xbe994261	-0.29933456
45	0x3d853223	0.065037034
46	0xbeb1e778	-0.3474691
47	0xbf002e06	-0.50070226
48	0x3ccd135e	0.025033649
49	0x3dab8b49	0.08376176
50	0xbe57a815	-0.21060212
51	0x3d055f41	0.032561544
52	0x3b673c69	0.003528381
53	0xbde97e1e	-0.11401008
54	0x3d09b5cc	0.03362064
55	0xbf1052dd	-0.5637644
56	0x3d2128ff	0.039345738
57	0x3cbe948a	0.023264188
58	0xbd17d3f6	-0.037067376
59	0xbf173dac	-0.5907848
60	0x3d8d1cbb	0.068902455
61	0xbdef6c53	-0.11690583
62	0x3bd9e023	0.0066490336
63	0xbe31f952	-0.17380264
64	0xbe3f3e47	-0.186761
65	0x3d137df7	0.0360088
66	0x3d0ccf7c	0.03437756
67	0xbc537ee4	-0.012908671
68	0xbbb304f3	-0.0054632365
69	0x3e51e1a5	0.20496233
70	0xbc79a3a8	-0.015236773
71	0xbe04fb7c	-0.12986559
72	0xbd8455a3	-0.064616464
73	0x3d4f18d9	0.050560806
74	0xbeb6beac	-0.35692346
75	0x3eb4ad02	0.35288244
76	0x3c413ff5	0.011795034
77	0xbe020bbe	-0.12699792
78	0xbe8030aa	-0.25037128
79	0xbc33b45c	-0.010968294
80	0xbcfde9ba	-0.030995239
81	0x3d505b81	0.050868515
82	0xbca119df	-0.019665657
83	0x3dce7be2	0.100822225
84	0xbf26bf5e	-0.65135753
85	0xbcf6117c	-0.030037634
86	0x3e067ad5	0.13132794
87	0xbd3c2c6f	-0.045940813
88	0x3ca50477	0.02014373
89	0xbe5c5b38	-0.21519172
90	0xbd403824	-0.04692854
91	0x3d5d01a0	0.053956628
92	0xbd18f331	-0.0373413
93	0xbe24bb32	-0.16087034
94	0xbe199f59	-0.15002193
95	0xbcdedb94	-0.027204312
96	0x3e3db69f	0.18526696
97	0x3e4b6551	0.19862868
98	0x3cc813e3	0.024423545
99	0xbb3df9f2	-0.002898809
100	0x3c5fcb2b	0.013659279
101	0x3c8e70bd	0.017387742
102	0xbd91b597	-0.07114714
103	0xbd7bf239	-0.0615103
104	0xbf07619b	-0.5288331
105	0xbd607d7e	-0.05480718
106	0xbef95479	-0.4869726
107	0x3d369501	0.044575695
108	0x3d5876a1	0.05284751
109	0xbc9be47d	-0.01902985
110	0xbe7067be	-0.23477075
111	0x3ad21ac4	0.0016029705
112	0x3bd382c1	0.006454796
113	0xbe1148fa	-0.14187995
114	0xbd76105f	-0.060074206
115	0xbdf0dc6f	-0.11760794
116	0xbd461447	-0.04835918
117	0x3cb075f6	0.021540623
118	0xb9076a29	-0.00012914151
119	0x3e55460d	0.20827504
120	0xbd858947	-0.06520324
121	0xbdf3a664	-0.11896971
122	0x3d17fece	0.037108235
123	0x3e62097c	0.2207393
124	0xbc33c5a1	-0.010972411
125	0x3c8bdb24	0.017072268
126	0xbcc096fe	-0.023509499
127	0xbd25f806	-0.040519737
128	0xbbaad361	-0.0052131866
129	0xbce632b3	-0.028100347
130	0x3c15a8a8	0.009134449
131	0xbe8589a6	-0.2608158
132	0x3d4d55aa	0.050130524
133	0xbe7e9655	-0.24862035
134	0x3d27b04e	0.04093962
135	0xbe0f0a48	-0.13968766
136	0xbe4770c1	-0.19476606
137	0xbe213800	-0.15744019
138	0x3eb6ccba	0.3570307
139	0x3d878899	0.06617851
140	0xbdbf0ee8	-0.09329015
141	0x3d931b7f	0.07182979
142	0x3d88c9cb	0.06679114
143	0xbdd38e38	-0.103298604
144	0x3b990d03	0.0046707406
145	0xbe352135	-0.17688449
146	0x3d71dead	0.05905025
147	0xbce0fa6f	-0.027463166
148	0xbe4c3427	-0.1994177
149	0xbeab5375	-0.3346211
150	0x3b0dc3df	0.002163164
151	0xbcc7974b	-0.024364134
152	0x3e302c3a	0.17204371
153	0x3d800cbc	0.06252429
154	0x3d2238bc	0.039604887
155	0xbb5a89aa	-0.0033346214
156	0x3e4c2dd0	0.19939351
157	0xbd24dc6d	-0.040249277
158	0xbea1da23	-0.31611738
159	0xbce26ad2	-0.027638827
160	0xbd8a8808	-0.06764227
161	0xbe847d73	-0.2587696
162	0xbe9bc354	-0.3042246
163	0x3dce78f0	0.10081661
164	0x3d069821	0.032859925
165	0x3ce33098	0.027733132
166	0xbe724938	-0.23660743
167	0xbec8d5d2	-0.39225632
168	0xbd223d0a	-0.039608993
169	0xbe823d78	-0.25437522
170	0xbe634739	-0.22195138
171	0x3cef7f59	0.029235529
172	0xbc9434f7	-0.018091662
173	0x3d5ee81a	0.054420568
174	0xbd8a9f18	-0.06768626
175	0x3d551980	0.05202627
176	0xbd75e7e8	-0.060035616
177	0x3d17c357	0.037051525
178	0xbe8a1ee8	-0.26976705
179	0x3d19b966	0.037530325
180	0xbd1fa242	-0.0389731
181	0xbdb19ba2	-0.08672263
182	0xbec0f6f3	-0.37688407
183	0xbcf7ec38	-0.030264005
184	0x3d4c8b39	0.04993746
185	0x3c60af53	0.013713676
186	0x3d055a0a	0.03255657
187	0x3aacf3e5	0.0013195245
188	0x3d584173	0.052796792
189	0x3c8c3623	0.017115658
190	0xbdba2dfa	-0.090908006
191	0x3ec60831	0.38678125
192	0x3dd807d1	0.10548366
193	0x3d1ec474	0.03876157
194	0xbe8f5fd6	-0.28002805
195	0x3e299e24	0.16564232
196	0x3d84be89	0.06481654
197	0xbe714e02	-0.23564914
198	0xbd974f8b	-0.073882185
199	0xbdde47fb	-0.10853573
200	0xbd525136	-0.05134698
201	0x3d73e08a	0.05954031
202	0x3d2c2b34	0.04203339
203	0x3e2bc95d	0.16776033
204	0x3e887094	0.2664839
205	0xbd9d9ed2	-0.07696308
206	0xbe8db6f7	-0.27678654
207	0xbd4ffc91	-0.050777975
208	0xbd2b4052	-0.041809388
209	0xbe141cd1	-0.14464118
210	0xbe4138f1	-0.18869378
211	0xbd15ce6c	-0.036573812
212	0xbd351bc1	-0.04421592
213	0xbd51bb02	-0.051203735
214	0x3ca19f8a	0.019729394
215	0x3e0628dc	0.13101524
216	0xbe97c440	-0.29641914
217	0xbea704bd	-0.32620803
218	0xbdf03dac	-0.11730513
219	0xbc133bbe	-0.008986412
220	0x39207517	0.00015302408
221	0x3aacfb00	0.0013197362
222	0x3cc63280	0.024194002
223	0xbd470bbe	-0.048595183
224	0xbd3d0faa	-0.046157517
225	0x3dd6bd54	0.1048533
226	0x3dc7008e	0.09716903
227	0xbd09f49e	-0.03368055
228	0x3e0db06c	0.13836831
229	0xbd5ddebb	-0.05416749
230	0xbce5b1b8	-0.028038844
231	0x3c4a3183	0.012340906
232	0xbe8128b4	-0.25226367
233	0xbc7f22ff	-0.015572309
234	0xbcfb5d7b	-0.030684223
235	0xbd898d4d	-0.06716404
236	0xbca14571	-0.019686433
237	0xbd3c67dd	-0.04599749
238	0x3ca80453	0.020509874
239	0xbecd030b	-0.40041384
240	0xbce59f86	-0.028030168
241	0xbd1c504b	-0.03816251
242	0x3de00993	0.10939326
243	0xbd90c1bf	-0.07068204
244	0xba52690a	-0.00080265163
245	0x3df1e640	0.11811495
246	0xbd6663e3	-0.056247603
247	0x3db65e82	0.08904745
248	0x3de1ced6	0.11025779
249	0xbc76225a	-0.0150228385
250	0xbd5e7ad3	-0.054316353
251	0xbd40c1d2	-0.04705984
252	0xbc211292	-0.009831088
253	0xbc16d900	-0.00920701
254	0x3d6ed5e4	0.05830945
255	0x3c8b5200	0.017006874

fc2.bias f4 [256]
0	0x3e784738	0.24245918
1	0xbd3b40cf	-0.045716103
2	0xbe16fa58	-0.14743936
3	0xbdcb3f7b	-0.09924217
4	0xbdd3d5ed	-0.103435375
5	0x3adced38	0.0016855365
6	0x3ef719b0	0.48261786
7	0xbe0bcbb2	-0.13651922
8	0xbd292e0d	-0.041303683
9	0xbd2864a7	-0.041111615
10	0xbdf4a80a	-0.119461134
11	0xbd948e6f	-0.072537296
12	0xbdd7071a	-0.104994014
13	0xbe2c046a	-0.16798559
14	0xbb25871e	-0.0025257538
15	0x3db50e7d	0.08840654
16	0xbdf82b8a	-0.121176794
17	0xbce8bf00	-0.028411388
18	0xbdd3be29	-0.103390045
19	0x3e56107e	0.20904729
20	0xbe011dd7	-0.12609039
21	0x3e1f32c4	0.1554671
22	0x3c9d710f	0.01921895
23	0xbdd4c4c5	-0.10389093
24	0xbd42f2a8	-0.047594696
25	0xbc794522	-0.015214236
26	0xbdc94bb4	-0.09828892
27	0xbdaa2c93	-0.08309283
28	0x3e12b86f	0.14328168
29	0xbd2b2997	-0.04178771
30	0x3d3140df	0.043274757
31	0x3e2c9e58	0.16857278
32	0xbd9785d5	-0.07398573
33	0xbd55fc59	-0.05224261
34	0xbdfab1f1	-0.12240971
35	0xbe06ec99	-0.13176192
36	0xbd618a78	-0.055063695
37	0xbd092758	-0.033484787
38	0xbd8454d1	-0.0646149
39	0x3c650d2e	0.013980193
40	0xbd3310ac	-0.04371707
41	0xbdbbb927	-0.091661744
42	0x3f561d6e	0.83638656
43	0xbdd6c9e0	-0.10487723
44	0xbe4d0113	-0.20019941
45	0x3f54e2df	0.8315868
46	0xbcc6b1d5	-0.024254719
47	0xbdcd7cf6	-0.100336
48	0x3d1ce199	0.038301084
49	0xbd93fd05	-0.07225994
50	0xbcb276bb	-0.02178513
51	0xbe2e27af	-0.17007326
52	0xbd354a3a	-0.04426024
53	0xbd9cdcb2	-0.07659282
54	0xbdcc1581	-0.09965039
55	0xbafa0947	-0.0019076251
56	0xbdf4d31f	-0.11954331
57	0x3e2408d1	0.16018988
58	0xbd172d5d	-0.036908496
59	0x3e82b4d2	0.2552858
60	0xbdfbacf7	-0.1228885
61	0xbd79b6e6	-0.06096544
62	0xbe2502ed	-0.16114397
63	0x3e370db6	0.17876324
64	0x3dca499a	0.0987732
65	0xbd5adbe7	-0.05343237
66	0x3d50129c	0.050798997
67	0xbd7ccabd	-0.061716784
68	0xbda15ec9	-0.07879407
69	0xbe1620d2	-0.14660957
70	0xbd5fce79	-0.054640267
71	0x3d6920cf	0.056916054
72	0xbc9ab66c	-0.018885814
73	0xbdc0aa2d	-0.094074585
74	0xbddcb5cc	-0.107768625
75	0x3cb3aa0f	0.021931676
76	0xbba2b4dc	-0.004965408
77	0xbd35aed7	-0.044356193
78	0xba3b89a9	-0.0007153997
79	0x3f218470	0.6309271
80	0xbd3b7a91	-0.045771185
81	0x3f5832b8	0.8445239
82	0x3c970056	0.018432777
83	0x3eb749ac	0.35798395
84	0xbe1d183e	-0.15341279
85	0x3e7e08e0	0.24808073
86	0xbda76c10	-0.08174908
87	0xbdaf49fc	-0.08559033
88	0xbca13c0c	-0.019681953
89	0xbe7142ed	-0.23560686
90	0xbd3a3b3d	-0.04546665
91	0xbb91698c	-0.004437631
92	0x3d85ec4f	0.06539213
93	0xbdabeaf3	-0.083944224
94	0xbd42631b	-0.047457796
95	0x3eb8b0ec	0.3607248
96	0xbd9a7999	-0.07542724
97	0xbd839db1	-0.064265616
98	0xbdac8488	-0.08423716
99	0xbc9bf94e	-0.019039776
100	0xbe140f3f	-0.14458941
101	0x3d91b5c9	0.07114751
102	0xbd4c71ec	-0.049913332
103	0x3ac3215d	0.0014887262
104	0xbdd8d4a5	-0.10587434
105	0xbdc660ee	-0.096864566
106	0x3ddac8ad	0.10682807
107	0xbe0a4fe3	-0.13507037
108	0x3e4a4f45	0.19756801
109	0xbd991b9e	-0.07475971
110	0xbddf689d	-0.10908625
111	0xbe462f30	-0.19353938
112	0xbdc2aa65	-0.095051564
113	0xbcc22c59	-0.023702787
114	0xbc153913	-0.009107846
115	0xbe358081	-0.17724802
116	0xbd928c6d	-0.0715569
117	0xbd9f3cb8	-0.07775253
118	0xbd33e65f	-0.04392087
119	0xbe0e9d10	-0.13927102
120	0xbe11773b	-0.14205639
121	0xbd161737	-0.036643233
122	0xbd0fccfb	-0.035107594
123	0xbe06dd5f	-0.13170384
124	0xbd42071e	-0.04737007
125	0xbdd5cd5f	-0.10439562
126	0xbdfaf6f7	-0.12254136
127	0x3e3e01a6	0.18555316
128	0xbdd1e43e	-0.10248612
129	0xbe310def	-0.17290471
130	0xbe15a53b	-0.14613812
131	0x3da69f1e	0.08135818
132	0x3da98393	0.08277049
133	0xbd304249	-0.043031964
134	0xbdc3c690	-0.09559357
135	0xbe022a7d	-0.1271152
136	0xbda4dc2b	-0.08049806
137	0xbd98b10e	-0.074556455
138	0xbcaa0d16	-0.020758193
139	0xbd2577c2	-0.040397413
140	0xbd4c42cf	-0.0498684
141	0x3cb60195	0.022217551
142	0xbd2b4c36	-0.041820727
143	0x3e99e6fd	0.30059043
144	0xbda056e8	-0.07829076
145	0xbdc797a0	-0.09745717
146	0xbe1c8d6c	-0.15288323
147	0xbe411dc9	-0.18859018
148	0x3d22cae6	0.03974428
149	0x3b582d51	0.0032985995
150	0xbdb42394	-0.087958485
151	0xbd72674c	-0.059180543
152	0xbd8d9f10	-0.069151044
153	0x3d3b4152	0.04571659
154	0xbd678f49	-0.05653313
155	0x3dec3b74	0.11534777
156	0xbdf3c35a	-0.11902495
157	0xbd740bd9	-0.05958161
158	0xbcd226b6	-0.025653224
159	0x3e282412	0.1642001
160	0xbe1a9c4c	-0.15098685
161	0xbde5dbe6	-0.11223583
162	0xbdaaeb40	-0.083456516
163	0x3e41a731	0.18911435
164	0x3a7bb853	0.00096023566
165	0xbe092595	-0.13393243
166	0x3f6a8f32	0.9162475
167	0x3bbb94b6	0.005724515
168	0xbdce5e99	-0.10076637
169	0xbe04cae4	-0.12968022
170	0x3d88e38b	0.066840254
171	0xbd26468c	-0.040594622
172	0x3f6d7649	0.92758614
173	0x3dcb02e2	0.09912659
174	0x3dcb287c	0.09919831
175	0xbe4aa23a	-0.19788447
176	0xbd075cb5	-0.033047397
177	0xbd9861e6	-0.07440548
178	0xbd727273	-0.05919118
179	0xbe334b20	-0.17509127
180	0xbc3d24b6	-0.011544397
181	0xbe2f4d8e	-0.17119429
182	0xbcd3c8a6	-0.025852513
183	0xbe07757f	-0.13228415
184	0xbdcfe7e1	-0.10151649
185	0xbbe33855	-0.0069342055
186	0xbd2767f7	-0.040870633
187	0xbe4b6155	-0.19861348
188	0xbe1ad41f	-0.1511998
189	0xbd3e67d2	-0.04648573
190	0x3f3d6d6a	0.7399508
191	0xbd1cd3d2	-0.038287945
192	0xbda59e26	-0.08086805
193	0xbd585227	-0.05281272
194	0x3e49f54a	0.19722477
195	0xbc96e58a	-0.01842
196	0xbd8a5e7f	-0.06756305
197	0x3ba26318	0.0049556606
198	0xbe457846	-0.19284162
199	0x3ec6e93e	0.38849825
200	0xbcf22bf5	-0.029561976
201	0xbd2e74e9	-0.042591963
202	0xbd097cbd	-0.033566225
203	0x3e330ee8	0.17486155
204	0xbdd96bc3	-0.10616257
205	0x3b5a4bd7	0.0033309364
206	0xbe07255f	-0.1319785
207	0x3d9f5286	0.07779412
208	0xbd53cc64	-0.051708594
209	0x3e5c2643	0.2149897
210	0xbd453766	-0.048148535
211	0x3c236349	0.009972402
212	0xbd7d750a	-0.061879195
213	0xbd8ad9c9	-0.067798205
214	0xbe221828	-0.15829527
215	0xbd58fb64	-0.05297412
216	0x3e009eb7	0.12560545
217	0xbda31f9a	-0.07965012
218	0xbcbabecf	-0.022796063
219	0x3e0aa112	0.13538006
220	0x3cd8a02b	0.026443562
221	0xbdebc07e	-0.11511324
222	0xbcf69a6c	-0.030102931
223	0xbdff39c1	-0.124621876
224	0xbe01220f	-0.12610649
225	0xbdd95291	-0.106114514
226	0x3c938867	0.018009378
227	0x3a8d4f24	0.0010781032
228	0xbd82d1f7	-0.06387704
229	0x3e068fe0	0.13140821
230	0xbcda62ab	-0.026658377
231	0x3ce8b82f	0.028408138
232	0xbdd29a54	-0.10283342
233	0x3e8688cf	0.26276252
234	0x3d9f9243	0.07791569
235	0x3d1500f3	0.03637786
236	0xbda16396	-0.07880323
237	0x3f33d505	0.70246917
238	0xbe3ab17a	-0.18231764
239	0x3db888c3	0.0901046
240	0x3c0ce369	0.008599141
241	0x3e7f1c9d	0.24913259
242	0xbd111584	-0.03542091
243	0xbd218f8c	-0.039443538
244	0x3d60478d	0.054755736
245	0x3e67303d	0.22576995
246	0xbca2c519	-0.019869374
247	0xbc26efdb	-0.010189022
248	0xbe3f9254	-0.18708163
249	0xbbb9325d	-0.0056517557
250	0xbe2e7d02	-0.17039874
251	0x3dfc5fd6	0.12322967
252	0xbe2037e6	-0.15646324
253	0xbcd14278	-0.02554439
254	0xbd9cc142	-0.076540485
255	0x3d29f055	0.041488964

fc3.weight f4 [5, 256]
0	0xbe50fc1a	-0.20408669
1	0x3bb0bff6	0.0053939773
2	0x3e618964	0.22025067
3	0x3c312e21	0.010814221
4	0x3dd6eac4	0.10493997
5	0xbcea2847	-0.028583659
6	0xbb31b8f8	-0.0027118307
7	0xbe430583	-0.19045071
8	0x3de323a8	0.11090785
9	0x3ecad71c	0.3961724
10	0x3d9b00a5	0.07568482
11	0x3edc0ed7	0.42980072
12	0x3d9a86d9	0.075452514
13	0x3d9502b4	0.07275906
14	0x3ca4ab0c	0.020101093
15	0x3e11f6dd	0.14254327
16	0x3d80c792	0.06288065
17	0x3e51df98	0.2049545
18	0x3f185bd0	0.59515095
19	0xbc4e455d	-0.01258978
20	0x3af66546	0.0018798492
21	0x3c06ff33	0.008239555
22	0x3e7d1c83	0.24717908
23	0x3ed5394b	0.41645274
24	0x3e4269d4	0.18985683
25	0x3e8a9133	0.27063903
26	0xbcf823bb	-0.030290475
27	0x3e26f386	0.16303834
28	0xbe51a851	-0.20474364
29	0x3ef9bdae	0.48777527
30	0xbae0d887	-0.0017154374
31	0xbe15dba8	-0.14634573
32	0xbda02e23	-0.078213
33	0xbd9934ac	-0.074807495
34	0x3e9b5b15	0.30342928
35	0xbd84dcb0	-0.06487405
36	0x3ca78be1	0.020452442
37	0xbd863f55	-0.065550484
38	0xbd1c55c9	-0.03816775
39	0x3d8c821a	0.068607524
40	0x3e56e476	0.20985588
41	0xbcf56f61	-0.029960336
42	0xbe459f5e	-0.19299075
43	0xbe159204	-0.14606482
44	0x3d8b2f0a	0.06796081
45	0xbe4202d1	-0.18946387
46	0x3e955472	0.2916599
47	0x3e2c30e5	0.16815527
48	0xbe33d387	-0.1756116
49	0xbd50f8f9	-0.05101869
50	0x3e9b920d	0.30384865
51	0x3cfbc051	0.030731352
52	0x3eb07a87	0.3446848
53	0x3e84ae84	0.25914395
54	0x3dc9ce21	0.09853769
55	0xbbff2293	-0.007786104
56	0x3d925251	0.07144607
57	0x3cee6489	0.029100673
58	0xbd96a669	-0.07355959
59	0xbb5387ed	-0.0032277063
60	0x3eb6c81b	0.35699543
61	0xbd300479	-0.042973015
62	0x3eaea689	0.3411143
63	0xbd927316	-0.07150857
64	0x3dd15899	0.10221977
65	0x3e9a6364	0.30153954
66	0x3d2d469f	0.042303678
67	0x3e38272a	0.1798369
68	0xbb20ff5d	-0.002456627
69	0xbdb08b0a	-0.086202696
70	0xbad7df64	-0.0016469774
71	0xbe5669cc	-0.20938796
72	0x3de903aa	0.11377652
73	0xbd3c96cf	-0.04604226
74	0x3cca96c4	0.024730094
75	0x3e7bdf17	0.24596821
76	0xbd88277c	-0.06648156
77	0x3e19cb3d	0.15018936
78	0xbe3802d5	-0.1796983
79	0xbd80b96c	-0.062853664
80	0xbc236692	-0.009973185
81	0xbe545b7a	-0.2073802
82	0x3e95c7b2	0.29253918
83	0xbbeb5330	-0.0071815476
84	0xbc1f4e31	-0.009723232
85	0x3dfb0687	0.12257104
86	0xbd2f5509	-0.042805705
87	0xba2afa86	-0.0006522316
88	0xbd2da11a	-0.042389967
89	0x3ed45414	0.41470397
90	0x3e189aee	0.14902851
91	0xbddc37c6	-0.107528254
92	0xbe4a7511	-0.1977122
93	0xbdcf01de	-0.10107778
94	0xbd863b07	-0.06554227
95	0x3d2267d1	0.03964979
96	0x3d2f04be	0.042729132
97	0x3e333ea8	0.1750437
98	0xbc80547c	-0.015665285
99	0x3ba26ed9	0.0049570617
100	0x3f0c498f	0.5479974
101	0x3bdfa0fc	0.0068246108
102	0xbd1c73fe	-0.038196556
103	0x3bff6a30	0.007794641
104	0xba6d2643	-0.0009046534
105	0xbc88bf8c	-0.0166929
106	0x3e2487de	0.16067454
107	0x3e52f0a6	0.20599613
108	0x3da94882	0.08265783
109	0x3e8e4974	0.27790415
110	0x3d06932e	0.032855205
111	0x3e6f97f0	0.23397803
112	0x3d5645a2	0.0523125
113	0x3c5007ad	0.012697143
114	0x3ebd35e4	0.36955178
115	0x3f25539a	0.6458069
116	0xbd90c774	-0.07069293
117	0xbbb83074	-0.0056210104
118	0x3df95bf5	0.121757425
119	0xbb06db4c	-0.0020577488
120	0xbddfd1f1	-0.10928715
121	0xbe56251f	-0.20912598
122	0x3e557f51	0.20849349
123	0x3c9655aa	0.018351395
124	0x3da23ffb	0.079223596
125	0x3ea29d02	0.31760412
126	0xbe10004b	-0.14062612
127	0xbc2e2735	-0.010629465
128	0xbc8f0ca5	-0.017462084
129	0x3e7446e0	0.23855162
130	0x3e4178cb	0.18893735
131	0xbd9713a3	-0.07376792
132	0xbdb09c0e	-0.08623515
133	0x3e6a6889	0.2289144
134	0x3e69bdcb	0.22826307
135	0x3e5e0a37	0.21683584
136	0xba959dc4	-0.0011414816
137	0x3a879f0d	0.0010347083
138	0x3bcea500	0.0063062906
139	0x3f29f0ca	0.6638304
140	0x3df544e3	0.1197603
141	0x3e10bf60	0.14135504
142	0x3e73dd19	0.23814811
143	0xbbdd0bb9	-0.006745782
144	0x3e8c767a	0.2743414
145	0x3e234b25	0.15946634
146	0x3de09eac	0.10967764
147	0x3eab40ea	0.33447963
148	0x3e24b0f8	0.16083133
149	0xba688321	-0.00088696374
150	0x3e932b0b	0.28743777
151	0xbc24ea75	-0.010065665
152	0x3e6bf6d8	0.23043382
153	0xbea56a82	-0.32307822
154	0x3bb82839	0.0056200293
155	0xbdd5bf8e	-0.10436927
156	0x3e76f329	0.24116196
157	0x3c7c4f05	0.015399699
158	0x3ca44428	0.02005203
159	0xbc09e376	-0.008416047
160	0x3adcee94	0.001685577
161	0x3de6930a	0.11258514
162	0xbba015ea	-0.004885425
163	0xbd7bbf94	-0.061462
164	0xbe390439	-0.18068017
165	0x3db03424	0.08603695
166	0xbe54f70e	-0.20797369
167	0x3d49db3f	0.049281355
168	0x3ed24b5a	0.41073114
169	0x3e7f50d9	0.24933185
170	0xbda68d3e	-0.081324086
171	0x3d065d49	0.032803807
172	0xbe4eced6	-0.20196089
173	0x3e2127cf	0.15737842
174	0xbc89bf70	-0.016814917
175	0x3e913f65	0.2836868
176	0xbce0b86f	-0.027431695
177	0x3eac8caa	0.33701068
178	0x3ca1b3dd	0.019739086
179	0xbcb4ba46	-0.022061478
180	0xbe3234bc	-0.17402929
181	0x3dddc041	0.10827685
182	0xbbbfd446	-0.0058541624
183	0x3b43b322	0.002986141
184	0x3e1be5bb	0.15224354
185	0x3a92d6db	0.0011202948
186	0x3d251706	0.04030516
187	0x3d5440a7	0.05181947
188	0xba862ab2	-0.0010236113
189	0xbc216548	-0.0098508075
190	0x3bf20a3b	0.0073864735
191	0xbc7f8f89	-0.015598186
192	0x3d38a8b5	0.045082767
193	0x3dce2951	0.10066474
194	0x3a1c8868	0.0005971254
195	0x3bbc4d17	0.0057464945
196	0xbd803777	-0.06260579
197	0x3e21cd5e	0.15800998
198	0xbbddedba	-0.006772724
199	0xbbe0bc52	-0.006858387
200	0x3e453a12	0.19260433
201	0x3c811a9c	0.015759759
202	0x3e3b75ef	0.18306707
203	0xbe0acac6	-0.13553914
204	0x3de4b581	0.111674316
205	0x3e42bf22	0.19018224
206	0x3e89a285	0.26881805
207	0x3ce96b5b	0.028493574
208	0x3d8040c9	0.06262357
209	0x3e435130	0.1907394
210	0x3e94936e	0.2901873
211	0x3c9ad87c	0.018902056
212	0x3e99d038	0.3004167
213	0xbe5070b6	-0.20355496
214	0x3cefd10c	0.029274486
215	0xbcf68a35	-0.0300952
216	0x3ecbab92	0.39779335
217	0x3deb7cd2	0.11498417
218	0x3ce2fba6	0.027707886
219	0x3d6b73f8	0.057483643
220	0x3e63d614	0.22249633
221	0xbc9da039	-0.01924144
222	0x3bb3ec2e	0.0054908013
223	0x3e64a3a8	0.22328055
224	0xbdb872f2	-0.09006299
225	0x3e2658bf	0.16244791
226	0xbc003743	-0.007825675
227	0x3c5edf95	0.013603111
228	0x3c2c7bc1	0.010527552
229	0x3d037cb9	0.032101367
230	0x3bc1db7b	0.0059160567
231	0xbc0191dc	-0.007908311
232	0x3e05a442	0.1305094
233	0xbbc96887	-0.006146494
234	0x3dcdb56e	0.100443706
235	0xbc5403d3	-0.012940365
236	0x3e11918f	0.14215682
237	0xbe1303cd	-0.14356919
238	0x3e208e98	0.15679395
239	0xbde4ba29	-0.1116832
240	0xbd95e21b	-0.07318517
241	0x3e19b81e	0.15011641
242	0x3db4aca4	0.08821991
243	0x3e26edb7	0.16301619
244	0x3e14e2bb	0.14539616
245	0xbdd95dd9	-0.10613603
246	0x3ed64af1	0.4185405
247	0xbb4162cf	-0.0029508357
248	0x3defc690	0.11707795
249	0x3eb65d28	0.35617948
250	0x3eab8880	0.3350258
251	0x3e000676	0.12502465
252	0x3e93bb60	0.28853893
253	0x3e995fb1	0.2995582
254	0x3e38451e	0.17995116
255	0xbdbfedba	-0.093715146

fc3.bias f4 [5]
0	0xbf5c6336	-0.86088884
1	0xbf78aed9	-0.97141796
2	0xbf7cffc8	-0.9882779
3	0xbf80d774	-1.0065751
4	0xbf7d6520	-0.9898243
