Model/DDQN/[S0][ego]net_Q(param).pt (torch, 526100 bytes, 6 tensors)

fc1.weight f4 [256, 248]
0	0xbd75c8e5	-0.06000604
1	0xbc68cc52	-0.01420887
2	0x3d437795	0.047721464
3	0xbc9f35b1	-0.019434782
4	0xbb975467	-0.004618216
5	0x3d048c6f	0.03236049
6	0xbd248563	-0.04016627
7	0x3d08650b	0.033299487
8	0x3c7fbdff	0.015609263
9	0x3c3a5907	0.011373765
10	0xbb565588	-0.003270479
11	0xbdc28221	-0.09497476
12	0xbdcd1bcc	-0.100150675
13	0xbdc90814	-0.09815994
14	0xbda8ea54	-0.082478195
15	0x3d2b684e	0.04184752
16	0x3d72db83	0.059291374
17	0xbcf5c6bc	-0.03000199
18	0xbd48bc25	-0.049007554
19	0xbd3c9f3c	-0.046050295
20	0x3c0fd101	0.008777858
21	0xbd088b1e	-0.033335797
22	0x3bdfb98b	0.0068275384
23	0xbcf94f2e	-0.030433264
24	0xbe07eade	-0.13273188
25	0xbc5915f8	-0.013249867
26	0x3d41967a	0.047262646
27	0x3d3a63b3	0.045505237
28	0xbd11d5a5	-0.035604138
29	0x3d5d6d05	0.054059047
30	0xbd700028	-0.0585939
31	0xbd95b9c4	-0.073108226
32	0xbd7ad3b0	-0.061237037
33	0xbd8ddb17	-0.06926554
34	0xb9e4f13d	-0.00043667285
35	0xbd51745e	-0.051136367
36	0x3b9a12e4	0.004701959
37	0xbd6eea41	-0.05832887
38	0x3c67f35a	0.014157141
39	0xbc03ab4d	-0.008036447
40	0xbd665262	-0.05623091
41	0x3ca186b1	0.019717546
42	0x3c30fdbb	0.010802682
43	0xbd74b02b	-0.05973832
44	0x3d250b2b	0.040293854
45	0x3ca65cf0	0.020307988
46	0xbbf5fa64	-0.0075066555
47	0xbde70882	-0.112809196
48	0xbd792066	-0.060821913
49	0xbdba7a96	-0.09105413
50	0x3b6a75e4	0.0035775835
51	0xbbef961d	-0.007311596
52	0xbb0010a1	-0.0019541162
53	0xbb34f4b8	-0.0027611684
54	0x3c7b437d	0.015335915
55	0x3ce8eb7f	0.028432606
56	0x3d8030c7	0.062593035
57	0xbb816c67	-0.00394969
58	0xbd3a9565	-0.04555263
59	0xbc236f82	-0.009975316
60	0x3ca922d6	0.020646494
61	0xbd60f6e3	-0.05492295
62	0xbdc02235	-0.093815245
63	0xbd84d0ed	-0.06485162
64	0x3c386039	0.01125341
65	0x3d2294d5	0.03969272
66	0x3c3c3f5e	0.011489717
67	0x3c7bf819	0.015378975
68	0x3d576948	0.05259064
69	0xbdd65a30	-0.10466421
70	0xbd18cf7e	-0.037307255
71	0x3c1e3aba	0.009657556
72	0xbd7afdd1	-0.061277214
73	0xbc85180b	-0.016246816
74	0xbdcd7e4b	-0.10033854
75	0x3b8f1378	0.0043663345
76	0xbd1aa132	-0.037751384
77	0xbd4f21cb	-0.050569337
78	0xbc81af62	-0.0158307
79	0xbce261db	-0.027634552
80	0xbdad1ae6	-0.08452396
81	0xbd319a8d	-0.04336028
82	0xbdd81146	-0.1055017
83	0xbd5e8abd	-0.05433153
84	0x3d060581	0.032720093
85	0xbc215618	-0.0098471865
86	0xbdb57c3c	-0.088615865
87	0xbd32f60b	-0.043691676
88	0xbdd61955	-0.104540505
89	0xbd3ee293	-0.046602797
90	0xbcdb435a	-0.026765514
91	0xbd98a8e3	-0.074540876
92	0xbd970353	-0.07373681
93	0xbd590183	-0.052979957
94	0x3c02e571	0.007989273
95	0xbc5748ea	-0.013139943
96	0xbd88e935	-0.06685106
97	0xbb691e55	-0.0035571058
98	0xbd1f0d57	-0.03883108
99	0x3bd678a7	0.0065451446
100	0x3c4bbafc	0.012434717
101	0xbd00e6f5	-0.031470258
102	0xbc493a85	-0.012282019
103	0xbd7b6873	-0.061378907
104	0xbd95903a	-0.073029
105	0x3cf929ee	0.030415501
106	0xbc694b75	-0.014239182
107	0x3cb1167c	0.021617167
108	0xbd7fcd90	-0.0624519
109	0xbcf5a97b	-0.029988041
110	0x3c7bc021	0.015365631
111	0xba981d19	-0.0011605351
112	0x3cd95ebc	0.02653443
113	0xbcfdd0a8	-0.030983284
114	0xbd8c24c3	-0.06842949
115	0xbc227e99	-0.009917879
116	0xbcdb092d	-0.026737774
117	0xbd00dc04	-0.031459823
118	0xbd9573e6	-0.072974965
119	0xbc7711b1	-0.015079902
120	0x3d187bf8	0.0372276
121	0xbcf21465	-0.02955074
122	0x3d9605d0	0.073253274
123	0x3d938616	0.07203309
124	0xbcf92fb6	-0.030418258
125	0xbc8ecb0a	-0.017430801
126	0xbcdd4fce	-0.027015593
127	0xbd55993d	-0.052148093
128	0xbd7edadc	-0.06222044
129	0xbc7c83d0	-0.015412286
130	0x3c3567ca	0.0110721085
131	0xbd6d121d	-0.057878602
132	0x3ce3ac81	0.027792217
133	0xbdb04d8d	-0.08608542
134	0xbcd7d326	-0.0263458
135	0xbc90f83f	-0.017696498
136	0xbcd1b3a5	-0.025598357
137	0x3d7c8b16	0.06165608
138	0xbbe1340a	-0.0068726586
139	0x3c8bc23c	0.017060392
140	0x3d94c396	0.072638676
141	0x3d30f98d	0.04320674
142	0x3d3ea336	0.04654237
143	0xbcacf62d	-0.02111348
144	0xbddfcb5e	-0.10927461
145	0x3c863aed	0.01638552
146	0xbcb3d202	-0.021950725
147	0xbd198151	-0.03747684
148	0x3d3607a9	0.0444409
149	0x3c5a29fc	0.013315674
150	0x3c89d4b2	0.016825054
151	0x3d08f940	0.03344083
152	0x3d4f0356	0.05054029
153	0xbde298b6	-0.110642835
154	0x3c95f92e	0.018307295
155	0xbd1fa1db	-0.038972717
156	0xbd4a9729	-0.049460564
157	0xbd1aae3c	-0.03776382
158	0xbb813de4	-0.0039441455
159	0xbd9eeb13	-0.077596806
160	0x3bac40c1	0.0052567427
161	0xbd89fa5e	-0.06737207
162	0xbda5e394	-0.08100048
163	0x3d97c4aa	0.074105576
164	0xbc63434f	-0.013871028
165	0x3d4e8867	0.050423052
166	0x3d9ab433	0.075539015
167	0x3ce552c0	0.02799356
168	0x3d3fd322	0.04683221
169	0xbd09a7e5	-0.033607382
170	0xbd9cbd6a	-0.07653315
171	0x3ccf0959	0.025273012
172	0x3dc76860	0.09736705
173	0x3ca73658	0.020411655
174	0x3d86512a	0.065584496
175	0xbda38cde	-0.07985853
176	0xbda4def4	-0.080503374
177	0x3cb0fc77	0.02160476
178	0xbcb71703	-0.02234984
179	0xbd5fd3c0	-0.0546453
180	0x3d5a58d7	0.05330738
181	0x3d45c858	0.048286766
182	0x3ce8dd56	0.028425854
183	0x3c085283	0.008320454
184	0xbd0dca92	-0.034617014
185	0xbd6e06a0	-0.058111787
186	0xbd6e76a1	-0.058218602
187	0xbe1408d4	-0.14456493
188	0xbd840cc5	-0.06447748
189	0x3cde47cf	0.02713385
190	0xbcd973a2	-0.026544396
191	0x3cabe751	0.020984324
192	0xbd41abbd	-0.047282923
193	0x3c9a7950	0.018856674
194	0x3c004068	0.007827856
195	0x3cfa9df1	0.03059289
196	0xbc7c2228	-0.015389003
197	0xbd96f1bb	-0.07370325
198	0xbd1b8cc8	-0.037976056
199	0xbd81e722	-0.06342913
200	0xbcb67e60	-0.022277057
201	0xbdc147c4	-0.09437516
202	0xbd1e1706	-0.038596176
203	0xbd13487a	-0.03595779
204	0xbcfee52a	-0.031115133
205	0xbd2dfc76	-0.042477094
206	0xbbe0caf7	-0.006860133
207	0xbd18eda3	-0.037336003
208	0xbd25e2b6	-0.04049941
209	0xbda8c0b0	-0.08239877
210	0xbd287304	-0.041125312
211	0xbd9357ea	-0.07194503
212	0xbbdedaca	-0.006800984
213	0xbd1f823d	-0.038942564
214	0xbd00d8db	-0.03145681
215	0xbd5bf755	-0.05370267
216	0x3da48d6c	0.080347866
217	0x3db3fa0c	0.08787927
218	0x3d824bff	0.06362151
219	0xbd1a20b3	-0.03762884
220	0xbcc41511	-0.023935826
221	0x3d22eff3	0.039779615
222	0x3d3cb4b3	0.046070766
223	0xbcb9df78	-0.022689566
224	0xbd15df30	-0.0365898
225	0xbdb67ca5	-0.08910493
226	0xbe1276bf	-0.1430311
227	0x3d0a6bdc	0.03379427
228	0x3d682a53	0.05668099
229	0x3ce58135	0.028015712
230	0x3cb22005	0.021743784
231	0x3d8b2439	0.06794018
232	0xbd07dd88	-0.033170253
233	0xbdf4efe9	-0.11959822
234	0xbd31cc77	-0.043407883
235	0xbda6d78c	-0.08146581
236	0x3c8f9fc8	0.017532244
237	0xbcaee3e4	-0.021348901
238	0x3d29ff55	0.04150327
239	0xbccc8c82	-0.024969343
240	0xbdc1bdd9	-0.09460039
241	0xbd3e95ed	-0.0465297
242	0xbd3d468a	-0.04620985
243	0x3bdb7645	0.0066974484
244	0xbcae96ed	-0.021312201
245	0xbd7fda69	-0.06246415
246	0xbd4c9db0	-0.04995507
247	0xbd887f36	-0.066648886
248	0x3da1157b	0.07865425
249	0x3d18e0f4	0.037323907
250	0xbce2893b	-0.027653327
251	0xbd35fc7c	-0.04443024
252	0xbd3826f7	-0.044959035
253	0x3d4a5909	0.049401317
254	0xbce76efc	-0.028251164
255	0xbdab5af2	-0.08366956

fc1.bias f4 [256]
0	0x3d018dd0	0.031629384
1	0x3d9e6e2b	0.077358566
2	0xbd0cc735	-0.034369666
3	0xbc16d6bd	-0.009206471
4	0x3d642e63	0.0557083
5	0xbd816d28	-0.06319648
6	0x3db0e78b	0.08637913
7	0xbbbe3ff3	-0.005805963
8	0x3e2fc618	0.1716541
9	0x3a44ca3c	0.0007506942
10	0xbdcc6d12	-0.09981741
11	0xbdc83251	-0.09775222
12	0xbccf0692	-0.025271688
13	0x3dfef790	0.124495625
14	0x3e81dd93	0.2536436
15	0xbd5117ab	-0.051047962
16	0x3b867e88	0.004104439
17	0x3d8a8311	0.0676328
18	0x3c9f8024	0.019470282
19	0x3e0e2e31	0.13884808
20	0x3d4467dc	0.04795061
21	0x3c95d82a	0.018291552
22	0x3e746ca9	0.23869576
23	0x3e51e4bd	0.20497413
24	0x3d79eeb6	0.061018668
25	0xbc1c578b	-0.009542356
26	0x3dd7f164	0.105440885
27	0x3c8d6c37	0.017263515
28	0x3e469fc2	0.1939688
29	0xbda5b6eb	-0.080915295
30	0x3d6c44f5	0.05768295
31	0x3c2c3f8b	0.010513197
32	0xbd4323b6	-0.04764148
33	0x3d976edd	0.07394192
34	0xbd5d2e9e	-0.053999536
35	0x3dd7df79	0.10540671
36	0xbc9d509b	-0.019203475
37	0xbd7255e3	-0.05916394
38	0x3ea8207b	0.3283728
39	0x3e81eb1e	0.25374693
40	0xbdafa0ae	-0.08575569
41	0x3e66938f	0.22517227
42	0x3c2da29b	0.01059785
43	0xbddd8a1f	-0.1081736
44	0x3d3f38d4	0.046685055
45	0x3c5d1fe1	0.01349637
46	0x3e7c1a80	0.24619484
47	0x3e950793	0.2910734
48	0xbd310367	-0.043216135
49	0xbd2d4609	-0.04230312
50	0xbca6bb4a	-0.020352978
51	0x3dd71c73	0.10503473
52	0x3bdc853d	0.0067297504
53	0x3d92f099	0.071747966
54	0x3d8083cc	0.06275138
55	0x3d135948	0.035973817
56	0x3df42738	0.11921543
57	0x3af940d0	0.0019016508
58	0xbd085b72	-0.033290334
59	0xbdae7486	-0.08518319
60	0x3e08800b	0.13330095
61	0xbdaff283	-0.08591177
62	0x3d84beab	0.064816795
63	0x3c34e1f3	0.011040199
64	0x3ddf3ee9	0.10900671
65	0xbca6cd59	-0.02036159
66	0x3d273de3	0.040830504
67	0xbd467913	-0.04845531
68	0x3e374c83	0.1790028
69	0xbbe9d82b	-0.007136365
70	0x3e857cf4	0.26071894
71	0xbd8a0994	-0.06740108
72	0xbcb3fda1	-0.021971526
73	0xbcc2b755	-0.02376906
74	0x3c99a55e	0.018755611
75	0x3d4dfce9	0.050290022
76	0x3df561db	0.11981555
77	0xbcf2cc36	-0.029638391
78	0xbbe56d1e	-0.007001533
79	0x3d8d9769	0.06913645
80	0x3ea7c543	0.32767686
81	0x3e46aa21	0.19400837
82	0x3bbc86fa	0.005753395
83	0xbd3631d2	-0.044481106
84	0xbd556a41	-0.052103285
85	0x3d4bb40a	0.049732246
86	0xbd0dbf48	-0.03460625
87	0xbc92d690	-0.017924577
88	0x3ead6799	0.338681
89	0xbda1439e	-0.07874225
90	0xbd2415a3	-0.040059697
91	0xbd171c02	-0.036891945
92	0x3c9877cf	0.018611817
93	0x3dabff10	0.08398259
94	0xbd231107	-0.03981116
95	0x3d0178a0	0.031609178
96	0x3e5756a8	0.2102915
97	0xbda206ad	-0.079114296
98	0x3e540eff	0.20708846
99	0xbcb768a8	-0.022388771
100	0x3d39471d	0.045233835
101	0x3e89a0d4	0.26880515
102	0x3ce5b69a	0.028041173
103	0x3e1ffa2d	0.15622778
104	0xbdbb7a00	-0.09154129
105	0xbc5cfa25	-0.0134873735
106	0x3d2c9329	0.04213253
107	0x3ecfc363	0.40578756
108	0x3ce41e9d	0.027846629
109	0x3ddd5bdd	0.10808537
110	0xbc8dcf89	-0.017310875
111	0x3c8af415	0.01696209
112	0x3d57c4ea	0.052678026
113	0x3e2eaba0	0.17057657
114	0xbcd6d97b	-0.02622675
115	0x3cfd3c85	0.030912647
116	0x3d88d606	0.06681447
117	0xbd192b2d	-0.03739469
118	0x3c9e1d1f	0.019300995
119	0xbdb6e8c6	-0.08931117
120	0xbdf957ee	-0.121749744
121	0x3da02d44	0.07821134
122	0x3e8cf94e	0.27533954
123	0xbd2aa809	-0.041664157
124	0x3cb9aad2	0.022664461
125	0x3df4b448	0.119484484
126	0xbdb72833	-0.08943214
127	0xbcce0f8f	-0.025153903
128	0x3e803c65	0.25046077
129	0x3d6a0f5b	0.05714355
130	0x3e163709	0.14669432
131	0x3e371c6f	0.1788194
132	0x3dd837dd	0.1055753
133	0x3be19c85	0.0068851137
134	0x3e6ce5b6	0.23134503
135	0xbd8372ce	-0.06418382
136	0x3cf4fda2	0.029906098
137	0x3d7d33ca	0.061816968
138	0x3d874439	0.06604809
139	0x3dcf7139	0.101290174
140	0x3e06b600	0.13155365
141	0x3e2474eb	0.16060226
142	0x3e9105a7	0.28324625
143	0x3ebd680c	0.36993444
144	0x3e8c8e39	0.27452257
145	0xbd0ee3ee	-0.03488534
146	0x3e29b872	0.16574267
147	0x3cc8454c	0.024447106
148	0x3db970a3	0.09054687
149	0x3e92a618	0.28642344
150	0x3dd68342	0.10474254
151	0x3df7605f	0.12078928
152	0xbd01849c	-0.031620607
153	0x3eaaf251	0.33387998
154	0xbce73451	-0.028223189
155	0xbcdf1b7f	-0.02723479
156	0x3d41c36c	0.04730551
157	0xbdbfb221	-0.09360147
158	0x3d190cd2	0.037365742
159	0x3e17a8a4	0.14810425
160	0x3c1dc0cb	0.009628485
161	0x3ca6741e	0.02031904
162	0xbd9d8121	-0.07690645
163	0xbdd31d77	-0.10308354
164	0xbce21c10	-0.027601272
165	0x3e8c0e39	0.273546
166	0x3d61a076	0.055084668
167	0x3d5ec93c	0.05439113
168	0xbd70dae4	-0.0588025
169	0x3da40eba	0.08010621
170	0xbd413468	-0.04716912
171	0x3c93ffff	0.018066404
172	0x3ea9fa1d	0.33198634
173	0x3d8b82b0	0.06812036
174	0x3e688238	0.22705925
175	0x3db9087c	0.090348214
176	0xbc973a72	-0.018460486
177	0xbcd19474	-0.025583483
178	0x3dc416b4	0.09574643
179	0x3e32a9e5	0.17447622
180	0xbdc9453b	-0.09827658
181	0x3db77ec1	0.08959723
182	0x3e0c59dc	0.13706154
183	0x3d89bf0a	0.06725891
184	0x3e6e3f1d	0.23266263
185	0x3e915bcf	0.28390357
186	0x3dd13f4c	0.10217151
187	0x3e63bca7	0.22239934
188	0x3d10e130	0.035371006
189	0x3e2d1e22	0.16906026
190	0xbdcdc498	-0.10047263
191	0x3e5810ec	0.21100205
192	0x3d2d20e1	0.042267684
193	0xbd205a76	-0.03914877
194	0x3d89fdcf	0.06737863
195	0x3e24e1c0	0.16101742
196	0xbdb2e970	-0.08735931
197	0xbd7cf098	-0.061752886
198	0xbd963b80	-0.073355675
199	0xbda3de28	-0.08001357
200	0xbcdac1fb	-0.026703825
201	0x3d252cbb	0.04032586
202	0x3df97b04	0.121816665
203	0xbd0a290e	-0.03373056
204	0x3e1b0489	0.15138449
205	0x3d13d7a8	0.036094338
206	0x3d0afae0	0.03393066
207	0x3e9b5911	0.3034139
208	0x3de49c1c	0.11162588
209	0xbd937f37	-0.07201999
210	0x3daa5f0b	0.08318909
211	0xbdbb22c2	-0.09137489
212	0x3dbd7701	0.09251214
213	0xbda1cfa3	-0.07900932
214	0x3dc59378	0.09647268
215	0x3e81052c	0.25199258
216	0xbd4a5e85	-0.049406547
217	0xbd813b81	-0.063101776
218	0x3de9a2fc	0.1140804
219	0x3d5b8eae	0.053602867
220	0x3da07303	0.07834437
221	0x3df2b629	0.118511505
222	0xbd1c9b1d	-0.038233865
223	0x3d2d502a	0.04231278
224	0x3dab5530	0.083658576
225	0xbd33a217	-0.043855753
226	0x3ddbbce8	0.107293904
227	0xbbbe9f2d	-0.005817315
228	0x3d349baf	0.044093784
229	0xbcabb330	-0.020959467
230	0x3e97e14b	0.29664072
231	0x3df8b06a	0.12143023
232	0x3e0364ec	0.12831467
233	0xbcac4fe5	-0.02103419
234	0x3de59b29	0.11211235
235	0x3c9f388b	0.019436141
236	0x3db172cf	0.08664476
237	0xbbcb11a2	-0.0061971704
238	0x3e2a6e05	0.16643532
239	0xbb3fce12	-0.0029267115
240	0xbd8d6a2a	-0.06905015
241	0xbd8ced0f	-0.06881153
242	0xbd5fe0a6	-0.0546576
243	0xbd84f257	-0.06491535
244	0x3b024a4d	0.0019880712
245	0x3e2d2bf0	0.16911292
246	0x3d6f106e	0.058365278
247	0xbdb66685	-0.08906273
248	0x3df6c242	0.120487705
249	0x3df150a5	0.1178296
250	0xbc6b7ac9	-0.014372536
251	0x3dd79dfb	0.10528179
252	0x3e882392	0.26589638
253	0xbd0dbf7a	-0.034606434
254	0x3dfed3c8	0.12442738
255	0x3cc51d9f	0.024061976

fc2.weight f4 [256, 256]
0	0x3d1b029e	0.037844293
1	0xbc69a00f	-0.014259352
2	0xbd072807	-0.032997157
3	0x3d99d8d8	0.07512063
4	0x3cad81d2	0.021180067
5	0x3dad3ad5	0.08458487
6	0xbd3d8be3	-0.046275984
7	0xbb06791a	-0.002051896
8	0x3d4b49fb	0.0496311
9	0x3d8937d5	0.06700102
10	0xbc17de64	-0.009269331
11	0xbd937962	-0.07200886
12	0x3c8d604c	0.017257832
13	0x3d32898a	0.0435882
14	0x3e032242	0.12806037
15	0xbcf3988f	-0.029735832
16	0xbc3f496e	-0.011675222
17	0x3d8880ab	0.066651665
18	0x3d9e36bc	0.077252835
19	0x3d3744be	0.044743292
20	0xbce2700f	-0.027641324
21	0x3d9750e2	0.07388474
22	0x3de11d49	0.10991914
23	0x3db3daee	0.08781992
24	0xbc8fb98e	-0.017544534
25	0xbc9430dc	-0.018089704
26	0x3d099447	0.033588674
27	0x3e017e69	0.12645878
28	0x3dcdb97d	0.10045145
29	0x3da4f73f	0.08054971
30	0x3c8b611c	0.017014079
31	0x3c4d34fb	0.012524839
32	0xbcbf248d	-0.023332858
33	0xbc8cbf6e	-0.017181125
34	0x3dd36f17	0.10323923
35	0xbc7ed578	-0.015553825
36	0xbc733455	-0.01484402
37	0x3c728615	0.014802475
38	0x3d2d37d0	0.042289555
39	0x3da5d3ee	0.08097063
40	0xbd247396	-0.040149294
41	0x3e0c59b1	0.1370609
42	0x3d2485c4	0.04016663
43	0x3ca8b02e	0.020591822
44	0xbd1ae39f	-0.037814733
45	0x3d9cf90e	0.07664691
46	0x3dac75b9	0.08420891
47	0x3d6d78d7	0.05797657
48	0xbc2b3a81	-0.01045096
49	0xbd1669e0	-0.036722064
50	0x3b924680	0.0044639707
51	0x3c4eaf83	0.012615087
52	0xbc808374	-0.015687682
53	0x3d57f54a	0.05272416
54	0x3d86009e	0.065430865
55	0x3d1f1a59	0.038843486
56	0x3d09c0d8	0.033631176
57	0x3cb2fb59	0.021848368
58	0xbca55c92	-0.020185743
59	0xbd1c1586	-0.038106464
60	0x3d5834ef	0.052784856
61	0x3daf525c	0.08560631
62	0x3d78335b	0.06059585
63	0x3d9b7e93	0.075925015
64	0x3d6642d3	0.056216072
65	0xbd353e6b	-0.04424898
66	0x3d22b336	0.03972169
67	0xbd8f72da	-0.07004328
68	0x3d503b47	0.05083778
69	0x3dc47a94	0.095936924
70	0x3d95a611	0.07307065
71	0xbcc452e4	-0.023965307
72	0x3cd8dc0a	0.02647211
73	0xba771e9d	-0.0009426864
74	0xbc9231e8	-0.017846063
75	0xbd895e7a	-0.06707473
76	0x3d86a6c3	0.06574776
77	0x3bc3ec16	0.0059790714
78	0x3cb4ae5a	0.022055794
79	0xbca6dfeb	-0.020370444
80	0x3de04cfd	0.10952184
81	0x3dd1eecf	0.10250627
82	0x3ca209c6	0.019780051
83	0x3cc7abba	0.024373878
84	0xbc0743d7	-0.00825592
85	0xbd5b70de	-0.053574435
86	0x3d17317f	0.036912438
87	0xbd816308	-0.06317717
88	0x3d4bfe95	0.049803335
89	0xbcd9f7f1	-0.026607485
90	0xbd923b1c	-0.071401805
91	0xbcce54b5	-0.025186876
92	0xbd0f9d6a	-0.03506223
93	0xbc64a9be	-0.013956485
94	0xba9dba0c	-0.0012033596
95	0x3d983075	0.074311174
96	0x3c28cea9	0.010303178
97	0xbdad6474	-0.084664255
98	0x3ca7652d	0.020433987
99	0xbd060081	-0.032715324
100	0xbd13b04e	-0.03605681
101	0x3db84b47	0.08998733
102	0xbd3b8664	-0.04578246
103	0x3d8637c2	0.06553604
104	0x3d98badd	0.07457516
105	0xbd968f72	-0.07351579
106	0xbd2bc731	-0.04193801
107	0x3d9f6f1a	0.07784863
108	0xbd0f8d79	-0.03504703
109	0xbc379ea3	-0.011207256
110	0xbab7726a	-0.001399589
111	0x3be49d17	0.0069767344
112	0x3d9f5c7b	0.07781311
113	0x3c6e6aec	0.014551859
114	0xbd1ee54f	-0.038792904
115	0x3d3bada4	0.045819893
116	0xbcc63831	-0.024196716
117	0xbc46fc7e	-0.01214516
118	0xbd36477d	-0.04450177
119	0xbcf71f8d	-0.030166412
120	0xbd473ee3	-0.048643958
121	0x3ad3518f	0.0016122329
122	0x3d86e323	0.06586292
123	0xbd0f70a4	-0.03501953
124	0x3c958bfd	0.018255228
125	0xbce62d99	-0.028097915
126	0x3dcaccff	0.09902381
127	0x3d4c1da0	0.04983294
128	0x3df93458	0.12168187
129	0x3d529536	0.05141183
130	0x3d097363	0.033557307
131	0x3dce00eb	0.10058769
132	0x3d55c771	0.052192155
133	0x3c9584b4	0.018251754
134	0x3d6cbaa6	0.05779519
135	0xbd89a6ca	-0.067212656
136	0x3d16c705	0.036810894
137	0xbd1f20ed	-0.03884976
138	0xbcb2c834	-0.02182398
139	0x3d6a1b0a	0.057154693
140	0xbd32ed32	-0.04368324
141	0x3e06fafc	0.1318168
142	0x3dd8e91f	0.10591339
143	0x3e05e53d	0.13075729
144	0x3dcf7904	0.10130504
145	0x3e0ebd55	0.13939412
146	0x3cd11e0c	0.025527023
147	0x3c708105	0.014679198
148	0x3d4e52f4	0.05037208
149	0x3c8b1eac	0.016982399
150	0x3d888b42	0.06667186
151	0x3d4a5675	0.049398858
152	0xbd1cebb3	-0.038310718
153	0x3de9d20e	0.11417018
154	0x3d8818b2	0.06645335
155	0xbd3588d3	-0.04431994
156	0x3cd588c7	0.026066197
157	0xb92d0401	-0.00016500057
158	0xbb3d0991	-0.0028844813
159	0x3da0b399	0.078467555
160	0xb9f431a7	-0.000465763
161	0xbbf5c755	-0.007500569
162	0x3d6db5f6	0.05803486
163	0xbd6857d8	-0.0567244
164	0xbc825841	-0.015911223
165	0x3c6bec08	0.014399536
166	0xbc3683ae	-0.011139793
167	0x3dbecaa5	0.09315995
168	0xbd792674	-0.060827687
169	0xbd1bc786	-0.038032077
170	0xbc25e36c	-0.010125022
171	0xbbe5235f	-0.006992742
172	0x3dc72c04	0.09725192
173	0xbd6ccc05	-0.057811756
174	0x3d926851	0.07148803
175	0xbcc95c74	-0.024580218
176	0xbdc0ee7c	-0.09420487
177	0x3d97618b	0.07391652
178	0x3d2e5d14	0.042569235
179	0x3cd0a217	0.025467915
180	0x3d8c66e1	0.0685556
181	0x3d4c14a6	0.04982438
182	0x3d3e8cec	0.046521112
183	0x3caf8a9d	0.0214284
184	0x3d6c372d	0.057669807
185	0x3c72acbd	0.014811692
186	0x3d3146de	0.043280475
187	0x3e14355e	0.14473483
188	0x3cfb66da	0.030688692
189	0x3cb5cd4d	0.022192622
190	0xba013fcf	-0.00049304677
191	0x3c58531c	0.013203409
192	0x3d722e2d	0.059126068
193	0x3abe904b	0.0014538852
194	0x3d5e8107	0.05432227
195	0x3cd0dff6	0.025497418
196	0x3d662e76	0.056196652
197	0xbc7facd0	-0.015605167
198	0xbda8997a	-0.08232398
199	0xbc0876b3	-0.008329081
200	0xbd935703	-0.071943305
201	0x3d9be4f1	0.076120265
202	0x3d9d2fab	0.076751076
203	0xbc9c0361	-0.01904458
204	0x3dc15d5f	0.09441637
205	0x3d9ffb54	0.07811609
206	0x3ce007fa	0.027347554
207	0x3dff7771	0.124739535
208	0x3d0090cf	0.0313881
209	0x3c4b80bd	0.01242083
210	0x3dd17e1f	0.10229134
211	0x3d4d641e	0.050144307
212	0x3d8f4502	0.06995584
213	0xbbc67eb3	-0.006057584
214	0x3c41b2ba	0.011822397
215	0x3da14504	0.07874492
216	0x3d07b882	0.033134945
217	0x3d9e153c	0.07718894
218	0x3d350a79	0.04419944
219	0xbd175da4	-0.036954537
220	0x3bd919c5	0.0066253864
221	0xbca525fb	-0.020159712
222	0xbd813f60	-0.06310916
223	0x3d0941b1	0.033509914
224	0x3cc5d878	0.024151072
225	0xbc8fa0d0	-0.017532736
226	0xbba841e9	-0.00513481
227	0xbcfcedfc	-0.030875199
228	0xbaff1768	-0.0019461932
229	0x3dace5f2	0.08442296
230	0x3e1bba41	0.15207769
231	0x3d808817	0.06275957
232	0x3caa1f16	0.020766776
233	0xbcc7121c	-0.024300627
234	0x3b20a82a	0.0024514296
235	0x3d1d3a87	0.038385894
236	0x3dd0a370	0.10187423
237	0x3d0f41a5	0.034974713
238	0x3ca3e082	0.020004515
239	0xbc908016	-0.017639201
240	0x3c83c447	0.016084803
241	0x3d64b57f	0.05583715
242	0x3cabfcb9	0.020994531
243	0x3d70246d	0.05862849
244	0xbced0183	-0.028931385
245	0x3db6bc83	0.089226745
246	0x3d4d6c53	0.050152134
247	0xbdabd282	-0.083897606
248	0x3c301025	0.010746037
249	0x3da713be	0.081580624
250	0x3cff3e74	0.03115771
251	0x3d874c2e	0.06606327
252	0x3dbc49dd	0.09193776
253	0x3ce29954	0.027661003
254	0x3cd0a710	0.025470287
255	0x3d8d32ad	0.06894431

fc2.bias f4 [256]
0	0x3e5da980	0.2164669
1	0xbd9018f5	-0.0703601
2	0xbd2978bc	-0.041374907
3	0xbd773035	-0.06034871
4	0x3e4d8ffa	0.20074454
5	0xbc4d6411	-0.012536065
6	0x3c390525	0.01129273
7	0x3cbf13ae	0.023324814
8	0xbd61944e	-0.055073075
9	0x3e168e5e	0.14702746
10	0xbd871860	-0.06596446
11	0xbd220a64	-0.03956069
12	0x3c8b841b	0.017030766
13	0xbc6c627f	-0.01442778
14	0x3cb0afac	0.021568142
15	0xbda0a9fb	-0.07844921
16	0xbd4fccaf	-0.05073231
17	0xbcf181f5	-0.029480914
18	0x3d488814	0.0489579
19	0x3c9a395f	0.018826185
20	0x3d3c3abf	0.045954462
21	0xbc47276c	-0.012155395
22	0x3b7c75f7	0.003852246
23	0xbaf69f17	-0.0018815723
24	0x3c54ceaa	0.012988726
25	0x3c0b3faf	0.00849907
26	0xbd36adc0	-0.044599295
27	0x3e4c6ae0	0.19962645
28	0xbd47b64e	-0.048757844
29	0x3b0ccc69	0.0021484143
30	0x3d7f8621	0.062383775
31	0x3d8a3fc6	0.06750445
32	0x3ba33918	0.0049811713
33	0xbd060db1	-0.0327279
34	0xbd42166a	-0.047384657
35	0x3d9cf0fc	0.076631516
36	0x3c03c368	0.008042194
37	0xbcb0a823	-0.021564549
38	0x3e3111a8	0.17291892
39	0x3c8cc1ff	0.017182348
40	0xbd7547de	-0.05988299
41	0x3e1e3509	0.15449919
42	0xbc941c54	-0.018079914
43	0xbd0213d6	-0.0317572
44	0xbd4d99a3	-0.050195348
45	0x3c81b6ac	0.015834175
46	0xbb7628a0	-0.0037560835
47	0xbd0c74d1	-0.034291092
48	0xbcd00f30	-0.025397867
49	0x3d821dd7	0.06353348
50	0x3d70682c	0.058693096
51	0x3de87d69	0.11352045
52	0xbcbacaf4	-0.022801854
53	0x3cdc8003	0.02691651
54	0x3dc3a6c8	0.095532954
55	0x3dca2c0f	0.09871685
56	0x3e547dd4	0.20751125
57	0x3d196b7f	0.037456032
58	0x3c60e638	0.013726763
59	0x3ea89f96	0.32934254
60	0xbd0cba1e	-0.034357183
61	0x3deb8012	0.11499037
62	0x3c1cc4af	0.009568377
63	0x3e062324	0.13099343
64	0x3d397f84	0.045287624
65	0x3c65b3ba	0.014019901
66	0x3ccbb8ca	0.024868388
67	0xbc8993dd	-0.01679414
68	0xbd5a4eac	-0.053297684
69	0xbd4858d1	-0.048912827
70	0x3da8997d	0.082324006
71	0xbd5de450	-0.054172814
72	0x3a8fa2d7	0.0010958564
73	0xbd6ffcf7	-0.058590855
74	0xbd3b6254	-0.04574807
75	0xbbd5bdee	-0.0065228855
76	0x3d4e3622	0.050344594
77	0x3d6ca7ee	0.057777338
78	0x3c49aca2	0.012309225
79	0xbd1243cf	-0.0357092
80	0xbbcbd2d5	-0.0062202015
81	0x3c931c82	0.01795793
82	0x3e083e96	0.13305125
83	0xbd95a505	-0.073068656
84	0xbd8a9df9	-0.06768412
85	0x3e6f1808	0.23349011
86	0xbc78db1f	-0.015188961
87	0x3e2b067a	0.1670169
88	0x3e4ffa70	0.20310378
89	0xbd8f8f8b	-0.070098005
90	0x3dff0407	0.1245194
91	0xbd7feb7b	-0.06248043
92	0xbc12f9a7	-0.008970655
93	0xbd9e1803	-0.077194236
94	0x3e0b1e42	0.13585761
95	0x3c8108dd	0.015751297
96	0x3dfdec56	0.12398593
97	0xbc4d5946	-0.0125334915
98	0x3dbba6db	0.091626845
99	0x3bc2a0a6	0.005939561
100	0xbb9ff2b4	-0.0048812274
101	0xbcd31bfa	-0.025770176
102	0x3c941d68	0.018080428
103	0x3e24ce88	0.1609441
104	0x3d36ba03	0.04461099
105	0xbbd3d096	-0.0064640744
106	0xbd85734f	-0.06516134
107	0xbc2b47bd	-0.010454115
108	0xbd68d2ba	-0.05684159
109	0x3c8d49e2	0.017247144
110	0xbcb01919	-0.021496342
111	0xbc82e98e	-0.015980508
112	0x3d1935a6	0.03740468
113	0xbd0d8b3b	-0.03455661
114	0x3d3d2915	0.046181757
115	0x3e66436f	0.22486661
116	0x3e541fba	0.20715228
117	0xbd403435	-0.04692479
118	0xbd90d875	-0.07072536
119	0x3cc19b25	0.023633549
120	0xbc6172a3	-0.013760242
121	0xbd04b416	-0.032398306
122	0x3cb5857d	0.022158379
123	0x3df7cb87	0.12099367
124	0xbba96b81	-0.005170286
125	0xbc23c444	-0.009995524
126	0xbd8b4263	-0.06799772
127	0xbcc6edb7	-0.024283273
128	0x3e4bf9fd	0.19919582
129	0xbbaae67f	-0.0052154656
130	0x3d371bdb	0.0447043
131	0x3e27d464	0.16389614
132	0x3defb6b3	0.11704769
133	0xbc19a74c	-0.009378266
134	0x3c9ac08c	0.018890642
135	0x3d6da2bf	0.058016535
136	0xbd5e3eff	-0.054259297
137	0xbd812c2c	-0.06307253
138	0x3e62e28f	0.22156738
139	0x3cdab689	0.026698368
140	0x3d8a90f2	0.067659274
141	0x3de8df6e	0.11370741
142	0xbd848800	-0.064712524
143	0xbc08e3b6	-0.008355072
144	0xbcb1dea4	-0.021712609
145	0xbc9971dd	-0.018731052
146	0x3da46fda	0.080291465
147	0x3c83d1e8	0.016091302
148	0x3e085087	0.13311969
149	0x3d406af3	0.046976995
150	0x3d39e25c	0.04538189
151	0xbcaf8c23	-0.021429127
152	0x3e0ae43f	0.13563631
153	0xbd516a2e	-0.05112665
154	0x3d38790f	0.045037325
155	0x3c361e5f	0.0111156395
156	0x3db45063	0.08804395
157	0xbd4a720c	-0.04942517
158	0x3d222977	0.039590325
159	0xbc3263e2	-0.010888072
160	0x3e0dc2d3	0.13843851
161	0x3e104775	0.14089759
162	0xbd672746	-0.05643394
163	0xbcc0afe6	-0.023521375
164	0xbce81ac7	-0.028333081
165	0x3d6efb55	0.058345158
166	0x3d5acd25	0.053418297
167	0xbd3807f0	-0.044929445
168	0x3c4a5e98	0.0123516545
169	0x3e84eced	0.2596201
170	0x3c7ca540	0.015420258
171	0x3e2cc188	0.16870701
172	0x3e2a5969	0.1663567
173	0xbd227ca6	-0.039669655
174	0x3e087f86	0.13329896
175	0xbd6849d1	-0.05671102
176	0xbd05e82f	-0.03269213
177	0x3e1e71b8	0.15473068
178	0x3dd9a0aa	0.10626347
179	0x3d4f266c	0.05057375
180	0xbd9424a6	-0.07233553
181	0xbd78e7b8	-0.06076786
182	0x3d01bfdb	0.03167711
183	0x3ca3385f	0.01992434
184	0x3e894da0	0.26817036
185	0x3deffa9b	0.11717721
186	0xbd16a094	-0.036774233
187	0x3d890000	0.06689453
188	0x3e4b7e46	0.19872388
189	0x3d261a82	0.040552624
190	0x3de3767b	0.11106583
191	0x3dd5d8fb	0.10441776
192	0x3d070223	0.032961022
193	0xbc83efde	-0.016105589
194	0xbd864c98	-0.06557578
195	0x3d2884fb	0.041142445
196	0xbd545568	-0.051839262
197	0x3d7b98c2	0.061424978
198	0xbd9c8b19	-0.07643718
199	0x3e3d9621	0.18514301
200	0x3e5be7b7	0.21475111
201	0xbcdb7ba2	-0.026792351
202	0x3de79a61	0.11308742
203	0xbd934653	-0.07191148
204	0xba07c2b4	-0.00051788543
205	0x3d684982	0.056710728
206	0xbbe4d6a0	-0.006983593
207	0x3bd66319	0.006542575
208	0xbcd93352	-0.02651373
209	0x3d9f20c9	0.07769925
210	0xbd02a048	-0.031891137
211	0xbcf173d6	-0.02947418
212	0x3dab7b94	0.0837318
213	0x3b86e103	0.004116179
214	0xbcf4acb1	-0.029867502
215	0xbb79cc1a	-0.0038116039
216	0x3d16a04c	0.036773965
217	0xbd35220a	-0.044221915
218	0x3e1193a4	0.14216477
219	0xbd42857d	-0.047490586
220	0x3e43bd5f	0.19115208
221	0x3e4d917b	0.20075028
222	0xbd958895	-0.073014416
223	0xbd690e0f	-0.056898173
224	0xbd8015b6	-0.06254141
225	0x3e880ce8	0.26572347
226	0x3e46ff8f	0.19433425
227	0x3d0feec8	0.03513983
228	0xbcd39bbe	-0.0258311
229	0x3e097eb2	0.13427237
230	0xbcf23e40	-0.029570699
231	0x3b1734ee	0.002307232
232	0x3dfacb5c	0.12245819
233	0xbd8c3985	-0.068469085
234	0xbd5fb4b7	-0.054615702
235	0x3b46af6b	0.003031696
236	0xbc71ec31	-0.014765785
237	0xbd3067e3	-0.043067824
238	0xbbcd8c4d	-0.0062728287
239	0x3ce88b13	0.028386628
240	0x3e37a7af	0.1793506
241	0x3d1a7aa3	0.03771461
242	0xbbabeb57	-0.0052465606
243	0x3d1533fa	0.03642652
244	0xbd15a3bf	-0.036533114
245	0x3b8fbebd	0.0043867514
246	0xbc131f34	-0.008979607
247	0x3dcc85a9	0.09986431
248	0xbd9e9a29	-0.077442475
249	0x3db31472	0.08744134
250	0x3bd79aac	0.0065797176
251	0x3c754c91	0.014971868
252	0xbd5c4441	-0.05377603
253	0x3da76540	0.08173609
254	0x3e3d9bf9	0.1851653
255	0x3d7d26c8	0.061804563

fc3.weight f4 [5, 256]
0	0x3d6d5635	0.05794354
1	0xbd14bf16	-0.036315046
2	0xbdb6e7d9	-0.0893094
3	0x3d3ac753	0.045600247
4	0x3d94e13a	0.07269521
5	0x3d585019	0.052810762
6	0x3d2e09f2	0.042489953
7	0x3cb14117	0.021637483
8	0x3dc54a09	0.09633262
9	0x3d366041	0.04452539
10	0xbcdc06d6	-0.026858728
11	0x3cfd8eac	0.03095182
12	0xbd233a63	-0.039850604
13	0xbd07b380	-0.03313017
14	0x3d8f4beb	0.06996902
15	0x3cb38898	0.021915719
16	0xbd0e7277	-0.03477713
17	0xbcd26b0b	-0.025685808
18	0x3cdd13aa	0.026986916
19	0x3db43078	0.08798307
20	0x39ee7d33	0.00045488178
21	0x3c358826	0.011079824
22	0xbcb85f6f	-0.022506444
23	0xbd79cce0	-0.0609864
24	0x3d06dff7	0.032928433
25	0x3dbf8c5a	0.09352942
26	0xbd284052	-0.041076966
27	0x3dca4451	0.098763116
28	0x3af48831	0.0018656311
29	0xbd205790	-0.039146006
30	0x3d8fb104	0.07016185
31	0x3d0174e4	0.031605616
32	0x3da0230c	0.07819185
33	0xbcdc7256	-0.026909988
34	0x3c91178e	0.017711427
35	0x3d1a3738	0.037650317
36	0xbc9f481f	-0.01944357
37	0xbd2d3fed	-0.042297293
38	0x3d111169	0.035416994
39	0xbdca54ba	-0.098794416
40	0x3c0bcda8	0.008532919
41	0x3d224855	0.039619762
42	0x3d8ccc27	0.068748765
43	0xbd6eaf81	-0.058272842
44	0xbcb82051	-0.022476347
45	0xbbf91ab1	-0.007602059
46	0x3da67ffd	0.081298806
47	0x3d97c9e4	0.074115545
48	0xbd29e4ea	-0.041478075
49	0x3d53aae4	0.051676646
50	0x3d5962d0	0.05307275
51	0x3d41d530	0.047322452
52	0x3cb0f510	0.02160123
53	0xbcbd1fcc	-0.023086451
54	0x3d0cdf6a	0.03439275
55	0x3d0a0d9d	0.03370439
56	0x3d44ffe4	0.0480956
57	0x3d9e25cd	0.07722054
58	0xbd4b6319	-0.049655054
59	0x3d99eafe	0.07515524
60	0x3cbd582c	0.023113333
61	0x3d99d1fa	0.07510753
62	0x3c7af01e	0.015316037
63	0x3d800c35	0.06252328
64	0x3c75b743	0.014997306
65	0x3c85d274	0.016335703
66	0xbd4f9a8a	-0.05068449
67	0xbc4ec0cb	-0.012619208
68	0xbcc06924	-0.023487635
69	0x3da090c5	0.078401126
70	0x3cbe0835	0.023197273
71	0x3d1087ec	0.035285875
72	0x3daf46ff	0.08558463
73	0x3d21762e	0.039419346
74	0x3c9e3366	0.019311618
75	0xbc4934af	-0.012280627
76	0xbc07fbe9	-0.008299806
77	0x3ca88c60	0.020574749
78	0xbdf94665	-0.1217163
79	0x3d10dcd4	0.035366848
80	0x3d3cd0c1	0.04609752
81	0xbc41a6ed	-0.011819583
82	0x3d04f625	0.032461304
83	0x3c724f28	0.01478938
84	0x3d2619b4	0.040551856
85	0x3da71827	0.081589036
86	0x3c40d2f8	0.011769049
87	0x3d6d1163	0.05787791
88	0x3d3a7c00	0.045528412
89	0xbd3c7f56	-0.046019875
90	0x3c8ab73f	0.016933082
91	0x3ca46148	0.020065919
92	0x3c618386	0.013764268
93	0x3c60c2a0	0.013718277
94	0x3d9c70b7	0.07638686
95	0x3d67ba82	0.056574352
96	0x3d057f26	0.03259196
97	0xbc92f9f8	-0.01794146
98	0x3c89c4d6	0.016817492
99	0xbd0d0d96	-0.034436785
100	0xbd0c9d5c	-0.034329757
101	0xbdafa796	-0.08576886
102	0xbd3553c3	-0.044269335
103	0x3d79df92	0.06100423
104	0x3d1852fa	0.037188508
105	0x3c579b4c	0.013159584
106	0x3b75d840	0.0037512928
107	0x3d397970	0.045281827
108	0x3d0f2074	0.03494306
109	0xbc982f08	-0.018577114
110	0x3d30b22b	0.043138664
111	0x3dcbe8ec	0.09956536
112	0xbdad155f	-0.08451342
113	0xbc970b4c	-0.018438004
114	0xbe593f47	-0.21215545
115	0x3d857f0b	0.06518372
116	0x3d5406e7	0.051764395
117	0x3d5099d2	0.050927944
118	0xbd9affae	-0.07568298
119	0x3cc8a354	0.024491943
120	0xbbee83bd	-0.007278888
121	0xbd1612ea	-0.03663913
122	0xbcb4fa53	-0.02209202
123	0x3d52c24c	0.051454827
124	0x3d3b8d9d	0.04578935
125	0xbd16cef3	-0.036818456
126	0xbcdf402c	-0.02725228
127	0x3d24dc70	0.040249288
128	0x3d54f6f1	0.051993314
129	0x3bd125ba	0.006382671
130	0xbd91ee0c	-0.07125482
131	0x3db3fc48	0.08788353
132	0x3cfe5bf8	0.031049713
133	0xbd7de18a	-0.06198267
134	0xbd60820f	-0.054811534
135	0x3cdc2c6f	0.026876656
136	0xbd191514	-0.037373617
137	0x3d32232e	0.04349058
138	0x3d685f82	0.05673171
139	0x3a560bf9	0.0008165236
140	0x3c8fef25	0.017570088
141	0x3cdf94fc	0.027292721
142	0xbd378213	-0.044801783
143	0x3c702fdf	0.014659851
144	0x3dbe9347	0.09305435
145	0xbad3631e	-0.0016127562
146	0x3d369a29	0.044580612
147	0xbdd741b7	-0.10510581
148	0x3d13fe94	0.036131456
149	0xbe996667	-0.2996094
150	0xbdd901eb	-0.10596069
151	0xbc95c1e2	-0.018280927
152	0x3d644b6a	0.055735983
153	0xbd5b40a2	-0.053528436
154	0x3cc8ca5c	0.024510555
155	0x3d67bcde	0.056576602
156	0x3d9e5915	0.07731835
157	0x3d1384ff	0.036015507
158	0xbd2db373	-0.042407464
159	0x3b6b0a50	0.00358643
160	0x3d8b30e7	0.06796437
161	0x3dcaaa1a	0.098957255
162	0xba6bf280	-0.0009000674
163	0xbbebd7b2	-0.0071973437
164	0xbd39440a	-0.045230903
165	0x3d5ee55d	0.054417957
166	0x3d4a2233	0.04934902
167	0xbd17e968	-0.037087828
168	0x3dabaefb	0.08382984
169	0x3d600743	0.054694425
170	0x3c65f134	0.014034558
171	0x3d039ea8	0.03213373
172	0x3d5cbb1f	0.05388939
173	0x3c1fafa9	0.0097464705
174	0x3d0b1347	0.03395393
175	0x3ccdd8b6	0.02512775
176	0x3c1cfd04	0.009581808
177	0x3d9c1886	0.07621865
178	0x3d348f51	0.04408199
179	0x3da1f371	0.07907761
180	0xbced5f50	-0.028976113
181	0xbb6b8000	-0.0035934448
182	0x3d9edc3e	0.077568516
183	0x3cace037	0.021103008
184	0x3d56b05d	0.052414287
185	0x3cfbad44	0.030722268
186	0xbd2a53a1	-0.04158366
187	0x3cfb8ab2	0.030705784
188	0x3d4023e8	0.046909243
189	0xbd460d81	-0.048352722
190	0x3d9c19d2	0.07622112
191	0x3d49143e	0.04909157
192	0xbd1964c0	-0.0374496
193	0x3d784869	0.06061593
194	0x3b43606d	0.0029812113
195	0x3d2e32d1	0.04252893
196	0x3c122668	0.00892029
197	0x3ce3729c	0.027764611
198	0xbd26280f	-0.040565547
199	0x3dc682f3	0.09692945
200	0x3daf3e9b	0.08556863
201	0xbcdfb7dd	-0.027309353
202	0x3da505ad	0.08057723
203	0xbd73f746	-0.05956199
204	0xbcd501a1	-0.026001753
205	0x3d33c2d5	0.04388698
206	0x3cbe3131	0.023216816
207	0xbd19be73	-0.037535142
208	0xbd2c9c76	-0.0421414
209	0x3cd5fc64	0.026121326
210	0x3c96fa2e	0.018429842
211	0x3d2cc699	0.042181585
212	0x3d447f56	0.047973
213	0xbd3b75c0	-0.045766592
214	0xbbb7bb8e	-0.005607075
215	0xbd4af5ab	-0.049550693
216	0x3dba041b	0.09082814
217	0xbdad920a	-0.0847512
218	0x3d629607	0.05531886
219	0x3cc894e8	0.024485067
220	0x3da9e82e	0.08296238
221	0x3d794642	0.06085802
222	0xbc4bf5c0	-0.012448728
223	0x3da82ec1	0.082120426
224	0xbd73ae6c	-0.059492514
225	0x3dcc6efb	0.09982105
226	0x3d88f651	0.06687606
227	0x3d62758a	0.055287875
228	0x3d25d11f	0.040482637
229	0x3d8a1450	0.067421556
230	0x3d3d327e	0.04619073
231	0xbdbe39b6	-0.09288351
232	0x3d9081fc	0.070560426
233	0x3ce1e465	0.027574727
234	0x3db04091	0.08606065
235	0xbd43c4a6	-0.04779496
236	0x3d4f8058	0.050659508
237	0x3cb96bbf	0.022634385
238	0x3db6467a	0.08900161
239	0xbd0344ab	-0.03204791
240	0x3da202e7	0.0791071
241	0x3d861d3f	0.06548547
242	0xbcf82c15	-0.030294457
243	0x3d174e9c	0.036940202
244	0xbd1f0e82	-0.038832195
245	0x3bf06342	0.007336051
246	0x3d577c3d	0.052608717
247	0x3d50efcb	0.051009934
248	0xbd5fb737	-0.054618087
249	0x3d863d82	0.065547004
250	0x3d53192a	0.05153767
251	0xbd8bdf31	-0.0682968
252	0xbc71ca60	-0.014757723
253	0x3c9fd08c	0.019508623
254	0x3da2d7a8	0.079512894
255	0x3d327032	0.04356403

fc3.bias f4 [5]
0	0x3d2dd4a6	0.042439125
1	0x3dabfb65	0.08397559
2	0x3d94b12d	0.07260356
3	0x3dabfda8	0.083979905
4	0x3d535913	0.05159862
