Model/DDQN/[S1][semiconv_ego]net_Q(param).pt (torch, 329646 bytes, 6 tensors)

fc1.weight f4 [256, 56]
00000000: 5ed6 1dbf 8055 debe 0a9d 05be b405 033e
00000010: 665c 703d e3bc 56be aeb0 abbe d012 75bd
00000020: 0b7d adbe 3e1a bebe 30fe 0b3e 5329 54be
00000030: cf00 593b 920a 73be ac12 ebbe 7c77 103d
00000040: d52c 32bd 4416 c83c dc82 29be 7d36 9fbe
00000050: 040c 5d3e 0e65 a5bd d3a6 5c3d 04a6 4fbe
00000060: ea4f a9be bd7a 9bbe 7e95 c4be 9bfb 18be
00000070: 2e34 a13d ce00 5d3e 55bc 213d 7a96 09be
00000080: d1c3 1ebc 3bc7 4abd 6bab fdbd e693 ce3d
00000090: d741 47be eab6 58bd 5953 a53c c9d2 b2be
000000a0: e430 dc3d 3dad 1bbe b26d 9e3d 164f 03be
000000b0: c635 bbbe 1ce4 d53d 564f 44be 979e 43be
000000c0: 65b7 6cbd 8fed eebe 95f3 99be 52dc 163e
000000d0: 2f79 c6bc aef2 d03d 429d 223e f702 15be
000000e0: 3da5 dd3d f49f 1f3d 0426 f13d 5051 873d
000000f0: 6c73 4d3d 4fcd 9b3d 9484 d1bd eada 45bb
00000100: cb7a 063d 656f 20bb 9336 bbbc b599 1dbe
00000110: 1886 16be c554 2f3e 2ab9 b9bc bde9 1abe
00000120: d748 0f3c 11c9 88bd fb17 243d 574e 4bbe
00000130: 6212 08be 1906 b3bd d869 583d b9ec 2cbe
00000140: 35ee 05be 2b6b 313e e8be 2abd 32e0 193d
00000150: 5ac3 853d 611d dabd 3f74 383d 18a8 02be
00000160: f007 3c3e 4a78 303d b8d8 54be 34ee bd3c
00000170: 08cb 143d 63dc 8dbd 0335 c13d eda9 02be
00000180: caa2 a73d 0513 1abe 1d99 263e 2e2a 7e3e
00000190: a7cc 6c3b ec19 6fbc dead d0bc bb3a 483e
000001a0: 310b 693d 8c33 81bd 24cf b1bc 4653 22bf
000001b0: 531e 343e 6329 cdbe 7900 19bf 5f14 023e
000001c0: 998a a8be e28a 37be 95d9 9dbe 66c6 04bf
000001d0: ce71 5abf 513d 8ebe 0ff8 a9bd b9f3 8dbe
000001e0: 8fba 6abe d32b f9be a935 c7be 2ed1 3bbe
000001f0: 9c86 b3bd a8c8 f1bd 3268 ddbe dba9 5cbd
00000200: 8b50 15bd 48ef 10be 95a4 c5bd b23c fdbe
00000210: ac79 e5bc 6993 29be 7948 f13c e12a 3ebe
00000220: 2c0b 0bbf bfd3 98be 6da8 60be 41ca 8dbe
00000230: c0fe f4be d90f 64bf 5ba8 11be a328 c0bc
00000240: b9dd 24be 2fa3 99bd de99 0abf cb84 b6be
00000250: 5ad4 cebd 38b2 6ebc 11c6 60bd edde c4be
00000260: e6a4 0cbe e526 1cbe 9058 4b3d bbbc b6bc
00000270: d168 98be f48e e8bb 8a38 bebd 27d2 aebc
00000280: a78e 97be 41d7 36bf f6bb 72be 1f15 bb3c
00000290: c6c6 743e 3dbd a6bd c437 853d 0dcc 00be
000002a0: 2fb1 a13d 6ad3 863c 895a 0abe 6950 04bc
000002b0: 3e24 27be a7c3 ec3d 4b14 88bd 4277 4abe
000002c0: d2cc 5abe 5891 1ebd a7b7 83bc 59b9 29bc
000002d0: 25c1 5cbc 1b6d a43c 0bcf 04be 6864 22be
000002e0: 0781 aebd 2c2b 17be b2b7 82bc 516e 9c3d
000002f0: 7384 2cbd c8af 3ebc d6de 063d 1034 273d
00000300: 633d 33be 741a 233d a9d4 823b 26e0 c33c
00000310: 8833 5a3d 165c 06be bb1b 0e3c f36a 2fbe
00000320: 9e52 ccbd 8ef7 fabb df4e 68bd c501 07be
00000330: a37b 3c3b 7811 16be 71b5 ed3b fad7 a63c
00000340: 019d 173d dc7f 24bd e6e6 3abd 5f7e 07be
00000350: 7f4d 2fbd 93b3 a1bd 39cb 05be 0cfe 41bd
00000360: 89a9 a8bb 5a6a 3c3d 0e69 0a3e de40 12be
00000370: dd18 04be b6d9 ccbc 10dd 27be 99b9 833d
00000380: 2725 243d 190a 44be da1a 09be 44d6 a33b
00000390: 7179 2abf 93e0 55bd 9e67 3ebe f814 e1bd
000003a0: dec4 913d 92ac 87be 50b2 a8be 52c6 cdbe
000003b0: c779 15be 7366 f2bd 3d77 82be badf ffbe
000003c0: 709d c7bd bfe9 0bbe 3966 35be d1c4 73be
000003d0: 2318 843d d834 efbb fc7d 80be 5d3d cdbe
000003e0: 5a06 08bf 3a23 573d 0ce3 2239 9603 11bc
000003f0: 1f8b 9ebd 41ad 06bf 615c 23be 1228 4bbe
-0.61655223 -0.43424606 -0.13048187 0.12795144 0.058681868 -0.20970492 -0.33533233 -0.059832394
-0.33884463 -0.37129396 0.13671184 -0.20718889 0.0033112054 -0.23734501 -0.45912683 0.0352702
-0.043499786 0.02442468 -0.16553825 -0.3109626 0.21586615 -0.08075915 0.053870033 -0.20278174
-0.33068782 -0.3036708 -0.38395303 -0.1493973 0.078712806 0.21582338 0.039486248 -0.13436309
-0.009690241 -0.049506407 -0.12386211 0.10086803 -0.1945871 -0.052908815 0.020181345 -0.3492644
0.10751513 -0.15202804 0.077357665 -0.12823138 -0.36564463 0.10443899 -0.1917089 -0.19103466
-0.057792086 -0.46665618 -0.3006865 0.14732483 -0.024227707 0.102025375 0.15880302 -0.14551912
0.10822532 0.038970903 0.11774829 0.06607306 0.050158903 0.07607519 -0.102303654 -0.0030190297
0.03283195 -0.0024480459 -0.022853171 -0.15390666 -0.1469959 0.17122181 -0.0226713 -0.15128227
0.008745394 -0.066789754 0.040061932 -0.19854103 -0.13288262 -0.087413974 0.052835315 -0.16887178
-0.1307915 0.17326038 -0.04168597 0.037567325 0.06531401 -0.10650135 0.045032736 -0.12759435
0.18362403 0.043083467 -0.20785797 0.023184873 0.03632644 -0.06926801 0.09433939 -0.12760134
0.081853464 -0.15046318 0.16269346 0.24820778 0.0036132724 -0.014593583 -0.025473531 0.19553654
0.05689544 -0.0630866 -0.021705218 -0.63408315 0.17589693 -0.40070638 -0.59766346 0.12703083
-0.32918242 -0.17924073 -0.30830064 -0.5186523 -0.853299 -0.27781156 -0.082992665 -0.27725008
-0.22922729 -0.48666248 -0.38908127 -0.18341514 -0.08765909 -0.1180585 -0.43243557 -0.053872924
-0.036453765 -0.14153779 -0.09650532 -0.4946037 -0.02801212 -0.16560139 0.029453503 -0.18571045
-0.5431392 -0.2984905 -0.2193925 -0.2769337 -0.4785061 -0.8908668 -0.14224379 -0.023456877
-0.16100205 -0.07501828 -0.5414103 -0.35648188 -0.100990966 -0.014568858 -0.05487639 -0.3845133
-0.13734779 -0.15249212 0.049645007 -0.02230679 -0.2976747 -0.0070971195 -0.09288128 -0.021340443
-0.29601023 -0.714222 -0.23704514 0.02283722 0.23903951 -0.08141563 0.06504777 -0.12577839
0.07895123 0.016458232 -0.13511099 -0.008075812 -0.16322419 0.11560755 -0.066444956 -0.19772056
-0.21367195 -0.03871283 -0.016078783 -0.010359132 -0.013473784 0.020071557 -0.12969606 -0.15858614
-0.08520704 -0.14762563 -0.015956733 0.07638229 -0.0421185 -0.011638589 0.032927357 0.040821135
-0.17503886 0.03982015 0.003992636 0.023910593 0.0532718 -0.13121065 0.008673604 -0.17130642
-0.099766955 -0.0076589053 -0.056715842 -0.13184269 0.0028760217 -0.14655101 0.0072542955 0.020366658
0.037014965 -0.040161 -0.04563036 -0.132318 -0.042798515 -0.07895579 -0.13065805 -0.04736142
-0.0051471633 0.045999862 0.13516638 -0.14282557 -0.1290011 -0.025006156 -0.16392922 0.06431884
0.040074494 -0.19144477 -0.1338915 0.0049999077 -0.66591555 -0.052216124 -0.18594214 -0.109903276
0.071176276 -0.26498848 -0.32948542 -0.4019037 -0.14597236 -0.11835947 -0.25481597 -0.49975377
-0.09746826 -0.13663386 -0.17714776 -0.23805548 0.06449916 -0.0073000006 -0.25096118 -0.4008588
-0.5313469 0.05252383 0.00015534105 -0.008850953 -0.07741379 -0.52608114 -0.15953209 -0.19839504

fc1.bias f4 [256]
00000000: 85e2 c0be 67bc 7e3d d3ec 50be e1d7 8cbe
00000010: 3cd7 c2bd 6f3f 473e 1846 b53e 5d50 93bd
00000020: 44a1 d5bd 11b6 43be c077 483e 70d2 24be
00000030: 2952 48be e84c dfbb ba91 98bc ce25 403e
00000040: b23d 30be da6f e23e d9a5 1abe 455d a73e
00000050: 402e 363e 46e2 2abd 1e0a dcbd befc 84be
00000060: 8f3f ef3e e62a 83bd 3257 a33d 6894 a7bd
00000070: 1d31 b73d b815 a5bd 100c 74be 85e6 c83c
00000080: f2bd ecbe c959 6bbe 9c33 1fbc f3fe 6f3b
00000090: ee6e 60bd 6f9f f8bb 8679 923f bb7e 943e
000000a0: 1053 483f 78c4 b9be 9f94 153e 6af8 f2bd
000000b0: 8945 6cbe b0fd 90bc 39ba 253d 0da1 aabe
000000c0: 1842 e8be 187a 57bd 4462 703e b6ad 083b
000000d0: 465e 7ebc a57f 31be 691a 333f b06f 823f
000000e0: ab21 eabe bbd4 46be b481 803e 5a4a e6bc
000000f0: f4fd de3e 9741 db3e 065b 9cbe 62da 43bd
00000100: d962 82be 307d 63bc 24f2 12be 59c7 67be
00000110: 44e6 d13a d137 993d 2ad9 9ebe f075 62be
00000120: c02a 0bbd 67a2 f23e 49a7 a73e de97 11be
00000130: 532c afbe e2dc c9bd 44d4 f2bd d0eb 86be
00000140: df7d 1fbe 87a2 36be 0eb3 75bc 87fc 71be
00000150: 5ca9 6ebe 0bb8 61bd 06e3 46bd 1063 883e
00000160: 0e76 bb3d bfb5 c3be 4553 fc3d 7856 2a3e
00000170: b5a5 333e bfcb 593d 2225 063c a197 2b3f
00000180: d818 863e 0b31 d0bd ef13 41bd 8613 51bd
00000190: fb6a 48be 2f69 1cbe 8ce2 b3be 4f29 96bd
000001a0: 9d44 a9be c8b3 28bd 5008 bebe cecb 71be
000001b0: 211f b2bd efba 5ebd 947d aa3e 9ac1 babb
000001c0: 5c99 02be 4d62 49be b681 44be d36e e0be
000001d0: 62ef aa3d 00d7 31be 675e 743f 43d4 7abb
000001e0: a93a 523f 0579 85be ca35 973f 9e1e 12be
000001f0: ea55 4cbe 86d7 a5be 6349 733f eed5 3b3e
00000200: 0242 c63e f8d6 263f 2c18 bb3d 8fe9 dabd
00000210: 81a6 82be 337d fdbd 0d72 fcbd 30ad 39be
00000220: af15 2a3e 0675 4dbd 34e4 483e 7b86 fd3c
00000230: 29cb 8cbb 9739 3abd 999f 4bbc 5dfd 71bd
00000240: 3b35 f23d 0b65 81bd 4a28 cd3c cf98 293d
00000250: f9c0 8c3f 1ad2 adbe f488 c63e d52d 8ebe
00000260: 2540 86be d0f1 4abe 4ba2 42be 80bb fd3d
00000270: cbc7 b5be c3e5 c73d ab29 55be d85f 2dbd
00000280: 6fcd d43d c3e5 f2ba c561 90be 6fe1 223f
00000290: 31fd 66be 5dc4 c6be e1fd 913d 246c fdbe
000002a0: 536b 3dbd 731f fcbd 31f6 b5be 6d30 8c3d
000002b0: adde 903e b646 50be ca32 8fbd 848b 96be
000002c0: 08be d4bd 3bb4 6bbe 7aed ffbe 5abf 65be
000002d0: 8436 953d 201a 043f a69f 83be e0c1 38be
000002e0: c6b3 babe d2be 4bbd 4bb0 5abe 5448 85be
000002f0: d2ce d7be 1473 38be 2a63 16bf 6714 e03d
00000300: ef54 5a3e 705a 823f 7faf 70be 9dbe bebc
00000310: fbd6 a23e 176c fabe a951 10be 735d 2dbe
00000320: e58c debd 4892 af3b 5a58 ab3d 41bc e0be
00000330: 04fd 583f 11ae b53d b8c4 8bbe a7a6 a13c
00000340: 9b68 49bd eb17 2bbe 70a6 f23e c5b4 6abe
00000350: dfa1 87bc 0d7a 95bd 8614 a33d 9e77 733f
00000360: 3b74 d9be 10f3 63be 675b d3bd 8732 7fbe
00000370: dd3c 74be 79f1 7fbd 84bd 93bd 6ac5 99be
00000380: 2f29 533f 1d29 ad3d 2b82 9abe 760b 8e3f
00000390: 5757 9cbe 377c 373e d0a2 e4be 5764 1ebe
000003a0: 6144 373f ea62 1b3e edea 583c ef04 903e
000003b0: b524 ad3d 986b f9bd 69d3 3c3e 0f68 073f
000003c0: cedf 80bd 1cb8 94bd 64b3 e5be 7a03 45be
000003d0: 5f36 903e fd6c 05bd 9b74 febc 3007 20be
000003e0: 8462 6ebe bab8 2dbd 20a1 103e 8c72 ddbd
000003f0: 1ba7 98bc 1bae 8bbe f1f4 c8bd f373 23be
-0.3767282 0.062191393 -0.20402841 -0.27508453 -0.09513709 0.19457792 0.3540504 -0.071930625
-0.104311496 -0.19112422 0.19576931 -0.160959 -0.19562592 -0.006814588 -0.018624175 0.18764421
-0.17211035 0.4422596 -0.15102328 0.32688347 0.1779108 -0.041719697 -0.10744117 -0.25974077
0.4672818 -0.064046666 0.079756156 -0.08182603 0.089449145 -0.08060783 -0.23832726 0.024523983
-0.46238667 -0.22983469 -0.0097168945 0.0036620467 -0.05479329 -0.0075873653 1.1443336 0.29002938
0.78251743 -0.36282706 0.14607476 -0.118637875 -0.230734 -0.017699093 0.0404608 -0.33325997
-0.45362926 -0.052606672 0.23474985 0.0020855493 -0.015525406 -0.17333849 0.69962174 1.0190334
-0.45728812 -0.19417088 0.25098956 -0.028111625 0.43553126 0.4282348 -0.30538195 -0.047815688
-0.2546604 -0.0138848275 -0.14350182 -0.22634639 0.0016014059 0.07481349 -0.31025058 -0.22115302
-0.033976316 0.47389528 0.32744816 -0.14218089 -0.34213504 -0.09856583 -0.11856893 -0.26351786
-0.1557536 -0.17835437 -0.014996303 -0.23631488 -0.23306793 -0.055107158 -0.04855635 0.2663808
0.091533765 -0.382246 0.1232057 0.16634548 0.17543681 0.053172823 0.008187564 0.6702824
0.2619083 -0.10165604 -0.04713815 -0.05104401 -0.1957206 -0.152745 -0.3513378 -0.07332098
-0.3306016 -0.041187078 -0.37115717 -0.23612902 -0.086973436 -0.054377493 0.33298934 -0.0056993486
-0.12753814 -0.19666405 -0.19190106 -0.43834552 0.0834644 -0.17367172 0.95456547 -0.003827349
0.8212076 -0.26068893 1.181329 -0.14269492 -0.19954649 -0.32390994 0.95033854 0.18343326
0.38722235 0.65171766 0.0913547 -0.10689079 -0.25517657 -0.123773955 -0.12326441 -0.18132472
0.16609834 -0.05016043 0.19618303 0.030947914 -0.0042966795 -0.04546508 -0.012428188 -0.059079517
0.11826559 -0.063181005 0.025043625 0.041405495 1.099639 -0.33949357 0.38776362 -0.27769342
-0.26220813 -0.19818807 -0.19007222 0.123892784 -0.35503992 0.097606204 -0.20816676 -0.04232773
0.10390746 -0.0018531609 -0.28199592 0.63625234 -0.22557522 -0.38821688 0.07128502 -0.49496567
-0.04624493 -0.12310686 -0.35539392 0.06845174 0.28294888 -0.20339474 -0.06992109 -0.29403317
-0.10387808 -0.23017971 -0.49985868 -0.22436276 0.07285789 0.51602364 -0.2570774 -0.18042707
-0.3646528 -0.049742527 -0.21356313 -0.26031744 -0.4214998 -0.18012649 -0.5874506 0.109413914
0.21321462 1.0183849 -0.23504446 -0.02328425 0.31804642 -0.4891059 -0.14093651 -0.1693018
-0.10866717 0.0053580143 0.08366461 -0.43893626 0.8476107 0.08871091 -0.27298522 0.019732786
-0.049172025 -0.16708343 0.47392607 -0.2292052 -0.016556678 -0.0729867 0.07962899 0.95104396
-0.4247149 -0.2226069 -0.10320168 -0.24921618 -0.23851342 -0.062486146 -0.072138816 -0.30033427
0.82484716 0.08455107 -0.30177435 1.1097248 -0.30535385 0.17918478 -0.44655466 -0.15467964
0.7158871 0.15174451 0.013239604 0.28128764 0.08454267 -0.12178725 0.18440022 0.52893156
-0.06292687 -0.072616786 -0.44863427 -0.19239607 0.28166482 -0.032574642 -0.031061461 -0.15627742
-0.23279768 -0.042412497 0.14123964 -0.10812864 -0.01863437 -0.2728127 -0.09812344 -0.159622

fc2.weight f4 [256, 256]
00000000: ba94 f23b 13ef 483a 1f1b 7fbd 8daa acbd
00000010: 6f1a 83be 6f8b 76bd 0093 dcbc 0f15 7fbb
00000020: 9964 26bd 956e fd3b 452f c9bd 2179 d93c
00000030: d599 353c 2e74 8b3d 53b0 423d 7e36 40bd
00000040: df39 0abc 22cd 81bd c33d b8bd bef4 493d
00000050: d752 e6bd cd68 b33d 365f e5bd d210 1e3d
00000060: 27b0 ebbd 33b3 0a3d 7291 aabd 7e7a 8a3c
00000070: 6a87 13bd ee92 a1bd c493 60be 0eaf 67bd
00000080: b53e 94bd 3b43 9fbd 99fd 96bd d867 15be
00000090: f0ec 05be 7d80 f23d 1037 aabd f22b 9fbd
000000a0: e3fd 4bbd c629 bfbc 2815 a3bd 3c73 54be
000000b0: 1d7a eb3c fdc3 97b8 bef6 7dbd dcb6 cdbc
000000c0: efbb e1bc a883 acbd 309d 37bd 1152 a13b
000000d0: 7800 17bd 1513 5abd f80d eabc 326b 08be
000000e0: c743 18bb cde9 69bb d291 b3bb 140d d7bd
000000f0: 1ac7 e7bd 9f47 debb 1f4b 94bd 3628 0b3d
00000100: de7d 1dbe e5b7 f7bd af0f d0bb bbce 2fbe
00000110: f709 4ebe 5595 57bc 2459 70bc a865 a2bd
00000120: fd0b 0fbd d09c 9bbd fd24 70bd a6de a3bd
00000130: 7e5f 373e 7cea 55bd d8ef 9e3a f8e7 3cbc
00000140: eea1 dcbd 9065 1fbc 1b96 99bc 4c5d 30be
00000150: 8124 aabb 4c53 00bd 73c2 64bd ebec dd3c
00000160: fa29 92bd 82e3 ef3c 253d f43d da96 c1bd
00000170: 16fe 88bd 4ee0 1d3b 5a2e 7d3c bf2a f6bb
00000180: 28b2 84bd ef76 c8bd 0e26 253d fae2 46bd
00000190: e7a7 bdbc d993 3abd 2767 fdbd 173f c73c
000001a0: 1bf1 8ebd b4fe 8bbd 0b53 89bc d6f7 693c
000001b0: cabd bfbd 156b dcbd 5d9d 4b3d 1773 4f3c
000001c0: d7ad dfbc 40cc 1cbd 29f0 883b 832b 08be
000001d0: 862e 83bc e6d0 7bbc ccb8 e53b 3aa5 273d
000001e0: 1d66 66bd b90a 583d c739 c6bd 9125 97bc
000001f0: 1e73 91bc 9701 5cbe 7fc6 21bd 328c 1b3d
00000200: 32be 173e 1553 12be 6cc9 f3bb 52ea b4bd
00000210: 6075 2cbe 622a b3bd a00a 1a3d 20d9 81bc
00000220: 4104 ffbd ce47 8dbd 12c9 bebd 0bd2 093d
00000230: d871 2cbd c614 03be b74f 4dbd 4d13 143c
00000240: eea8 763d 7623 39be 309e 0abc d3d7 8bbb
00000250: 7af9 9cbc 7859 f6bc feee 9fbd 2811 1cbd
00000260: 3587 93bd c1e6 bd3b 2a19 b0bd beca 20bd
00000270: 0b33 e9bd e0f2 11bc a15a abbd 7e4b a1bd
00000280: d409 65be 8179 e0bb 6dd4 733c 2c8c f0bd
00000290: 25c6 a8bd 4605 c9bb 555f debd 5d09 ccbc
000002a0: 0daa 333d ad44 cdbd a1b9 43bd 9ba4 873c
000002b0: f9ce 4cbd 942c a5bd 28b1 8c3c fea1 ecbc
000002c0: b9b5 2cbe dc23 3abe 1b6d 0dbe e100 a1bd
000002d0: 60fc 47bd 2e47 0ebd b40f bebd 24db 13be
000002e0: 838b d83c bb84 563d 0ede 72be 7e28 a9bc
000002f0: 270a 28bd cb92 263b e591 ebbb 7972 b5bd
00000300: 3a1d 9bbd 288c 78bc bf43 d7bd a0f3 8bba
00000310: 3962 01bd cfb2 fcbb 0afd afbd ee2c b9bd
00000320: d116 a5bc 42b2 51bd d8a6 f7bd da67 a93b
00000330: 55e1 aabd d7ac b13d 805a c1bd 8f6a 41be
00000340: 450d 933c 03e3 bbbd 155a 96bd 4f5c 673d
00000350: 3a8f 69bc c625 9dbc a65b 303d 69c8 f03a
00000360: d7a9 e8bd c170 56bc d467 fbbd f301 f0bc
00000370: a9a3 073d f938 52bd 1969 39bd 6e51 16bd
00000380: 26ff 8fbb 37e8 04be 0e36 ebbd 7178 dbbd
00000390: 1fde 8f3d 6db5 c7bd 6487 35bd 8159 2ebd
000003a0: 576e 73bd a9d5 40bd ac92 313d c056 943c
000003b0: 0859 d03c 37e2 b2bd 411c 88bd d447 f7bd
000003c0: 37f5 dfbd ec8b 3a3e 89a6 723c 93fa acbd
000003d0: 9703 8f3c d7c4 be3d d72c 0a3e 8b2d b53d
000003e0: c9fc 30bd 2fa8 c9bd 9336 04be 2668 14bd
000003f0: cd93 1ebd df86 18be ed2d 4bbd 7505 bcbd
0.0074029835 0.00076650194 -0.062281724 -0.084309675 -0.25606105 -0.060191568 -0.026925564 -0.0038922464
-0.04062328 0.0077341297 -0.09823469 0.026547017 0.01108404 0.06809269 0.047531437 -0.046926968
-0.008436649 -0.06337954 -0.08996155 0.04930567 -0.11246269 0.087602235 -0.11199801 0.03859026
-0.11508208 0.033862304 -0.08328523 0.016904112 -0.036017813 -0.07889353 -0.21931368 -0.05656343
-0.07238523 -0.07776495 -0.07372589 -0.14590394 -0.13078666 0.118409134 -0.083112836 -0.07772054
-0.049802672 -0.023335349 -0.079630196 -0.20747083 0.028744752 -7.236747e-05 -0.06200289 -0.025111608
-0.027555434 -0.08423549 -0.04482764 0.004923113 -0.03686568 -0.053240854 -0.028571114 -0.13322142
-0.0023233758 -0.0035692335 -0.0054800296 -0.10500541 -0.113172725 -0.0067834402 -0.07240891 0.033973895
-0.15380046 -0.12095622 -0.006349526 -0.17168705 -0.20120989 -0.013158162 -0.01466969 -0.07929546
-0.034923542 -0.07598269 -0.058629025 -0.08001451 0.17907521 -0.052225575 0.0012125922 -0.011529915
-0.10773073 -0.009728804 -0.018748334 -0.1722309 -0.00519234 -0.031329438 -0.055849504 0.02709051
-0.07136913 0.029283289 0.11925725 -0.09452601 -0.06689088 0.0024089995 0.015452946 -0.00751242
-0.06479293 -0.0978831 0.040319495 -0.048556305 -0.023151351 -0.045551155 -0.123731904 0.024322076
-0.06979581 -0.0683569 -0.01676323 0.01428028 -0.09362371 -0.10762612 0.04971062 0.012661717
-0.027304573 -0.038280725 0.00417902 -0.13297848 -0.016013395 -0.0153696295 0.007010555 0.040929057
-0.056249727 0.0527446 -0.09678989 -0.01845053 -0.017755087 -0.21484981 -0.03949594 0.037975498
0.14818648 -0.14289506 -0.007439783 -0.088337556 -0.1684165 -0.08748318 0.03760779 -0.015850604
-0.12451983 -0.06898461 -0.09315695 0.03364758 -0.042100757 -0.12800893 -0.05012485 0.009037805
0.060219698 -0.18079934 -0.008460566 -0.0042676716 -0.019161928 -0.030071959 -0.07809256 -0.0381023
-0.07203523 0.0057953303 -0.0859855 -0.03925585 -0.11386689 -0.008908004 -0.083668955 -0.07875727
-0.2236703 -0.006850422 0.014882189 -0.11745486 -0.08240918 -0.006134662 -0.10858027 -0.024906809
0.043863345 -0.100228645 -0.04778445 0.016557982 -0.050002072 -0.08065143 0.017174318 -0.028885838
-0.16866197 -0.18177742 -0.13811152 -0.07861496 -0.048824668 -0.03473585 -0.09280339 -0.14439064
0.026433712 0.052372675 -0.2371752 -0.020649191 -0.041025307 0.0025417085 -0.007189023 -0.088597246
-0.07573934 -0.015170135 -0.105109684 -0.0010677464 -0.031587813 -0.0077117453 -0.08593185 -0.09041773
-0.020152481 -0.05119539 -0.1209237 0.005169851 -0.0834376 0.08675545 -0.0944109 -0.18888305
0.017950663 -0.091741584 -0.073414005 0.056484517 -0.014255339 -0.01918305 0.043056153 0.0018370274
-0.113605194 -0.013088406 -0.12275663 -0.029297804 0.033115063 -0.051323865 -0.045266245 -0.03669875
-0.0043944297 -0.12979208 -0.114849195 -0.10716332 0.07024788 -0.09751401 -0.04431857 -0.042565826
-0.0594314 -0.047078762 0.043352768 0.018107772 0.025433078 -0.08734553 -0.06646014 -0.12074247
-0.10935443 0.18217438 0.014810213 -0.08446231 0.017457766 0.09314888 0.13493668 0.08846577
-0.043209825 -0.098465316 -0.12911443 -0.036232136 -0.038715173 -0.14895199 -0.049604345 -0.09180728

fc2.bias f4 [256]
00000000: 475d eabc e898 bfbd 75a7 c4bd 96aa c0bd
00000010: b6ec 41bd 2d41 d0bd ae8b b9bd 836a ecbd
00000020: 9c66 bdbd 6977 9dbd 4aba f8bd 2388 8fbd
00000030: 96a3 e1bd 845d 913e 82ce 3ebd 5fc9 06be
00000040: 24ab 8dbc 91c6 3f3f 7e0c 3c3e d97c 92bd
00000050: 1485 023f b8af a0bd c526 693e 2121 563d
00000060: 0044 6c3d 2fd6 c6bd 9a89 28bd 99d2 a9bd
00000070: d4ae 99bd ffa5 a1bd 11ff 67bd e528 eebc
00000080: 5201 5e3d 5574 c4bd 551e 25bc a88e b8bd
00000090: 4f12 fd3d ac7a 88bd 68a2 d0bd f29b 9bbd
000000a0: fd68 b1bc 1c91 70bd 1939 793e 7184 01bd
000000b0: c6ad 2abd 3faa cf3d 3916 acbd bb3f 5e3e
000000c0: ac9f 3ebe 4dfc 413f 977b c4bd 053e 0bbd
000000d0: e452 7c3e c329 523f 2f70 2b3f 0faf 183c
000000e0: 74eb f2bc 47a7 0dbd 05bd 7fbd 571b d0bd
000000f0: c076 993d eec9 0cbc fa9e 24bd 2d6c 3d3f
00000100: 4604 093f 323b c23c a88f f4bd 1652 9c3c
00000110: 3245 8fbd 3ca7 44bd 81b9 ae3e 8058 49bd
00000120: fdcd 39bd 4b87 c5bd fab5 2abd c256 aa3c
00000130: c182 60bd 8159 5b3e 32bc 03bd c580 5d3f
00000140: 3f4e 68bd 5680 cabd de64 233e f62a 5e3e
00000150: d43b 87bd 15c3 3fbd c9d2 2bbe f588 8cbd
00000160: 7ea1 fd3d 3370 b4bd 033c e0bd ec72 d0bd
00000170: 4257 a2bd 57bd 2dbb ef3e 91bd 9e4c 57be
00000180: 05b1 5fbd 2b05 97bd a4e4 9fbd f1f6 d03e
00000190: 737d 8d3d b93f fabc 4862 7abd 5f0a 3fbd
000001a0: 4a24 d13e 1043 1fbe bc14 3dbd 6854 e6bd
000001b0: 9058 61bd 18c5 bd3d f27e 69bd 688d 053f
000001c0: d370 fcbd 74e2 093e e34c 31bd 21ac 053d
000001d0: 0c50 5abd bdf2 8dbd 1828 533e 10d9 16bd
000001e0: f03f adbd 9668 89bd 561c 503f a1d6 b83e
000001f0: 26eb 393f 532a 0abd d388 babd 22d7 16be
00000200: f568 ce3e 8d0e d53c 0049 98bd ce72 c9bd
00000210: 6990 0cbd ee9e 87bc ba21 e93c 5ced dd3d
00000220: 72ec a7bd 308b e1bd 2a51 f2bd 0a1e c2bc
00000230: b7e0 96bd c15d a23d 05b8 443f 411d 86bc
00000240: 3f69 c2bd 380d dc3e c92b b7bd 61fd b0bc
00000250: 9b17 9fbd f800 a0bc 013d adbd 037d 1f3b
00000260: 0b3b 693d a836 24bd 875c e1bc 5d42 b4bd
00000270: 6e96 0cbe 4de7 54bc 7c4e 643f a57c 183d
00000280: b517 29be 27cf 183d 7fb6 c6bd 67e2 2cbd
00000290: 26b7 6f3e 36ef b7bd 09f1 d1bd f1cf afbd
000002a0: a913 413e 89ab aa3d 38c4 b2bd 527b 33bd
000002b0: e21f b3bc 5e21 cb3d 81fc 84bc e52c 66bc
000002c0: 1148 8ebd 5d48 273f 523f 64be 5f7c b7bc
000002d0: a622 43bd 9ff0 7fbd e315 893d e50c ebbd
000002e0: 01e1 ebbd da94 bbbc 6e4e 73bb 536f abbd
000002f0: 1c49 13bd b65d 41bd 12c5 e5bd 7ba1 45bd
00000300: cde8 3fbd 295f 1fbd af84 8ebd 79ca 1e3d
00000310: f986 01bd 84a8 5cbd c261 8e3d b240 9f3d
00000320: 1a58 6b3d 96ce a2bd d555 533f df7d bebd
00000330: dce5 8fbd 400f 72bd fbc7 2ebc 4491 a8bd
00000340: 0201 573c 5b13 8c3d 1296 03be 751e 25bd
00000350: de92 b5bd 797d 8dbd 2a56 dfbd 781e c4bc
00000360: 4d26 84bd c943 0abe a6e3 7cbd 8afe 653e
00000370: ef33 773d a4d7 0a3f e8d2 acbd 8dc4 52bd
00000380: 75af 7cbd d9be b0bd d5b4 29bd ed49 86bd
00000390: 3ea3 b9bd c5e1 63bd 1fcc d4bc 5f98 8bbd
000003a0: 47b3 0eba 5937 84bd 9446 2c3f e576 a4bd
000003b0: 9cbd e0bd 6f79 4dbd 9d93 0f3f 9095 beba
000003c0: dff4 41bd 51bb 8ebd d4e2 a4bd 94d1 2ebd
000003d0: 6d04 00bd 89aa 79bd c888 1ebe c066 623f
000003e0: d9f7 85bd d3cf a4bd 7d5e d1bc 75e0 913e
000003f0: d192 9cbd 01dd 1e3f 2bf6 36bd fe07 c13c
-0.028608931 -0.093553364 -0.096022524 -0.09407537 -0.047344886 -0.10168681 -0.09059845 -0.11543753
-0.09248087 -0.07688791 -0.12144907 -0.07008388 -0.1101753 0.2839166 -0.04658366 -0.13162754
-0.01729352 0.74912363 0.1836414 -0.07152719 0.5098431 -0.07846016 0.22768696 0.052277688
0.057682037 -0.09708821 -0.041146852 -0.082921214 -0.07504049 -0.07892989 -0.056639735 -0.029072234
0.054200478 -0.09592501 -0.0100780325 -0.090115845 0.12357008 -0.06664023 -0.101872265 -0.075981036
-0.021656508 -0.058732137 0.24338187 -0.031620447 -0.04166963 0.10139894 -0.08402676 0.21703999
-0.18615597 0.75775605 -0.095938854 -0.033994693 0.24640995 0.82094973 0.66968054 0.009319081
-0.029653288 -0.034583356 -0.062436122 -0.10161465 0.07493353 -0.008593066 -0.040190674 0.7399319
0.53522146 0.023709867 -0.11941463 0.01908211 -0.0699562 -0.04801105 0.34125903 -0.049156666
-0.04536246 -0.09644946 -0.041677453 0.020793322 -0.054812197 0.21420862 -0.0321619 0.8652461
-0.056715246 -0.098877594 0.15956447 0.21696076 -0.06603208 -0.046816904 -0.16779627 -0.0686206
0.12384318 -0.08810463 -0.10948946 -0.101781696 -0.07926799 -0.002651056 -0.07092082 -0.21025321
-0.05461218 -0.073740326 -0.078072816 0.408134 0.06908693 -0.030547963 -0.061128885 -0.04664075
0.40848 -0.15552926 -0.046162352 -0.11246568 -0.0550161 0.09266108 -0.05700583 0.52168894
-0.12326207 0.13465291 -0.043286216 0.032634858 -0.053298995 -0.06931064 0.20620763 -0.0368281
-0.08459461 -0.06709401 0.8129324 0.3610125 0.72624433 -0.03373177 -0.091081284 -0.14730504
0.4031445 0.026007915 -0.07435799 -0.098363504 -0.034317408 -0.016555276 0.028458465 0.10836288
-0.08199395 -0.11012876 -0.11831887 -0.023695964 -0.0736708 0.079280384 0.7684329 -0.016371371
-0.0949273 0.42978835 -0.08943898 -0.021605195 -0.07768174 -0.019531712 -0.08458901 0.0024335987
0.056941073 -0.040091187 -0.02750994 -0.0880172 -0.1372926 -0.0129945995 0.8918226 0.037228245
-0.1651295 0.03730693 -0.09702777 -0.0422081 0.2340971 -0.08981173 -0.10251052 -0.085845836
0.18855156 0.08333499 -0.08728832 -0.04381878 -0.021865789 0.09918474 -0.016233684 -0.01404879
-0.06947339 0.6534479 -0.2228978 -0.022398172 -0.047640465 -0.062485334 0.06693628 -0.11477069
-0.115175255 -0.022898126 -0.0037125605 -0.08370843 -0.035958394 -0.04720851 -0.11219229 -0.048249703
-0.046852876 -0.03890911 -0.06958901 0.03876731 -0.03162286 -0.053871647 0.069522396 0.077760115
0.057457067 -0.079495594 0.82552844 -0.09301352 -0.07026264 -0.059096575 -0.010667796 -0.08230832
0.013122799 0.06839629 -0.12850216 -0.04031225 -0.08865903 -0.06908698 -0.10905106 -0.02394031
-0.06452618 -0.1350242 -0.06174054 0.2246038 0.060352262 0.5423529 -0.08438665 -0.051456977
-0.061690766 -0.08630151 -0.04143222 -0.06557069 -0.09064339 -0.055635232 -0.025976239 -0.06816172
-0.00054435845 -0.06455869 0.67295194 -0.0803049 -0.10973665 -0.050164636 0.56084615 -0.0014540423
-0.047352668 -0.069693215 -0.080510765 -0.042680338 -0.03125422 -0.06095365 -0.15481865 0.88438034
-0.06541414 -0.08047452 -0.02555775 0.2849156 -0.076451905 0.62055975 -0.044668358 0.023563381

fc3.weight f4 [5, 256]
00000000: 588c ec3a e8df eb3d 21e8 6abe 43a2 65bd
00000010: 06db b33c 1baf e93b cb38 babd 9dcf 83be
00000020: 88e2 66bb bd18 2d3c 1487 773e 4f67 7abe
00000030: 7580 da3b b0d2 753c dd2a 29bd 4c49 b73c
00000040: 9349 05bd 35b7 f03d 5aaa cf3d c40e 2a3c
00000050: d52f a93d 807f 0ebd de9f 963e b703 e6be
00000060: 6fa1 e2be 692d e5bc 8b64 99bd fc92 1dbd
00000070: 9161 e1ba cc95 54bd 92e5 afbd 7ea0 debd
00000080: b5c2 05be 9a4e aa3b 47b3 28ba a214 ae3d
00000090: d513 9f3e af40 5a3c 6dab c4bb 63cb 443c
000000a0: af73 debe 3b9a 9dbc 7f8a 3b3e 08c7 3fbb
000000b0: 5d6e da3c 2048 cbbe 7c31 273d da1f 8d3e
000000c0: 72ec 4bbe 74a3 fb3d f94d 423c 6190 acbe
000000d0: ecd8 503e 9900 163e db12 cf3d edfe 003c
000000e0: aa4f ad3c 47fd 4f3d cf8e b0bc cdbe 00bd
000000f0: faca 9abe 2800 da3d 4209 3e3c 29e8 e23d
00000100: 8b7d 4f3d d356 62be 3fd2 a8be 401d 49bd
00000110: 17da 7abc 1d03 c1bc fd88 fa3d 6a61 d2be
00000120: 9263 d3bc 1fa2 38be 33d5 bbbe b483 8dbe
00000130: bbfe 3dbd b79e 293e 7f70 633b 02c1 0a3e
00000140: e868 703c eca4 8dbd ed9f 52be 60a1 933d
00000150: 0126 2bbe 2552 623d 634e 04be 3d97 32bc
00000160: bf84 7b3d 2968 a4be bef7 1dbd 6673 84bd
00000170: ad61 123d 4a83 253d acd4 073c fc6c 4fbe
00000180: f9c2 4abc 0b00 47bd 351a d0bc 11a8 f83d
00000190: bb0d 013d bd86 293e 39f1 033d 6f20 12bd
000001a0: 2a35 f13c 04da 1e3d 955e b2be 2716 12bd
000001b0: e39d 12be 899a 6bbb 606a 803b d403 aa3d
000001c0: 7cb3 71bc 5e58 3f3e 168c ba3d 5e6c 043e
000001d0: 4843 debe d890 2ebc d693 61be 2403 a9bc
000001e0: 9780 13bc 3fe3 f53b 15b5 0b3e 77fc df3d
000001f0: f796 ce3d 4302 e3bd 50ea a73c b2d9 c7bd
00000200: c046 803d 0937 57be fb0d cf3c 939b ebbc
00000210: 6496 b43c 925a bf3c 4a16 98bd 1d07 cd3c
00000220: 7872 393c 2d5c 9bbe 55ca aabe 7ec3 92bd
00000230: d2b0 ee3b 5b8a 20be b88e fc3d a69d f6bc
00000240: c859 f7bd add3 923d eed4 60bd 9bce 44bc
00000250: 246b 903c 26de 3abe 0cf1 823c 1327 cabd
00000260: 7d21 f53d 477e 0b3c f1d4 ac3b fb3d 033e
00000270: 5f39 6fbe bbaf 4ebd a39d 2f3e 8752 533e
00000280: c607 2cbd 20bd fcbe 32f2 6cbe faf8 243c
00000290: 0a38 0dbc 0196 c03b c47c 603c 2baa a6be
000002a0: 3905 023e ee94 913d a866 d03c ac8f a13c
000002b0: e64b c33d 0423 c53e de79 eabb 3c74 94bc
000002c0: 46e8 443d 4af7 a63d 933a bebe 50de 703c
000002d0: 4f48 55bc 1baf bfbe 93d8 00bf 6445 bc3d
000002e0: 11a1 bebd c197 083c a58e bf3c a536 493b
000002f0: e05f 8b3c 6251 32bc 65c7 6e3d 3cfd d5bc
00000300: 8f5c a4bd 0e47 143d 791c fdbc e1a3 a23d
00000310: a292 3bbd 24d0 a4be 2115 11bf 48e0 363e
00000320: 68e5 92be 5f02 c23a e6ea 0d3e 8019 8abd
00000330: d3d5 82bc d53d 693c 3d18 363c 03b7 4a3b
00000340: c0ce 643b 77f1 7d3e 5b2b 0cbe da23 02bb
00000350: 08f7 bcbc eda4 1e3e 78e2 173c 79ad 883c
00000360: c58b 63bb 4121 77bd 9ae2 a93c 6c18 0e3d
00000370: 4eca 493e 9f80 8d3d 2e1c 7bbe ef57 2d3d
00000380: 96c9 0fbd 8590 a7bc c58f bd3c acb1 913c
00000390: 0730 d73a 8c76 69bd e61d bf3c 08eb 37ba
000003a0: 49d5 163d dff0 36bc bcc4 ec3d c5da 453c
000003b0: 857f 373d c133 d9bb 98c4 a03d cc59 aa3c
000003c0: 9ec8 a2bb 60a6 5bbd 24a8 8abc baa6 5dbe
000003d0: 25bc df3c 0565 21bd e372 3cbd 510a 0e3e
000003e0: 2c1d 8fbb c642 ecbd 86d2 b334 752d 1f3e
000003f0: daf0 59be f7a0 b33d 1808 143d 40b9 2d3e
0.0018047197 0.11517316 -0.22940113 -0.056062948 0.021955024 0.00713147 -0.09092864 -0.25744334
-0.0035230238 0.01056498 0.24172622 -0.24453472 0.0066681453 0.015003845 -0.041300643 0.022373818
-0.03254087 0.11753694 0.10139914 0.010379497 0.08261076 -0.034789562 0.29418844 -0.4492471
-0.4426379 -0.027975755 -0.0748988 -0.038470253 -0.0017195215 -0.05190067 -0.08588709 -0.10870455
-0.13062556 0.0051973583 -0.0006435406 0.08500029 0.31069818 0.013321086 -0.006001881 0.012011382
-0.43447635 -0.019238582 0.18314551 -0.002926292 0.026663953 -0.39703465 0.040818676 0.27563363
-0.19914415 0.122870356 0.01185941 -0.33703902 0.20395249 0.14648665 0.10111018 0.007873279
0.02115615 0.050778653 -0.021552471 -0.03143196 -0.30232984 0.10644561 0.011598887 0.11079437
0.050656836 -0.22103433 -0.32972905 -0.04910016 -0.015310786 -0.023561055 0.1223316 -0.41089946
-0.025804315 -0.18030594 -0.36686096 -0.27639544 -0.046385508 0.16564451 0.0034704504 0.13550189
0.014673449 -0.06916222 -0.2056882 0.07208514 -0.16713716 0.05525412 -0.12920527 -0.010900316
0.061405893 -0.32110718 -0.038566343 -0.06467323 0.035737682 0.04040841 0.008290451 -0.20256418
-0.012375587 -0.048584025 -0.025403121 0.12141431 0.031507235 0.16555305 0.03221247 -0.035675462
0.029444296 0.038782135 -0.34837785 -0.035665657 -0.14318042 -0.0035950264 0.003918931 0.083015114
-0.014752265 0.18686053 0.091087505 0.12931964 -0.43410707 -0.010654651 -0.22029051 -0.02063138
-0.009002826 0.0075038965 0.13643296 0.10936826 0.10087388 -0.11084416 0.020497471 -0.09758319
0.062634945 -0.21017088 0.025275221 -0.028760707 0.022044368 0.023358617 -0.07426126 0.025027806
0.011318795 -0.30343762 -0.33357492 -0.071661934 0.007284262 -0.15677778 0.12331909 -0.03010447
-0.12077671 0.0716928 -0.054890566 -0.012012149 0.017629214 -0.18248805 0.01598408 -0.09870734
0.11969278 0.008513994 0.005274408 0.12816612 -0.23361729 -0.05046056 0.17149977 0.2063695
-0.0419996 -0.4936304 -0.23139265 0.010069126 -0.008619318 0.005877257 0.013701621 -0.32551703
0.12697305 0.07108484 0.025439575 0.019721828 0.09535961 0.38503277 -0.007155641 -0.018121831
0.048073076 0.081526354 -0.37154064 0.014701441 -0.013017728 -0.37438282 -0.50330466 0.09192923
-0.09308065 0.008336962 0.023383448 0.0030702737 0.01701349 -0.010883661 0.058295626 -0.026121728
-0.08025467 0.036200576 -0.030897366 0.07941414 -0.045794137 -0.3219005 -0.56672865 0.17858994
-0.28690648 0.0014801732 0.13859138 -0.06743145 -0.0159711 0.014235933 0.011114177 0.0030931837
0.0034913272 0.24799143 -0.13688414 -0.0019857795 -0.023067012 0.15492602 0.009270303 0.01668428
-0.003472076 -0.060334448 0.020737935 0.03469126 0.1970608 0.06909298 -0.24522468 0.042320188
-0.035104357 -0.020454654 0.023139844 0.017784916 0.0016417512 -0.05699782 0.023329686 -0.00070159184
0.0368245 -0.011165827 0.115609616 0.0120760845 0.044799346 -0.006628484 0.07849997 0.020794772
-0.004967763 -0.053625464 -0.016925879 -0.21645632 0.027311394 -0.03940298 -0.046008002 0.13871123
-0.004367491 -0.115361735 3.3494524e-07 0.15544684 -0.21283284 0.08770936 0.03614053 0.16965199

fc3.bias f4 [5]
00000000: dd1d 8f3e a2de 973e 95e4 8e3e 5dc2 973e
00000010: d44b 983e
0.2795247 0.29662043 0.2790877 0.29640475 0.29745352
