Model/DDQN/[S3][ego]net_Q(param).pt (torch, 526100 bytes, 6 tensors)

fc1.weight f4 [256, 248]
00000000: 3709 7ebe e8d4 1ebc 846b 4bbd 6263 6abe
00000010: 9973 08bf dba5 a1be 4243 94be 92a1 febb
00000020: a6cb e6bd 2348 f1bd 7d2b 0f3e c497 3ebf
00000030: 60ac 20bd 0237 02bc 5907 0bbd e1c3 f8bd
00000040: 9f19 debc 919b c13d e107 8d3d 8b40 833c
00000050: 96df d9bd 4621 23bd 40c5 3fbe 8de3 14be
00000060: 57f4 dfbd 55f4 283d 6751 c8bd ca3f f0bd
00000070: 5381 39bd af15 eebc 58e7 32be f567 55be
00000080: e327 abbe f587 29bc 9dc1 0dbe 2f05 c03d
00000090: 9f76 513e 1cc0 793d 887c 15bd db36 fd3c
000000a0: 1a44 b43d 51a4 8ebd 0d19 73be 7858 d2be
000000b0: 194f 99bd 68b2 39bd 0f11 f83c 3658 20bc
000000c0: d2bb afbd 9758 233d c517 583e b503 a33e
000000d0: 1d62 033e 42a5 09be 251b 69be a904 9ebe
000000e0: 9b7a 48be 9a1d 5ebd 3f85 bcbc 0d1b 3dbe
000000f0: bae0 86be 2339 babd 435c 513c 8776 5dbd
00000100: 82d3 8fbe cf56 4fbe b003 c5be ad95 99be
00000110: 3747 3cbe f98d bc3b ca5f b2bc 7d55 053c
00000120: 9d37 8fbd 9c15 99be dc0f 0bbe 9c71 8bbe
00000130: 15f5 86be dbc0 09be 60db 33be ec99 603c
00000140: 9e1d b6bd c1ba ebbd 1134 0ebd a212 483d
00000150: 8441 83bd 013e 20be 1867 6cbe ed1e 85be
00000160: a7d2 3d3d 2040 563d 8cc0 df3c e68e 1a3d
00000170: 88a7 d5bd 4868 39be fa63 b6bc 5733 0bbe
00000180: 8a5f b0bd bdb8 f9bd 5b21 9cbe 364e 16be
00000190: 315e 2fbc 21e9 be3b cbb5 9b3d 2ed0 ccbb
000001a0: 83d0 c3bd 0dd3 debd 16ee d9bd 262c 8ebd
000001b0: 0cba 07be c43e abbe f962 373d 7bcc 833c
000001c0: 6d15 3b3d 8754 e1bc 88dd 7ebc fda4 0bbe
000001d0: 01ce 83bd 755e c0bd 4377 84bd 0f42 fcbc
000001e0: 5bac 553d 140c 56be 0561 4abe 1c69 e0be
000001f0: a54e f1be 662e 02be 7f02 6b3c 477e 75bd
00000200: 1fce 0ebe a6d9 39be 9cc5 d83c 71c9 92bd
00000210: a1dd 9cbe ed73 89be f5ed 6dbe bed3 a4bd
00000220: 447f 17bd 1e85 90bc d1d7 eebc c851 fcbd
00000230: e089 3ebe e5d1 2ebe c3eb cdbd 477f 43be
00000240: f152 7ebe 138a 56bd 8e53 a3bd 356d 3cbd
00000250: e0ca 67be 8713 81bd bd7f b1bd 5bd7 a4be
00000260: db86 a3be 2882 8dbe bd8d 95bd 19e6 bdbe
00000270: 4baa b73d 16ac 433d 6b95 ecbd c876 6abd
00000280: fa1f 0cbd d6e7 18be c1ce 4fbe 33b0 99be
00000290: a290 95be ff08 173d dad2 bbbd 1b27 ef3c
000002a0: 471c c2bd 67ae f0bd 1af9 40bc caab 86bd
000002b0: 1a40 72be 9a51 bebe 223d 95be 5d51 78be
000002c0: 366b 033c 1cb0 57bd 6aec ffbc d6a1 34be
000002d0: d7c7 eabc 5d09 5e3d efc8 ad3c 6094 0ebe
000002e0: 98b7 c1be b653 edbe 0550 46be 1032 1abe
000002f0: 3c5a 9cbe 51f2 7fbe 99c5 11be 859e 0cbd
00000300: 3b8d af3c 037c 1bbe 8337 40be f189 94be
00000310: dc8b adbe 81f6 1dbe 6aef 3ebd 74ee 953c
00000320: a378 8d3d 2492 1cbe 05be 87be 4812 a6be
00000330: 1904 50be 56cf 88be 7867 a3be 44aa 01be
00000340: 3a20 f9bd 3f01 19be 07d3 42bd 8a40 7dbd
00000350: e672 08be 0756 fdbd 34f4 29bb 9863 e73c
00000360: a37a 1a3d 98f1 dbbd bd6a 56be 7adc 64be
00000370: f960 afbd 3f84 833d bd15 9f3d 3205 0abe
00000380: 6727 dabd e323 80bd c439 5ebe 6fc2 43be
00000390: f7df 94be 1143 8fbe 3548 e4bd 7cad 42be
000003a0: 2fea b53c 2b0c ef3c 5625 7ebd 3324 3bbd
000003b0: 4602 d23c 122b 49be a5ca 19be 4743 6bbd
000003c0: 03b8 463d e8c1 823e cb38 96be 4f23 613d
000003d0: d957 b2bb a48b 9dbe b254 15bd 0a15 e7bb
000003e0: eb7a a8bd 6096 28bd 8e81 a6bd 1afd 8d3d
000003f0: 4922 79bd 6b33 bbbd bb5c 31bd 8342 42bc
-0.24808203 -0.0096943155 -0.04966308 -0.22889474 -0.5330139 -0.3157185 -0.28957564 -0.0077707255
-0.112693116 -0.11781337 0.13981433 -0.74450326 -0.03922689 -0.007947685 -0.033942554 -0.12146736
-0.027111826 0.094535 0.068862684 0.016021987 -0.10638349 -0.039826654 -0.18727589 -0.14539929
-0.10935276 0.04124864 -0.09781151 -0.11730917 -0.04528935 -0.029063074 -0.17471063 -0.20840438
-0.3342887 -0.010347356 -0.13843389 0.09375989 0.20455407 0.060974225 -0.036495715 0.030909946
0.08802052 -0.069649346 -0.23740025 -0.4108312 -0.0748579 -0.045336157 0.030281572 -0.009786656
-0.08580746 0.039879408 0.21102817 0.31838766 0.12830396 -0.13441947 -0.22764261 -0.3086293
-0.1957802 -0.05422745 -0.023012755 -0.1846735 -0.26343328 -0.09092929 0.012778345 -0.054068115
-0.28091055 -0.20247959 -0.38479376 -0.29997006 -0.18386541 0.005754229 -0.021774191 0.008138058
-0.06993029 -0.298993 -0.13580269 -0.27235115 -0.26358858 -0.13452475 -0.17564154 0.013708573
-0.08892368 -0.1151023 -0.034717623 0.048845895 -0.064089805 -0.15648653 -0.23086202 -0.26000157
0.04634347 0.052307248 0.027313493 0.037733935 -0.10432345 -0.18106186 -0.02226447 -0.13593803
-0.08611973 -0.12193439 -0.30494198 -0.14678273 -0.010703609 0.005826131 0.07603034 -0.006250403
-0.09561255 -0.108800985 -0.106411144 -0.069420144 -0.13254565 -0.33446324 0.044772122 0.016088715
0.04567473 -0.027506126 -0.015555747 -0.13637157 -0.064357765 -0.09393016 -0.0646806 -0.030793218
0.052166324 -0.20903045 -0.19763573 -0.43830192 -0.47130314 -0.12713012 0.014343857 -0.05993488
-0.13945816 -0.18149433 0.026461415 -0.07167328 -0.3063784 -0.26846257 -0.23235305 -0.08048199
-0.036986604 -0.0176416 -0.029155644 -0.12320286 -0.18607283 -0.17072256 -0.100547336 -0.19091521
-0.24836327 -0.05237777 -0.07974921 -0.046002585 -0.22635984 -0.06302553 -0.08666942 -0.32195553
-0.31938824 -0.27638364 -0.07302425 -0.37089613 0.08968028 0.047771536 -0.11551937 -0.057242185
-0.034210183 -0.14932188 -0.20293714 -0.30017242 -0.2921191 0.036873814 -0.09171076 0.029193452
-0.0947805 -0.117520146 -0.01177814 -0.06575735 -0.23657265 -0.37171632 -0.29148203 -0.24249788
0.008021167 -0.052658185 -0.03124066 -0.1763986 -0.028659744 0.05420815 0.021213977 -0.13923788
-0.37835383 -0.4635293 -0.19366463 -0.1505816 -0.30537593 -0.2499478 -0.14235534 -0.034330864
0.021429649 -0.15184025 -0.18771176 -0.2901149 -0.33895767 -0.15426065 -0.04661504 0.01830218
0.06907775 -0.15290123 -0.2651216 -0.32435822 -0.20314063 -0.26720685 -0.31914878 -0.12662607
-0.1216435 -0.14941882 -0.047564533 -0.061829127 -0.1332508 -0.12369924 -0.002593291 0.028245732
0.03771461 -0.1073944 -0.20939155 -0.2234973 -0.08563418 0.06421708 0.07767818 -0.13478544
-0.10652047 -0.06256845 -0.21701723 -0.1911714 -0.29077122 -0.27980855 -0.11146585 -0.19011492
0.022206394 0.029180607 -0.062047325 -0.04568882 0.02563585 -0.19645336 -0.15018709 -0.057437208
0.04851533 0.25538564 -0.29340205 0.054965314 -0.005442601 -0.307706 -0.036457725 -0.0070520686
-0.0822657 -0.041159034 -0.08130179 0.06933041 -0.060823712 -0.091406666 -0.043301325 -0.011856678

fc1.bias f4 [256]
00000000: db91 ebbe 075d 45be acf6 97be 9744 91be
00000010: 1a6e 2bbf 251f 22be 205b 81be cab6 4abe
00000020: d270 7c3e 07ae 95be 7178 70be 3c9e 00be
00000030: d5f8 75be 802e d4be 502b 90bd 53de cdbd
00000040: a6f0 18be 250a 77be 4b0d a4be e73c c2be
00000050: 16da 95be 56d1 2bbe 64bf 96be faf0 a4be
00000060: 9d4b afbd ab69 b43d a30e 75be 09ba 04be
00000070: 05e2 5fbd 98af 0ebe 0753 58be 03cb 0e3d
00000080: c5ed 28be 8cce 60be a53b 39bd f968 213e
00000090: eda7 2cbd 0741 c6be ad25 81be c662 93be
000000a0: c354 09be 3584 833d 5ea4 6abe 43cc f7be
000000b0: 2bb4 563d 4d3d b03e d4a4 73be b84b a7be
000000c0: 6955 91be 6fea aabe cd94 87bd e706 84be
000000d0: c271 0cbe ea7b 55be d8c8 8cbe 24ac a0bd
000000e0: 03bd c5be b93b a1be ce32 0ebe c637 b2be
000000f0: e4a7 a53e a1c3 08be 5c6d 36be b544 d5bd
00000100: 738a 2abe 2dfc 58be 9e94 6abd 8df9 4dbf
00000110: 38c5 e5be 0ebc 24be 698e a6be 6a44 003d
00000120: be38 75be 9fc1 ae3d 29a8 3cbe 7eac f6bd
00000130: c49d f7bc be62 2cbe b1de 5dbd bc07 43be
00000140: 6d33 373e 14f9 69be 0787 22be a28f 27bd
00000150: d1fa a2be cc93 ebbd b40f c43e 6530 a13e
00000160: ae95 17be 5157 ca3e d42e 1bbe 32dd 92be
00000170: 41ca 10bf 1fb5 6cbe 1514 32be ae4d 01be
00000180: 6685 bfbd 2260 e2bb f3cb 55bf 67b3 32bf
00000190: 7e8b 15be 4631 98be a02d 57be 0064 a6bd
000001a0: 8aaf acbe 49f8 9dbe 35d4 293f 04f7 59be
000001b0: f2ef 6fbe 1440 ffbd 1713 a2be 61c6 4cbe
000001c0: 29e2 afbe badd 82be b1e2 debc 7a25 1bbf
000001d0: cf62 57be 6007 22bc 8b9a 0ebe 1004 4d3e
000001e0: 4be5 14be 9a20 3dbe 96f4 b8be 96ea 49be
000001f0: 6c46 e7bc 934e 5fbe 2295 26be 1aa0 4fbd
00000200: 1d7c 88be 4af5 2cbe e99f 6c3d c87d 96be
00000210: 34ee b7be a2d1 7a3d b0a1 c4be 6da8 203f
00000220: 3e56 e33c 4614 f3bd 818b 8dbe 3111 05bc
00000230: 61fa 4abe 334a 823e c606 5fbe 550d d2bd
00000240: 6bf7 483e cea4 93be 71eb e23d 45b0 b8bd
00000250: 4805 0f3d 1eb2 c83e 6447 59bd c785 a3be
00000260: d89a 1bbf eba5 e0bb 0066 dabd 180f 77be
00000270: e62a cdbc 8eb0 50be 6dbb 33bd 635d b3be
00000280: 7c58 8bbd f64e 48be cac5 75be 0fbc 7d3e
00000290: 6481 903e eb66 b3be d659 95be e9bf deba
000002a0: 6261 c6be 4c18 6e3c b91a 4dbe 0ed0 7c3e
000002b0: c9a3 70bd 670b 3439 1902 ccbd 82f6 44be
000002c0: 5ffb 3ebe 07ad 53bd 7478 12bf 9ed7 aebe
000002d0: f7cf bd3d bd4d 1b3d 83c4 f3bd f627 07bd
000002e0: c4ec 19be bbf3 473e f50c 943d a17b d0bd
000002f0: 91ad 5cbd 9d47 433d 74fa 0fbe b005 9ebe
00000300: 21ee aebe b598 6e3d dcb4 a93d 6c69 45be
00000310: bb03 4bbe fbd9 40be 61a6 8b3d c45f 77bd
00000320: e9ee 7abe c816 933e 1785 c3bd bf85 78bd
00000330: 6ada 133d 2cf2 a7bd 7d2b 64be 08c7 a2bd
00000340: 217e 6940 2ac3 00be fb20 cabe 953b adbd
00000350: b2d2 b8bd d617 47bd d004 4d3c f942 a9bd
00000360: 55c5 8f3f 1d81 b6be e24f 55bf 36e9 6cbe
00000370: 600e fd3c ed96 5bbe 43bf 923d 8eb4 73bf
00000380: faa4 79be 821f 843d 55a6 d83d eac1 a6be
00000390: e806 07bf 9b04 cfbe 0da7 70be 316b 83bd
000003a0: 0366 043d e80c fb3e fa64 a6be b576 eb3d
000003b0: c814 93be b8f0 813e 08e9 d63d b860 12be
000003c0: 830e 40bf 2f69 b93c f4d5 96be 0477 1f40
000003d0: df64 dc3d 2dd7 94be 5984 923e 84d0 05be
000003e0: 6b97 d7be 4d74 63bf 4d64 0cba 5b75 69be
000003f0: 52c9 06bf f069 05be 9c2b 3cbd 11f9 59be
-0.46009716 -0.19273768 -0.29680383 -0.28372642 -0.66964877 -0.15832193 -0.25264835 -0.19796291
0.24652413 -0.29234335 -0.23483445 -0.12560362 -0.24020703 -0.41441727 -0.07039511 -0.100521706
-0.1493555 -0.24124964 -0.32041392 -0.3793709 -0.2926795 -0.16779074 -0.29442894 -0.322151
-0.08559344 0.08809217 -0.23931365 -0.12961592 -0.05465891 -0.13934171 -0.21125422 0.034861576
-0.16496952 -0.21953791 -0.045222897 0.157627 -0.042152334 -0.38721487 -0.25224057 -0.28786296
-0.1341124 0.06421701 -0.22914264 -0.48398027 0.052417915 0.3442177 -0.23793346 -0.32674956
-0.28385475 -0.33381984 -0.06620178 -0.25786516 -0.1371527 -0.2084805 -0.27496982 -0.07845333
-0.38620767 -0.31490877 -0.13886568 -0.34808177 0.32354653 -0.13355877 -0.17815155 -0.104134955
-0.16654377 -0.21189947 -0.05727064 -0.8045891 -0.44877028 -0.16087362 -0.32530525 0.031315245
-0.23947427 0.08533024 -0.18423523 -0.12044619 -0.030226596 -0.16834542 -0.054167453 -0.19045919
0.17890711 -0.22848922 -0.15871821 -0.040908463 -0.31831983 -0.115027994 0.3829323 0.31482235
-0.14803192 0.39519742 -0.15154582 -0.28684384 -0.56558615 -0.23115967 -0.17390473 -0.12627289
-0.093516156 -0.0069084326 -0.83514327 -0.69804996 -0.14603993 -0.29725093 -0.21013498 -0.08124542
-0.33727676 -0.3085349 0.6633943 -0.21285635 -0.23431376 -0.12463394 -0.3165519 -0.1999755
-0.34352234 -0.2555979 -0.027207704 -0.6060406 -0.21033786 -0.009889454 -0.13926141 0.20021081
-0.14540593 -0.18469468 -0.36124104 -0.19718394 -0.028231822 -0.21807317 -0.16267827 -0.050689794
-0.2665719 -0.16890445 0.05776969 -0.29392838 -0.35923922 0.061235078 -0.38404608 0.62757
0.027751084 -0.11869101 -0.27645496 -0.0081217745 -0.19822074 0.25447235 -0.21779928 -0.10256449
0.19625632 -0.28836673 0.11080063 -0.09017996 0.034917146 0.39198393 -0.0530466 -0.31938002
-0.6078315 -0.0068557165 -0.10663986 -0.24126852 -0.02504487 -0.2037985 -0.043879915 -0.35032186
-0.068039864 -0.19561371 -0.24001232 0.2477877 0.28223717 -0.35039458 -0.29170102 -0.001699445
-0.38746172 0.01453216 -0.20029725 0.24688742 -0.058749948 0.00017170385 -0.099613376 -0.1923466
-0.18650578 -0.051678684 -0.57215047 -0.34148878 0.09268182 0.037915934 -0.11902716 -0.032997094
-0.15031725 0.1952657 0.07229034 -0.1017983 -0.053876463 0.047675718 -0.14060384 -0.30863714
-0.34166053 0.0582511 0.08286449 -0.19278497 -0.19825642 -0.18833153 0.06818844 -0.060394064
-0.245052 0.28728318 -0.09546869 -0.060674425 0.036096968 -0.082004875 -0.22282214 -0.079481184
3.6483233 -0.12574449 -0.39478287 -0.0845863 -0.09024562 -0.048606716 0.012513354 -0.08264727
1.1232096 -0.3564538 -0.83325016 -0.23135838 0.030890644 -0.21444292 0.071653865 -0.9519738
-0.2437934 0.06451322 0.105786 -0.3256982 -0.52744913 -0.404332 -0.23501225 -0.064169295
0.03232385 0.49033284 -0.32498914 0.11497251 -0.28726792 0.25378966 0.10493666 -0.14294708
-0.75022143 0.022633163 -0.29460108 2.4916391 0.10761427 -0.29070416 0.28616598 -0.13067824
-0.4210771 -0.88849336 -0.0005355522 -0.22798674 -0.5265094 -0.13028693 -0.045940027 -0.21286418

fc2.weight f4 [256, 256]
00000000: 1b26 fe3c 3b1f 953d c84b e0bc 7ada 1d3d
00000010: 2dd0 853c 6008 583d a279 ae3d 3aa4 b6bd
00000020: 61db 15bd 7b3f cc3c 6312 a9bc 4591 7abc
00000030: fadc d53c 4e05 bc3b edc6 603d 932e a33c
00000040: f84a 513c ef0c 0fbc 3889 083a b161 bfbc
00000050: b28c 85bc 8110 3cbd 03a1 ddbc f521 0a3c
00000060: a43c 91bd fb3f cb3c 0cab c23c d607 863c
00000070: 584e 2a3a db56 3bbb e201 d93c 00f3 8cbd
00000080: 166e f9bb cb4b fd3c a038 aabd e2c4 c5bc
00000090: 9d45 3f3d 1949 62bc 8409 30bd 73ca a43a
000000a0: 841b b03b 64a4 75bd e9f0 013d c765 18bd
000000b0: b9a5 32bd d0c5 273c ffce 9cbd 44d3 edbd
000000c0: b938 ad3c c967 d2bc f05c 83bd 05bf 723b
000000d0: 8ded b0bd 1f27 44bd eee9 233d 5fec ec3c
000000e0: b48f 3cbd e756 3ebd d76e 4bbc 924d 433d
000000f0: d3ca 3b3d 9b34 f9bc e9dc e33c 45d1 cabd
00000100: 11c2 353d 5b9b fbbc 1a7c a83c 17af 26bd
00000110: f570 06bc 3961 213d f335 80bd dc81 0abd
00000120: 20ea 99bd f5e3 a3bd bbd5 5e3d 27b9 6cbd
00000130: 4975 97bd 2a3d 213c da5c 05bd 5c45 fb3c
00000140: 6771 2bbd 851b e23c afbc 33bd 1955 5ebd
00000150: 187d 38bd 5e90 bdbd 3d28 5fbd d7a2 0c3d
00000160: d7e6 423d 988d 3dbc ea52 853d 52a0 a83d
00000170: b391 a83c d8d7 26bd 0d22 7bbd 2a4b bebb
00000180: 2c89 3b3d c07a 1bbd 9d80 6a3c 9130 893d
00000190: d0b5 9fbd 7ce3 6abd 151c 6bbd 5ae7 423d
000001a0: 12a1 19bd 8f40 313c 8d03 5f3b a5ea 38bc
000001b0: cf9c 743d cf70 59ba c6e7 953c 45da 78bc
000001c0: 7472 753d ea39 8abd c2ae 5cbd bb1c 42bd
000001d0: dccf 273d 3d54 c9bc 9695 81bd e8e2 43bd
000001e0: 8995 83bd cef7 5ebc d930 163d 42b3 9dbd
000001f0: ebe1 c2bc fccc e6bc 9310 ed3c 2182 7e3d
00000200: 2b60 ccbc 8a98 813d 3d81 47bd c359 d93c
00000210: e870 3bbd 33ff 73bd 0769 eb3c 8312 9bbd
00000220: e377 b63c 9120 32bc ed62 36bd 6c1d 123c
00000230: d6f8 56bd be34 923c 33df edb9 3202 b2bd
00000240: 7877 a9bc 3522 273d f2fb 1dbd ba3c ccba
00000250: 94ad 52bd 1d0a 473b 1f08 183d 4c1c 803d
00000260: c797 85bd da88 c03d cf10 83bd d9e5 dc3c
00000270: 54f8 2d3b aaf7 12ba 1566 e83c d427 56bc
00000280: 90f8 813d cc66 24bd 07f4 473b cbd7 adbd
00000290: a8a8 08bd 8b8a d0bc fe7c b43c ed5a 2fbd
000002a0: dd96 5d3d fc8c 183c a6bb a3bd 9857 83bc
000002b0: e3f2 c0b9 9af5 0dbd a2b2 0dbd b971 c73c
000002c0: 5e5c 52bd f495 22bd be0b 1cbc 7b39 fdbc
000002d0: 4020 b83c e8f5 a4bd 1a91 6fbd ac0b 893c
000002e0: 71ad e7bc 610c f4bc 61f2 0b3d d6ba 973b
000002f0: 3704 b9bc 053f 19bd 4af4 38bd 0dee 39bd
00000300: 63c9 a43d c693 94bc 548f abbd f2ba c6bc
00000310: 09f2 adbd cb25 23bd 56a3 27bd f213 6a3c
00000320: 0f68 e3bb fcb8 6f3c 239c 743d 1612 7dbd
00000330: 975c 373d 9ec9 4bbb c822 85bd 12ff a3bd
00000340: 6322 90bd 4eda 8e3b 0661 7dbd fd36 ecbc
00000350: 859e f83c 8eab 4cbd 6d83 0dbd 7712 0ebd
00000360: e366 bb3b ba7c bbbb e849 353d a537 9e3d
00000370: 6c2d dcbd c83b 0cbd 3936 0ebd d003 19bd
00000380: 76d1 93bc dc01 a4bc 3a34 26bd c7ca 083d
00000390: 800e cbbc d4d9 b5bc 2943 bd3d 2ff4 9bbc
000003a0: 077a fe3b aad3 9ebd e85f 13bd 46f2 04bd
000003b0: 5c8c 94bc 275c a538 987c 0b3d f14c 72bd
000003c0: ff8f 8e3a e229 40bd 53e9 bcbc d240 81bd
000003d0: 967d 88bd 2ae8 7a3d 8647 8d3c 5ef6 393c
000003e0: 00fb 87b9 6ddc 50ba 813c 28bd 1d56 afbd
000003f0: 5fe7 48bc 19a8 273d c94d 54bd 05bc 71bc
0.03102403 0.07281347 -0.027379885 0.038538434 0.016334618 0.052742362 0.08519293 -0.089180425
-0.03658617 0.024932614 -0.02063865 -0.015293424 0.026106346 0.005737937 0.05487721 0.01991967
0.012774222 -0.008731111 0.00052084355 -0.023362013 -0.01630244 -0.045914177 -0.027054315 0.008430948
-0.070916444 0.024810782 0.023763202 0.016361158 0.00064966595 -0.0028585705 0.026490156 -0.06882286
-0.007612 0.03091993 -0.083115816 -0.024141733 0.046697248 -0.013811373 -0.042977825 0.0012572542
0.005374374 -0.05997123 0.03172389 -0.037206437 -0.043615077 0.010240033 -0.07656669 -0.11612561
0.021145212 -0.025684254 -0.06414211 0.0037040126 -0.08639059 -0.04788887 0.040018015 0.028921304
-0.046035483 -0.046469595 -0.012416563 0.0476814 0.045847725 -0.030420592 0.0278153 -0.09903196
0.04437453 -0.030713728 0.020566989 -0.040694322 -0.008205642 0.03939936 -0.0626029 -0.03381525
-0.07515359 -0.08002464 0.054403048 -0.057793763 -0.07395417 0.009841243 -0.032559253 0.030672722
-0.041856196 0.027601013 -0.043881115 -0.054280374 -0.045041174 -0.092560515 -0.054481734 0.034334984
0.047583427 -0.011569403 0.06509955 0.08233704 0.020577287 -0.04073319 -0.06131177 -0.0058073
0.045785114 -0.03795886 0.01431289 0.066987164 -0.0779835 -0.057345852 -0.057399828 0.047583915
-0.037507124 0.010818615 0.0034029216 -0.011286412 0.059719857 -0.0008294703 0.018298995 -0.015188758
0.059923604 -0.067493275 -0.0538776 -0.04739068 0.040969715 -0.0245763 -0.063273594 -0.047823817
-0.06425006 -0.013608886 0.03666768 -0.07700206 -0.023789367 -0.028173916 0.028938567 0.06213582
-0.0249482 0.06327923 -0.048707236 0.02653206 -0.045761973 -0.05956955 0.028736604 -0.0757189
0.022273963 -0.010872022 -0.044527937 0.0089181475 -0.052483402 0.017847415 -0.0004537046 -0.08691825
-0.02068685 0.040804107 -0.038570352 -0.0015582063 -0.05143507 0.0030371018 0.03711712 0.06255397
-0.0652309 0.09401102 -0.0639969 0.026965069 0.002654572 -0.0005606363 0.028368989 -0.013071019
0.06346238 -0.040137097 0.0030510442 -0.08488425 -0.033363968 -0.025456687 0.022032257 -0.042811323
0.054098953 0.009310957 -0.079947755 -0.016032979 -0.00036802058 -0.034658052 -0.034594186 0.02434622
-0.05135762 -0.039693788 -0.009524284 -0.030911198 0.022476315 -0.080547154 -0.05848799 0.016729198
-0.028280945 -0.029791059 0.034166697 0.004630427 -0.022585018 -0.037413616 -0.045154847 -0.04539304
0.08046224 -0.01813687 -0.08376947 -0.024259064 -0.0849343 -0.039830964 -0.040927254 0.014286982
-0.006939895 0.014631506 0.059719216 -0.061784826 0.044766035 -0.0031095515 -0.065007746 -0.08007635
-0.07037809 0.00435952 -0.061860107 -0.028834814 0.030349026 -0.049968295 -0.034549166 -0.03468558
0.005719052 -0.0057216557 0.044259936 0.07725457 -0.10750851 -0.0342367 -0.03471968 -0.03735715
-0.018044215 -0.020020418 -0.04057715 0.03339651 -0.024787188 -0.022198595 0.092413254 -0.019037334
0.0077660116 -0.077552155 -0.035980135 -0.032457612 -0.018133335 7.884978e-05 0.03405437 -0.05915541
0.0010876654 -0.046914943 -0.023060476 -0.063111916 -0.066645786 0.061256565 0.01724602 0.011350242
-0.00025936216 -0.00079674163 -0.041073326 -0.08561347 -0.012262194 0.040931795 -0.051831994 -0.0147543

fc2.bias f4 [256]
00000000: 630b afbd d423 54bd 01b2 3fbd d2ff 7bbd
00000010: 0839 1ebd 235b d6bd af5f 0f3e 544b 0abe
00000020: b52f 8b3c e511 6b3e 5e0e 83bd f85c 8bbd
00000030: d403 3abd 3735 8b3e 1582 28be 3eae 143f
00000040: c1b5 f3bd 7c9d b8be c2af 54bd beeb c6bc
00000050: 6b0e 6ebd 928e b2bd d166 79bd e871 e1bd
00000060: 0051 d1bd a782 673b 2701 05be dcdd 67bc
00000070: 8569 143e 6df9 d6be 099f b6bd 872b 4ebd
00000080: 45a4 4ebc f292 94be b04a 993d 8d29 b7bd
00000090: 25ff 9bbd c01a e1bb 6dc3 fc3f 4f1a 3bbe
000000a0: bc3d 01be 8bbc c9bd 7433 933c 5cdc b13c
000000b0: fa0e 7cbd 90b0 d7bd 4a58 abbe 180f d1bd
000000c0: b602 243f cdac c13d c3bb 52be 34ff cebd
000000d0: b6ca 1ebe 6413 6fbe 8b5e 20be 378b 11be
000000e0: 86cf 10be dc9e adbd 500d 11bc 6f65 2e3f
000000f0: 730d ce3d 281e 1c3f a9c8 183f b435 28bd
00000100: caa5 3ebd 7d0b 88bd 1b26 173f f70d ec3f
00000110: 80c8 103e c27d cbbd c55d b6bd 4bc4 a8bd
00000120: 89ee 67bd 944e c5bd 812d c3bd 4470 05be
00000130: 5184 6ebd 43c2 8fbd a3a9 9d3e 1297 08bd
00000140: 9bc9 e93d 4d46 c23e 8356 2bbe 0a50 bcbd
00000150: be0b 13bd 7d97 86bd a092 8bbe 333d b1bd
00000160: 36f0 003b 4480 aebd c212 153d ca82 0cbf
00000170: 61e4 d0bd 33c9 5bbe 57cf b4bd 4db9 bdbd
00000180: 0fed 27bd db09 d8bd dfe6 c1bd dd8e 61bd
00000190: fb65 b0bd 1b79 c8bd dc0a 1dbe 5f42 57bf
000001a0: 287a cdbe c7f4 803e d9a8 5dbd 1385 21bc
000001b0: 53e8 2cbe 6da6 53bd e388 92be 01eb 33bd
000001c0: 3407 48be b013 d2bd 15af 993d c745 91bd
000001d0: bbea 72bd d901 d8bd 1ded 843f 7b80 04be
000001e0: acf3 87bd a675 a6bd 70a9 453d 12f2 8abd
000001f0: f0d5 64bc e3f3 acbd 9fa4 6cbd 54f3 b4bd
00000200: 59ce 0fbd 27ae 51bc d664 16bc 2e7c 48be
00000210: 4e77 4fbd 15aa 1abe f72e d9bd 4a41 a7bd
00000220: 8863 e9bd cd28 1d3e d0bd 1bbc e766 efbd
00000230: c2da edbc ff9c febd 0422 c3bd d51c 16bd
00000240: 6301 3ebd a603 8cbd b505 49bd 8b0a 86bd
00000250: 1f54 aebd 5697 d8bd 8ff7 25bd 9b1c 90bd
00000260: bb3f cabd 7bd4 3bbd 788f a6bd e1df b8bd
00000270: 755f 6abd eaa0 53bd 844a 393e 8576 903e
00000280: 7e88 bfbd 944d 783f db03 a2bc 87d4 d3bd
00000290: b2aa bebd 43dd 613c 8680 a7bd 48a1 aabd
000002a0: 8faf 5bbd db98 c73d 99ca 18bd e45c c9bc
000002b0: 147f 913e 963e 6dbd bfd4 903d 6f6e 0fbe
000002c0: 081a a5bd fbf2 9abd feda 83bd a44c 1e3e
000002d0: 1b7a 16bf d6cf a6bd 3a1a 9d3d d0fb 4bbd
000002e0: 993f d2bd a58b c3bd 6ebf d4bd ab2b 22bd
000002f0: b2bf 9dbd 1fca febc 7e24 91be 1aac 18be
00000300: d517 503d c5b4 aabd 1529 aabd 3c93 8abd
00000310: 621b 1b3f d7e4 80bd 4e07 c9bd d06a 31bd
00000320: 68db 973e 8c7c 9cbd 1d91 903c 5179 84bd
00000330: 5540 d0bd aec7 63bc caf1 96bd 1165 05be
00000340: dd61 e0bd b7dd 9bbd f74a cdbd d2a0 64bd
00000350: ab7e 5fbd 6f84 293f bee2 1fbe 9f5d 9abd
00000360: a2af d23e e397 c83e 8e76 0cbe d08f b1bc
00000370: a83f adbd 072d 963d 915d 0dbd adf9 a7bd
00000380: dc5c cbbd 516f 92bd a6a2 c9bd 1d0d 93bd
00000390: 96ef 95bd 9584 b1bd d4ed c6bd c877 00bc
000003a0: b77b efbd a06b d4bd b973 ec3c 81eb cd3d
000003b0: a3a3 b4bd bdeb a1bd a497 bcbc 94ee 633e
000003c0: d809 43bd 393d 4dbd 4006 1ebe 3533 68be
000003d0: b6b6 bdbd 421b 05bc af50 063d 6b4b 3fbe
000003e0: 3dc5 373e 479b b5bd 9a47 71bd 4ab7 edbd
000003f0: 58f0 a0bd 1aa2 72bc 7949 d1bd 4d06 34be
-0.08547094 -0.05179198 -0.046800617 -0.061523266 -0.038628608 -0.10466602 0.14001344 -0.13505298
0.016990522 0.22956045 -0.06399225 -0.06804842 -0.045413807 0.27189037 -0.16455872 0.5807837
-0.11899901 -0.3605765 -0.05192543 -0.024282333 -0.05811922 -0.087185994 -0.06088907 -0.11008054
-0.10220528 0.0035325678 -0.12988721 -0.0141520165 0.14493378 -0.41987172 -0.08917052 -0.05033448
-0.012612407 -0.2901836 0.07484949 -0.08943472 -0.07617024 -0.006869644 1.9747139 -0.18271755
-0.12621206 -0.09850415 0.01796887 0.02171152 -0.06153772 -0.105317235 -0.33465797 -0.10207957
0.64066637 0.09456787 -0.20579438 -0.1010727 -0.15507016 -0.2334724 -0.15661065 -0.14213262
-0.14141664 -0.08477566 -0.008853272 0.68123525 0.10061159 0.60983515 0.59681183 -0.04106684
-0.046544828 -0.06642816 0.5904252 1.8441762 0.14138985 -0.09936096 -0.08904604 -0.08240565
-0.05662397 -0.09634128 -0.095301636 -0.13031107 -0.058231656 -0.07019474 0.30793485 -0.033347197
0.11415406 0.3794426 -0.1673222 -0.09194954 -0.03589987 -0.06571863 -0.27260303 -0.08654251
0.0019674427 -0.085205585 0.036394842 -0.5488707 -0.1019981 -0.2146347 -0.088286094 -0.09263859
-0.04099756 -0.10548755 -0.09467863 -0.055067886 -0.08613201 -0.09788724 -0.15336174 -0.8408565
-0.4013226 0.2518675 -0.054116104 -0.0098583875 -0.168855 -0.051672388 -0.2862006 -0.04392529
-0.19533998 -0.10257661 0.07504097 -0.07093387 -0.059305888 -0.105472274 1.0384861 -0.12939636
-0.066382736 -0.081279084 0.04825729 -0.067844525 -0.013967022 -0.08444955 -0.057774182 -0.08835474
-0.035108898 -0.012797869 -0.009179315 -0.19578621 -0.050650887 -0.15103944 -0.10604661 -0.0816675
-0.11395937 0.15347596 -0.009505704 -0.11689549 -0.029034976 -0.124322884 -0.09527972 -0.03664859
-0.04638804 -0.068366334 -0.04907771 -0.0654498 -0.085121386 -0.1057574 -0.040519293 -0.07036706
-0.09875437 -0.045856934 -0.08132833 -0.090270765 -0.05721994 -0.05166713 0.18094832 0.28215423
-0.09352206 0.96993375 -0.019777229 -0.10343271 -0.09309901 0.013785663 -0.08178811 -0.08331543
-0.053634223 0.09745952 -0.037302587 -0.024580427 0.28417265 -0.057921015 0.07071828 -0.14006971
-0.08061606 -0.07565876 -0.06438254 0.15458924 -0.5878007 -0.0814511 0.07671018 -0.049800694
-0.102660365 -0.095481195 -0.10388075 -0.039592426 -0.077025786 -0.031102238 -0.28348154 -0.14909402
0.050803978 -0.0833526 -0.08308617 -0.06766364 0.6058866 -0.06293648 -0.098158464 -0.043314755
0.2965958 -0.07640943 0.01764732 -0.06468452 -0.1016852 -0.013902588 -0.07370336 -0.13026835
-0.10956166 -0.07610648 -0.10024064 -0.055817433 -0.05456416 0.662177 -0.15613839 -0.07537388
0.41149622 0.3917838 -0.137171 -0.02167502 -0.08459407 0.07332807 -0.03451306 -0.08201919
-0.09929821 -0.07150138 -0.09845476 -0.071802355 -0.07321088 -0.08667866 -0.09713331 -0.007841058
-0.116935186 -0.1037209 0.028863775 0.100546844 -0.08820274 -0.07906292 -0.023021527 0.22258979
-0.04761681 -0.050107215 -0.15432072 -0.22675784 -0.09263365 -0.008124175 0.03279179 -0.18681113
0.17946334 -0.088675074 -0.058906175 -0.11607225 -0.07858342 -0.014809156 -0.10219092 -0.17580529

fc3.weight f4 [5, 256]
00000000: 439e 823b e1ed cdbb e815 263c 2cde 8b3c
00000010: ed0b cab9 486f 6d39 6052 853c 0ff4 da3b
00000020: c2cb 82bd 6ad4 6c3d 168b 59bb 966b 0ebd
00000030: a73d 463c 0dfd 953d 254c 9cbc 2fb3 b13d
00000040: 741a 9fba f74f dbbd 037a cabb 9e13 54bb
00000050: 16e0 45bd 53fc 0ebd 0a91 78bc 92ba b5bc
00000060: 895d e03c a00c 803d 390d d1bd da2f 2e3d
00000070: 4f87 29bd 727d e4bb 3cc7 633b 2992 75bb
00000080: 0953 833c bdfd 953d a5be 74bb bb99 333a
00000090: ffb1 803c 4ba9 683a 1ee9 973e 5d37 013d
000000a0: ca37 78bc 17e7 04bd e7b3 cabd 69e9 31be
000000b0: 0b8b 383c 18cf 2ebc 098d 8ebb 2a60 273a
000000c0: 240a 9abd fd02 293d 04d1 97bd 3024 b83b
000000d0: 10ae 84bd ce6c 5a3d bd3c 15bd 83f6 cabb
000000e0: 0e9a e9bc 2e85 8bbc df5d f1ba 5727 df3d
000000f0: 411b 0d3b 725c 813d deb0 7c3e 8087 d4bb
00000100: d7ed 2c3c fe6b 01bd 776c ac3d ff0e 7d3e
00000110: 31a7 753d 05fb a63c 188d 843a 151c 3dbd
00000120: ba26 07bd bf01 92bc 1ab0 9cbb e23a 743c
00000130: 79e9 68ba dcfd 9a3c 3e53 073d c4e1 8cbc
00000140: 65ec 383b 43bf a0bd 352a 03bd d91d 2b3e
00000150: 32d3 bc3b 3445 d33b 20d4 a83c 8c39 ce3c
00000160: bafc 1bbe 33a3 0a3d 00cb 163e 65e6 273c
00000170: 35a6 d13c 6e57 08bd 7586 c03c b29f 26bc
00000180: 1349 31bd c6fb 813b 7c50 b8bc 05e3 e7bb
00000190: cfac 5abc c3b3 013c 1f0c 83bd 8803 cc3d
000001a0: 058e 003e 101e e5bd 4c9a 453d ce1c e43c
000001b0: 2474 1d3c 4d59 043d 6e79 9dbd 19ba d5bb
000001c0: 36ba dd3c 9117 0ebc ab93 a9be 0980 3a3d
000001d0: 8379 c23c fc0a 163d d5f9 9c3d 11cc a83c
000001e0: 5e1a 2fbd 8062 a1bc 90cc 8ebd d399 f3bd
000001f0: a11b 49ba c8f9 94bd 137e 013d 7fa8 453c
00000200: 365b 1dbc 325c c53d 119f 083d 3ecb c3bc
00000210: 75da 7ebb 7ad1 253b 5433 77bc 6194 96bb
00000220: 06e4 483d 72ec 213e ed78 4cbe 414f 2abd
00000230: 6226 94bd 7919 7bbd 07de 4abd d001 5dbc
00000240: 68bc bd3c c46c 8cba a5c0 fb3b 02f9 153c
00000250: ef3a 0fbd 5ef1 023d f035 9e3c 745c 8abc
00000260: 0ae2 683b d10c 1ebd 8735 33be 758f f53c
00000270: 5317 113c 3de0 b43c ca17 14be 759c ba3c
00000280: 64e3 0c3d df55 473e 553f 623b ae01 94bc
00000290: 930a 76bc 6c12 74be cad2 0d3d 5694 58bd
000002a0: c682 b23c d1b6 d43b d976 a43c bdbd 053e
000002b0: 1ca2 023e ca74 b8bb d846 0abe 35a8 18bc
000002c0: 71a9 28bd 39d9 c5bc a2f0 e6bb cf42 e63d
000002d0: 34a3 bfbb 52a9 86bc 481d 0bbd 781a 0cbe
000002e0: 0661 00be 6e44 afbc 794a 34bc 8c4b abbd
000002f0: 9560 aaba 8df9 27bd 2547 0f3d 2cb4 b63c
00000300: 00f9 0cbd 0800 c2bc aa72 d73b 58d7 883d
00000310: 3a7d 583d a74c 4a3b 93a3 f8bb 7f75 17bd
00000320: c380 72be ec53 913c 4f2e 1abe 1557 4dbd
00000330: 3f6e 1cbd 6696 75bb e655 e9bc e824 0d3c
00000340: 2410 5a3c cfcd 523c ed21 2d3c 3ede 0c3d
00000350: 5636 b13c bf7c 47be b4ca ab3d b509 d6bc
00000360: 9fdf efba d10a 3f3d 0508 41bc 3c4b 743d
00000370: fb0a 273d 81d5 913b 8675 b4bc 5234 95bb
00000380: e4b7 9e3a 8824 4ebd f892 98bc 3b0a 203d
00000390: 204c 81bc c33c 9d3c c555 103d 2765 19bd
000003a0: ac33 90bd 07c2 e839 d191 32be 70c4 74bd
000003b0: 641e 59bd 091b cebb 1949 9abd 8729 003e
000003c0: 273b f5ba 2694 9f3a ec2a 2d3d d8d6 d4bd
000003d0: 629c 27bd 7715 b5bb e3ae 333d 023d 513c
000003e0: c1fd 18be c306 edbb a6db ebbc 0bd2 d9bc
000003f0: ace8 493d 54a5 903c 9e81 59bb 3198 b9bb
0.0039861514 -0.006284461 0.010137059 0.017073713 -0.00038537328 0.00022643537 0.016274631 0.006681926
-0.0638652 0.05781976 -0.0033194474 -0.03477057 0.01209966 0.07323656 -0.019079277 0.08676755
-0.0012138621 -0.107086115 -0.0061790957 -0.0032360326 -0.048309408 -0.034908604 -0.015171299 -0.02218369
0.027388351 0.06252408 -0.102076 0.042526104 -0.041388806 -0.006972962 0.0034756204 -0.0037471151
0.016030805 0.07323787 -0.0037345078 0.0006851216 0.015709875 0.0008875324 0.29670042 0.03154694
-0.01515002 -0.032446947 -0.09897595 -0.17374195 0.011263619 -0.010669492 -0.004350309 0.0006384874
-0.075214654 0.041262615 -0.074129134 0.0056195483 -0.06478512 0.05332642 -0.036434878 -0.0061939373
-0.028515842 -0.017031278 -0.0018414817 0.10896175 0.0021531137 0.06316461 0.24676844 -0.0064858794
0.010554752 -0.03159713 0.084191255 0.24712752 0.0599739 0.020383367 0.001011285 -0.04616936
-0.032995917 -0.017823098 -0.004781735 0.014906617 -0.0008884888 0.018919878 0.03303837 -0.017197497
0.0028217074 -0.0784898 -0.032022674 0.16710605 0.005762481 0.0064474586 0.020608962 0.025173925
-0.15233126 0.033847045 0.14725876 0.010247801 0.025591949 -0.033286504 0.023501614 -0.01016991
-0.04328258 0.0039667813 -0.022499315 -0.0070766234 -0.013346865 0.007916394 -0.06398796 0.09961611
0.12554176 -0.111873746 0.048242852 0.027845766 0.00961021 0.032311726 -0.076891765 -0.0065224287
0.027066331 -0.008672611 -0.33120474 0.04553226 0.023739582 0.03663157 0.07664839 0.020605119
-0.042749755 -0.019700289 -0.06972611 -0.11894574 -0.00076716585 -0.072742045 0.031614374 0.012064098
-0.009604266 0.096367255 0.033354823 -0.023900624 -0.0038887535 0.002530186 -0.015087921 -0.004595325
0.049045585 0.15812853 -0.19968005 -0.04157949 -0.072338834 -0.06130359 -0.049528148 -0.013489202
0.023161128 -0.0010713567 0.007682877 0.009153606 -0.034968313 0.031968467 0.019312829 -0.016889788
0.003553512 -0.03858644 -0.17500888 0.029975632 0.008855659 0.022079581 -0.144622 0.022779683
0.034396544 0.19466351 0.0034522612 -0.018067207 -0.0150171695 -0.23835152 0.034624852 -0.05287584
0.021790873 0.00649152 0.020076202 0.1306066 0.12757152 -0.0056291567 -0.13503587 -0.009317447
-0.041177217 -0.024151431 -0.0070477286 0.112432115 -0.0058483128 -0.01643816 -0.03396347 -0.13681972
-0.12537012 -0.021394935 -0.011004084 -0.08364019 -0.0012998754 -0.041009475 0.034979958 0.02230271
-0.034417152 -0.023681656 0.0065749483 0.066816986 0.0528538 0.0030868442 -0.007587859 -0.036977287
-0.23681931 0.017740212 -0.15056728 -0.050131876 -0.038191076 -0.0037473678 -0.028483342 0.008614756
0.013309512 0.012866451 0.010567171 0.034391634 0.021632355 -0.1948118 0.08388272 -0.026127676
-0.0018300897 0.046641175 -0.011781697 0.05964206 0.040781956 0.0044505005 -0.022028696 -0.004553356
0.0012109247 -0.050327808 -0.018624768 0.039072257 -0.01578337 0.019194013 0.035238046 -0.037449982
-0.07041106 0.0004439505 -0.17438437 -0.05975765 -0.0530075 -0.006289844 -0.075334735 0.12515841
-0.0018709645 0.0012174889 0.04227726 -0.10392541 -0.040920623 -0.0055262404 0.043867957 0.012770893
-0.1494055 -0.007233472 -0.02879126 -0.026589414 0.04929416 0.01765696 -0.003318883 -0.0056638946

fc3.bias f4 [5]
00000000: 1760 e13e b53b b43e a348 db3e 0428 f23e
00000010: 2d93 db3e
0.44018623 0.35201803 0.42828855 0.47296154 0.42885724
