Model/DDQN/[S4][allo]net_Q(param).pt (torch, 968542 bytes, 6 tensors)

fc1.weight f4 [256, 681]
0.010570647 0.018877916 -0.02526708 -0.035116278 0.0147304395 -0.031470153 -0.042989615 -0.033431645
-0.06475929 0.020484585 0.075594634 0.1101749 0.05671307 0.041687485 0.026214352 -0.0274136
0.010461996 -0.03534216 -0.033392962 -0.054895718 -0.07255208 -0.036107715 -0.04142942 -0.057634942
-0.08086605 0.015777627 0.009002479 -0.029623102 -0.010261103 -0.024386326 0.0014581685 -0.066102065
-0.06417455 -0.07290297 -0.029586572 -0.047664054 -0.11782211 -0.055908214 -0.112302974 -0.087486334
-0.051774982 -0.062302552 -0.039295673 0.008446113 0.00514926 0.004778983 -0.056948684 -0.0163688
-0.081939936 -0.0211126 -0.06394583 -0.08219762 -0.19269404 -0.10523819 -0.082197785 -0.122449584
-0.10617051 0.0005719748 -0.06358861 -0.041044604 -0.047318023 -0.08234351 -0.04540539 -0.09844773
-0.066808246 -0.095524095 -0.11261237 -0.109172605 -0.1247749 -0.15443248 -0.17600763 -0.06887894
-0.116667606 -0.044321105 -0.049788263 -0.087386325 -0.056382105 -0.13933548 -0.092043094 -0.15590237
-0.096913554 -0.10694548 -0.11523185 -0.07150207 -0.17010015 -0.1378704 -0.08692367 -0.026811637
-0.08699341 -0.03048702 -0.06697598 -0.09271645 -0.068916865 -0.05907145 -0.08392444 -0.08858235
-0.084159344 -0.09846097 -0.11938379 -0.15505956 -0.09635872 -0.15555356 -0.116817534 -0.07938826
-0.0543174 -0.04929688 -0.07294862 -0.04675002 -0.009942213 -0.076822475 -0.091566175 -0.11983145
-0.094261564 -0.118129194 -0.11087647 -0.08259171 -0.122940056 -0.09718171 -0.079796545 -0.06873936
-0.013332102 0.009936424 -0.0067529697 -0.007269628 -0.03663667 -0.06604379 -0.13347493 -0.14449349
-0.0908376 -0.13180596 -0.0917433 -0.05345511 -0.059669625 -0.053513527 -0.040282078 -0.0019504799
0.0009842548 -0.034732416 -0.07938905 -0.054291334 -0.08601345 -0.17674781 -0.15435356 -0.13777061
-0.08496756 -0.054565433 -0.02894301 -0.06264143 -0.024303233 -0.07167674 -0.057049807 -0.016790168
-0.024389884 -0.021011434 -0.052230675 -0.11796255 -0.14644969 -0.15540406 -0.14139575 -0.073562525
-0.06855328 -0.117576756 -0.06465051 -0.058780182 -0.075519025 -0.05548102 -0.028365904 -0.017639782
-0.02975072 -0.0766749 -0.09893079 -0.13207047 -0.12554541 -0.12969416 -0.08610073 -0.12262062
-0.093094245 -0.07199419 0.01345751 -0.05842409 0.011855558 -0.030032132 -0.015574674 -0.07495697
-0.005663424 -0.010818245 -0.049445186 -0.093176514 -0.05430286 -0.0387445 -0.07908101 -0.13066532
-0.048101854 0.028386693 -0.035471056 0.020955686 -0.032148 -0.0027695617 -0.019696355 -0.029286163
-0.060251623 -0.05767524 -0.0233957 -0.08471474 -0.040745318 -0.054257482 -0.12330236 -0.07316042
0.006076259 -0.028618475 -0.04588747 -0.051330004 -0.03342705 -0.02828635 0.020522268 0.016686473
-0.05634295 -0.028081534 -0.09613605 -0.0959043 -0.06604931 -0.0027812677 -0.048935782 -0.019287914
-0.01216132 0.08153731 0.04460823 0.045866165 0.06277683 0.05034075 0.045869987 -0.03867794
0.019120302 0.030551862 0.029502735 -0.006839375 0.005591569 0.12886773 0.10443899 -0.05063413
0.0232098 -0.05235455 -0.099999934 -0.087658174 -0.07054138 -0.08527134 -0.13219744 -0.057695363
-0.10856259 -0.11710465 -0.07354867 -0.053837307 -0.034886617 -0.04044345 -0.123649925 0.0037885786
00000000: 8230 2d3c dca5 9a3c e8fc cebc 16d6 0fbd
00000010: f157 713c d9e6 00bd e115 30bd 9fef 08bd
00000020: 85a0 84bd 4acf a73c 5cd1 9a3d 61a3 e13d
00000030: f74b 683d 7fc0 2a3d 7bbf d63c 7c92 e0bc
00000040: cb68 2b3c f1c2 10bd 0fc7 08bd 55da 60bd
00000050: 2f96 94bd afe5 13bd e5b1 29bd 9e12 6cbd
00000060: 1a9d a5bd 1540 813c 227f 133c 26ac f2bc
00000070: 2f1e 28bc d5c5 c7bc 0420 bf3a 8560 87bd
00000080: f26d 83bd 274e 95bd 8a5f f2bc 623b 43bd
00000090: b84c f1bd 0300 65bd 1aff e5bd 092c b3bd
000000a0: 0112 54bd f630 7fbd 80f4 20bd 9161 0a3c
000000b0: 20bb a83b 0499 9c3b 0643 69bd dd17 86bc
000000c0: 20d0 a7bd 55f4 acbc 08f6 82bd 3a57 a8bd
000000d0: 9651 45be 1f87 d7bd 5057 a8bd d9c6 fabd
000000e0: ed6f d9bd 94f0 153a bf3a 82bd 631e 28bd
000000f0: 8bd0 41bd b7a3 a8bd 01fb 39bd f79e c9bd
00000100: c3d2 88bd 23a2 c3bd 50a1 e6bd e395 dfbd
00000110: fc89 ffbd 8c23 1ebe 583b 34be 6710 8dbd
00000120: 6def eebd 0c8a 35bd c7ee 4bbd 9af7 b2bd
00000130: ecf0 66bd f6ad 0ebe 1781 bcbd dfa4 1fbe
00000140: 9d7a c6bd 3b06 dbbd adfe ebbd ad6f 92bd
00000150: bc2e 2ebe e62d 0dbe 0905 b2bd 14a4 dbbc
00000160: 9a29 b2bd eabf f9bc b42a 89bd 1fe2 bdbd
00000170: 4924 8dbd e8f4 71bd 94e0 abbd aa6a b5bd
00000180: bc5b acbd e8a5 c9bd 7d7f f4bd efc7 1ebe
00000190: b857 c5bd 6f49 1fbe 083e efbd 5096 a2bd
000001a0: ec7b 5ebd 86eb 49bd 1666 95bd f37c 3fbd
000001b0: aae4 22bc 1a55 9dbd 0c87 bbbd 316a f5bd
000001c0: 350c c1bd b8ed f1bd 3413 e3bd d825 a9bd
000001d0: ffc7 fbbd 3407 c7bd 5f6c a3bd 39c7 8cbd
000001e0: e46e 5abc 62cc 223c 0448 ddbb 0f36 eebb
000001f0: 5510 16bd f741 87bd a7ad 08be 1af6 13be
00000200: 1009 babd 24f8 06be e9e3 bbbd bff3 5abd
00000210: 2368 74bd 0031 5bbd d2fe 24bd 3fa7 ffba
00000220: 1c02 813a 9443 0ebd ba96 a2bd 9760 5ebd
00000230: d227 b0bd 61fd 34be dc0e 1ebe bd13 0dbe
00000240: 7903 aebd 0180 5fbd e419 edbc 264a 80bd
00000250: 9317 c7bc 41cb 92bd 0fad 69bd 898b 89bc
00000260: 4bcd c7bc 2c20 acbc d5ef 55bd 5996 f1bd
00000270: e8f6 15be 3e22 1fbe 0cca 10be f3a7 96bd
00000280: a965 8cbd 15cc f0bd 7d67 84bd 7dc3 70bd
00000290: b8a9 9abd 1140 63bd 9d5f e8bc 4e81 90bc
000002a0: c8b7 f3bc bb07 9dbd 3a9c cabd 7b3d 07be
000002b0: fa8e 00be 8cce 04be 9455 b0bd 8520 fbbd
000002c0: 32a8 bebd b171 93bd e37c 5c3c 194e 6fbd
000002d0: d03d 423c f205 f6bc eb2c 7fbc 0a83 99bd
000002e0: 3e94 b9bb 023f 31bc 0987 4abd 54d3 bebd
000002f0: ad6c 5ebd 8eb2 1ebd 39f5 a1bd 21cd 05be
00000300: 7306 45bd 368b e83c 194a 11bd 42ab ab3c
00000310: 9fad 03bd 8981 35bb 405a a1bc 89e9 efbc
00000320: 68ca 76bd df3c 6cbd 57a8 bfbc ec7e adbd
00000330: 90e4 26bd 183d 5ebd f385 fcbd 21d5 95bd
00000340: 5b1b c73b 4b71 eabc 80f4 3bbd 693f 52bd
00000350: cdea 08bd c7b8 e7bc 511e a83c 12b2 883c
00000360: ddc7 66bd 3f0b e6bc fae2 c4bd 7969 c4bd
00000370: dc44 87bd ee45 36bb e370 48bd b001 9ebc
00000380: 4640 47bc 08fd a63d 1fb7 363d 29de 3b3d
00000390: 2391 803d 1a32 4e3d 2be2 3b3d c26c 1ebd
000003a0: 2ea2 9c3c e647 fa3c b8af f13c d61c e0bb
000003b0: 7b39 b73b e7f5 033e 1ce4 d53d bc65 4fbd
000003c0: 7a22 be3c ba71 56bd c4cc ccbd 2186 b3bd
000003d0: 0078 90bd bea2 aebd c45e 07be f951 6cbd
000003e0: 1056 debd 90d4 efbd afa0 96bd 8284 5cbd
000003f0: 45e5 0ebd 08a8 25bd 2c3c fdbd cd49 783b

fc1.bias f4 [256]
-0.43274134 -0.46763507 -0.043990586 0.45563084 -0.4710039 -0.82939035 -0.6525957 -0.4794122
0.038521003 -0.41613236 -0.3805307 -0.34955356 -0.0851426 -0.22053966 -0.26493427 -0.5705292
-0.89415365 -0.12868437 -0.38130218 -0.25981003 -0.37066567 -0.106857434 -0.17995839 0.21127026
-1.0474138 -0.34914428 -0.22600865 1.0257108 -0.064763695 -0.49464634 0.17360513 -0.32469955
-0.7487689 -0.29110935 -0.7522121 -0.3091386 -0.6491227 -0.40336895 -0.4348364 -0.6735195
-0.123391755 -0.30098003 -0.41019168 -0.7156976 -0.5130304 -0.2394135 0.35363466 -0.33859196
-0.32049903 -0.28408673 -0.7906167 -0.99454397 -1.1460205 -0.2288192 -0.44939908 -0.10515032
-0.47279516 -0.33265957 -0.4725958 -0.9272097 -1.1464461 -0.23191677 -0.45282045 -0.33621773
-0.3486719 -0.56786305 -0.4417247 -0.008165125 -0.78601503 -0.05950788 -0.18156017 -0.3150169
-0.23568346 -0.32311043 -0.59072566 -0.3242209 0.038131017 0.03850833 -0.15558457 -0.1013725
0.05947232 -0.20236202 0.3472594 0.29519513 -0.19696605 -0.3441319 -0.24543484 -0.025543028
-0.24119072 -0.2095396 0.25926685 -0.028262783 -0.21751943 -0.4702578 0.6799649 0.275886
-0.44139445 -0.22721098 -0.085206375 -0.41159996 -0.86774206 -0.19220705 -0.20621365 -0.34961048
-0.558928 -0.14571808 0.035562113 -0.6803855 -0.42287165 1.1368502 0.00031846264 -0.5874382
-0.44712326 -0.29390574 -0.2970528 -0.80882406 -0.42973667 1.3814353 -0.25740826 -0.4175115
-0.19832714 -0.5551392 -0.6817797 -0.9870906 0.1267484 -0.40147224 -0.22806698 -0.5280313
0.43570015 -0.5760484 5.6476226 0.040587045 -0.13985491 -0.42467758 -0.5162393 -0.06671343
-0.41490015 -0.21519129 -0.46905762 0.3437477 -0.62945974 -0.7290318 -0.38097876 -0.41085145
-1.0739579 -0.04313223 -1.0287129 -0.19045685 -0.6260457 -0.39116845 -0.4916901 -0.21556394
-0.0680833 -0.59187037 -1.1274033 -0.28851762 0.16651766 -0.3970047 -0.1852394 -0.10219723
-0.38216236 -0.2175544 -0.3355087 -0.17040098 -0.17689557 -0.2370031 -0.5386131 -0.2932289
-0.40039676 -0.3383091 -0.34338796 -0.37905723 0.049703337 -0.36263368 0.7639299 -0.37108815
-0.48292866 -0.7098616 -0.5811091 -0.49603936 -0.057819594 -0.28280464 -0.23973599 0.021621339
-0.65914446 -0.3157891 -0.52845544 -0.012789524 -0.6764867 -0.08040357 1.6238772 -0.16183895
-0.9378525 -1.1619663 -0.12708554 -0.53026915 -0.43469536 -0.22801518 -0.10855466 -0.5417852
-0.23598982 -0.40631536 0.16171458 -0.17172147 -0.6722406 -0.3301225 -1.2229171 -0.41693112
0.7178475 0.09617917 -0.86226237 0.87881804 -0.9131714 -0.2014588 0.086380646 -0.66698974
-0.17558038 -0.3795987 -0.29602525 -0.2990306 -0.6316473 -0.039326876 -0.40939155 -0.5605486
-0.2842259 -0.53142774 -0.13726026 -0.3599905 0.63202864 -0.7952044 -0.3791582 -0.02848375
0.67436737 -0.25977376 -0.2743791 -0.3606857 -0.32819936 -0.21099067 -0.3507936 -0.23384866
-0.45536962 -0.15651965 -0.16868278 -0.19091392 -0.01650616 -0.8746582 -0.047225837 -0.43267393
-0.48945037 -0.42319384 -0.3278573 -1.2593749 -0.09545227 0.09763923 -0.7692811 -0.35817507
00000000: 4690 ddbe dd6d efbe 792f 34bd 7248 e93e
00000010: 6c27 f1be ed52 54bf 8310 27bf 8475 f5be
00000020: 33c8 1d3d 4d0f d5be ebd4 c2be aff8 b2be
00000030: 3e5f aebd 26d5 61be 77a5 87be 340e 12bf
00000040: 41e7 64bf d6c5 03be 0a3a c3be d205 85be
00000050: e4c7 bdbe 12d8 dabd 0347 38be 3b57 583e
00000060: a811 86bf 0ac3 b2be d06e 67be 7e4a 833f
00000070: d4a2 84bd 4942 fdbe 8bc5 313e 053f a6be
00000080: 52af 3fbf 490c 95be f990 40bf 6a47 9ebe
00000090: e82c 26bf 6086 cebe e0a2 debe c66b 2cbf
000000a0: d1b4 fcbd 0e1a 9abe a504 d2be f537 37bf
000000b0: f655 03bf d028 75be 9a0f b53e ed5b adbe
000000c0: 7318 a4be d173 91be db65 4abf 6f9a 7ebf
000000d0: cdb0 92bf 954f 6abe a317 e6be 0d59 d7bd
000000e0: 3512 f2be 5b52 aabe 14f8 f1be 9d5d 6dbf
000000f0: bfbe 92bf 977b 6dbe 15d8 e7be bb24 acbe
00000100: 2085 b2be 795f 11bf bd29 e2be 04c7 05bc
00000110: 4838 49bf 89be 73bd e9ea 39be e549 a1be
00000120: 0157 71be bb6e a5be cc39 17bf 4800 a6be
00000130: 452f 1c3d e9ba 1d3d 9051 1fbe 639c cfbd
00000140: 3f99 733d fd37 4fbe fccb b13e d123 973e
00000150: 78b1 49be 0e32 b0be 4553 7bbe 9d3f d1bc
00000160: b3fa 76be 8d91 56be a0be 843e 5a87 e7bc
00000170: 6abd 5ebe a1c5 f0be 2e12 2e3f ee40 8d3e
00000180: 74fe e1be ffa9 68be ae80 aebd 3bbd d2be
00000190: 5824 5ebf edd1 44be ac29 53be 2500 b3be
000001a0: e815 0fbf 1f37 15be 94a9 113d be2d 2ebf
000001b0: a282 d8be 4f84 913f 55f7 a639 5a62 16bf
000001c0: 57ed e4be d07a 96be 4e17 98be 180f 4fbf
000001d0: 7206 dcbe dfd2 b03f 04cb 83be 11c4 d5be
000001e0: 4516 4bbe 9a1d 0ebf 1d89 2ebf f8b1 7cbf
000001f0: 55ca 013e c58d cdbe 648a 69be 0f2d 07bf
00000200: 1714 df3e e877 13bf 53b9 b440 9a3e 263d
00000210: 2036 0fbe 576f d9be 4228 04bf 0da1 88bd
00000220: cb6d d4be 1b5b 5cbe 5228 f0be b3ff af3e
00000230: 4624 21bf d4a1 3abf a60f c3be 1f5b d2be
00000240: 7477 89bf 6cab 30bd ddac 83bf 1f07 43be
00000250: 8844 20bf 3b47 c8be cebe fbbe cbbc 5cbe
00000260: 426f 8bbd d184 17bf c04e 90bf 95b8 93be
00000270: 9b83 2a3e 3344 cbbe 66af 3dbe c84c d1bd
00000280: c9aa c3be 95c6 5ebe ccc7 abbe 987d 2ebe
00000290: 1d24 35be f1b0 72be 8ce2 09bf 1922 96be
000002a0: ce00 cdbe da36 adbe 8cd0 afbe ca13 c2be
000002b0: ba95 4b3d 1fab b9be e990 433f 44ff bdbe
000002c0: 6d42 f7be 7db9 35bf 91c3 14bf dff8 fdbe
000002d0: 3dd4 6cbd c5cb 90be 5a7d 75be 3c1f b13c
000002e0: b1bd 28bf 1caf a1be db48 07bf 278b 51bc
000002f0: 3b2e 2dbf a0aa a4bd 35db cf3f 1cb9 25be
00000300: 1a17 70bf 50bb 94bf b622 02be b8bf 07bf
00000310: 6490 debe d07c 69be e851 debd 6fb2 0abf
00000320: 51a7 71be 9108 d0be 8298 253e c1d7 2fbe
00000330: f617 2cbf d105 a9be 8c88 9cbf ff77 d5be
00000340: dbc4 373f 96f9 c43d 3abd 5cbf 38fa 603f
00000350: 9ac5 69bf 374b 4ebe 56e8 b03d d7bf 2abf
00000360: 58cb 33be c35a c2be 9f90 97be 8a1a 99be
00000370: a3b3 21bf 3815 21bd c59b d1be 1d80 0fbf
00000380: 0f86 91be a60b 08bf f48d 0cbe ad50 b8be
00000390: a1cc 213f 8492 4bbf 0621 c2be c156 e9bc
000003a0: 57a3 2c3f 1101 85be 6b7b 8cbe ccab b8be
000003b0: bf09 a8be f00d 58be 389b b3be 0676 6fbe
000003c0: 3526 e9be b046 20be 2ebb 2cbe f07e 43be
000003d0: ed37 87bc 9ae9 5fbf e16f 41bd 7087 ddbe
000003e0: 3d99 fabe ddac d8be e9dc a7be 3233 a1bf
000003f0: 7b7c c3bd 14f7 c73d 9bef 44bf b962 b7be

fc2.weight f4 [256, 256]
-0.039720025 0.013214483 -0.00030981566 -0.033273645 0.013571282 0.010005169 0.0027427734 -0.059439354
-0.06916023 0.03179808 -0.06467623 0.02584575 -0.03911854 0.03674499 -0.012238008 -0.020412924
0.047981452 0.011621439 -0.034978814 -0.0015717191 0.04880541 0.029648863 0.036419574 -0.013507576
-0.019041875 -0.051420372 0.036596753 -0.0022375006 -0.009883716 -0.023153909 0.012699758 -0.05847097
-0.010888025 0.039731562 -0.059427194 0.013071612 -0.010123925 -0.03680726 -0.017926209 -0.0110545065
-0.013489679 -0.03704843 -0.048708778 -0.012471828 0.02778924 0.05605226 -0.042280525 0.02095837
0.0017291736 -0.063551255 -0.02497748 -0.0065787025 -0.037545044 0.0020822203 0.05326995 0.018091075
-0.057430558 0.033373155 0.0016583423 -0.039376564 -0.023969026 -0.046209544 -0.07470271 -0.023743965
-0.041351553 -0.06050563 0.036494218 -0.0007348686 -0.008413433 -0.032219272 0.00067090493 0.00095166557
0.03665513 -0.01732497 -0.047950458 -0.009032833 -0.05521076 -0.025044223 -0.06617427 0.04374912
0.008734315 0.0086716525 -0.048477598 0.010191853 -0.025659095 -0.018584216 0.025384456 0.04827514
-0.044110484 0.01845442 -0.04470201 0.02313805 -0.0039666365 -0.04674032 0.009324187 0.020658342
-0.07330993 -0.016769554 -0.026459323 -0.005662274 0.053096503 0.018775921 0.04188718 -0.034398906
-0.06265648 0.024858665 -0.023576364 0.009232886 -0.05204511 0.043952607 0.016144192 0.041818246
0.020172747 -0.007567346 0.015515224 -0.049354456 0.019286096 -0.04470768 0.04584038 -0.0046432847
0.0033093246 -0.025869282 0.029476179 0.027140304 -0.026452623 0.02282742 0.035781737 -0.058280066
0.020133678 0.01975847 -0.08864723 -0.038569372 0.047601473 -0.065244295 -0.060108103 0.013589021
-0.038627207 -0.037271168 -0.026160024 -0.046446044 -0.020876132 0.029918863 -0.050809268 -0.0098581
-0.0592038 -0.029233834 -0.038896006 0.049931027 -0.035346065 0.04233406 -0.035008222 0.01856122
-0.046621997 -0.047934815 -0.020207219 -0.015966373 -0.055164255 -0.034820694 -0.041988697 -0.024797477
0.027418306 -0.027553938 -0.014732355 -0.0002215108 -0.06664052 0.047570743 0.056854025 -0.0003207789
-0.03885669 -0.06078441 0.029030122 -0.0077889394 -0.0068901028 0.02926773 0.006192284 -0.0768301
0.035988055 -0.021886287 0.05177679 0.0122851785 -0.060978185 -0.04979041 -0.05200435 0.036960904
-0.05563005 -0.042741474 0.04585901 -0.0044163233 0.03506945 0.016860947 0.023746349 -0.05630423
0.033435836 0.040578213 -0.0044541205 0.01879147 -0.040120568 0.0010109158 0.046847045 -0.032812715
-0.065866545 0.05685497 -0.034845382 -0.02059128 -0.051383145 0.028877776 -0.031630967 -0.02306874
-0.024733167 0.043617915 0.051873114 -0.06371229 0.005817379 -0.00073699973 -0.07769147 -0.0034881204
-0.02806042 -0.040518206 0.020457035 -0.031377956 0.033414565 0.05525805 -0.031725965 -0.024561962
-0.043711647 0.03259747 -0.028027374 0.0117441565 -0.080311395 0.0057307584 0.0055930563 -0.040215235
-0.037062544 0.036337633 -0.026411517 0.008316004 0.036544945 -0.043040637 -0.052751582 -0.05392752
-0.050470404 -0.009698545 0.04802741 -0.065612055 0.009650022 -0.01563828 -0.06377413 0.05435551
0.03835574 -0.031129008 -0.08811907 -0.02927734 0.025031582 -0.047717866 -0.02487053 -0.03847461
00000000: 77b1 22bd 8f81 583c c16e a2b9 f249 08bd
00000010: 155a 5e3c b8ec 233c 1ac0 333b ae76 73bd
00000020: e1a3 8dbd b43e 023d f974 84bd 77ba d33c
00000030: c33a 20bd ea81 163d ed81 48bc 0139 a7bc
00000040: 3388 443d d967 3e3c f245 0fbd 2402 ceba
00000050: 2ee8 473d 2ce2 f23c b12c 153d e14e 5dbc
00000060: b5fd 9bbc 2b9e 52bd 7ae6 153d 08a3 12bb
00000070: 4fef 21bc 44ad bdbc a512 503c 417f 6fbd
00000080: b063 32bc 90bd 223d ee69 73bd 512a 563c
00000090: d2de 25bc 36c3 16bd fcd9 92bc f61d 35bc
000000a0: d103 5dbc 18c0 17bd db82 47bd a356 4cbc
000000b0: 43a6 e33c 0e97 653d 582e 2dbd e3b0 ab3c
000000c0: 70a5 e23a 2927 82bd 929d ccbc 2892 d7bb
000000d0: d5c8 19bd dc75 083b 9731 5a3d bc33 943c
000000e0: 4e3c 6bbd 4ab2 083d bc5c d93a 5249 21bd
000000f0: b15a c4bc 3846 3dbd bcfd 98bd b482 c2bc
00000100: 3f60 29bd c0d4 77bd f67a 153d 32a4 40ba
00000110: 7fd8 09bc 5bf8 03bd abdf 2f3a 3279 793a
00000120: b123 163d 18ed 8dbc b367 44bd 73fe 13bc
00000130: ae24 62bd 8b29 cdbc 6086 87bd 4732 333d
00000140: 5f1a 0f3c 8c13 0e3c 7290 46bd bbfb 263c
00000150: 0633 d2bc ed3d 98bc 10f3 cf3c 27bc 453d
00000160: 32ad 34bd b92d 973c 7419 37bd 028c bd3c
00000170: 8ffa 81bb c772 3fbd 7ac4 183c af3b a93c
00000180: 8423 96bd 4e60 89bc 39c1 d8bc 998a b9bb
00000190: b87b 593d f6cf 993c e491 2b3d dee5 0cbd
000001a0: 0a52 80bd 66a4 cb3c 3823 c1bc 8845 173c
000001b0: 412d 55bd a607 343d d340 843c 9c49 2b3d
000001c0: 5141 a53c 80f7 f7bb 9133 7e3c e627 4abd
000001d0: e0fd 9d3c 661f 37bd 1fc3 3b3d b226 98bb
000001e0: 41e1 583b d1eb d3bc 0778 f13c 5855 de3c
000001f0: 2cb3 d8bc 9200 bb3c df8f 123d 14b7 6ebd
00000200: 62ef a43c 84dc a13c ae8c b5bd ebfa 1dbd
00000210: c3f9 423d cd9e 85bd ea33 76bd 7ca4 5e3c
00000220: 9037 1ebd a7a9 18bd 8c4d d6bc 353e 3ebd
00000230: 6c04 abbc 6718 f53c 611d 50bd de83 21bc
00000240: af7f 72bd cb7b efbc 6b51 1fbd 7a84 4c3d
00000250: 09c7 10bd 7b66 2d3d c864 0fbd b30d 983c
00000260: b5f6 3ebd 4c57 44bd 9c89 a5bc e9cb 82bc
00000270: eaf3 61bd 25a0 0ebd 57fc 2bbd 1424 cbbc
00000280: 5b9c e03c ccb8 e1bc fa5f 71bc 5a45 68b9
00000290: d37a 88bd 8ad9 423d c4df 683d 372e a8b9
000002a0: 3128 1fbd 13f9 78bd 94d0 ed3c 5c3a ffbb
000002b0: 5fc6 e1bb e1c2 ef3c a5e8 ca3b 1959 9dbd
000002c0: 3668 133d df4a b3bc e613 543d c647 493c
000002d0: 43c4 79bd 07f1 4bbd 8302 55bd 5164 173d
000002e0: 56dc 63bd af11 2fbd a8d6 3b3d ceb6 90bb
000002f0: fca4 0f3d f81f 8a3c b487 c23c 449f 66bd
00000300: 04f4 083d 5735 263d dff3 91bb 92f0 993c
00000310: 7755 24bd b580 843a b0e2 3f3d a066 06bd
00000320: 0ae5 86bd c2e0 683d 08ba 0ebd 0baf a8bc
00000330: 2277 52bd 1691 ec3c 798f 01bd a7fa bcbc
00000340: 369d cabc b3a8 323d e778 543d 977b 82bd
00000350: b69f be3b 3733 41ba b51c 9fbd f398 64bb
00000360: f7de e5bc 6bf6 25bd 8395 a73c 2c86 00bd
00000370: b6dd 083d 4456 623d 16f3 01bd 2b36 c9bc
00000380: fc0a 33bd ed84 053d aa99 e5bc 906a 403c
00000390: 4d7a a4bd 16c9 bb3b f545 b73b bbb8 24bd
000003a0: e5ce 17bd c5d6 143d f75c d8bc d93f 083c
000003b0: 27b0 153d 614b 30bd 0b12 58bd 1ae3 5cbd
000003c0: 0eba 4ebd a5e6 1ebc 64b8 443d 9d5f 86bd
000003d0: 201b 1e3c da1b 80bc 039c 82bd e2a3 5e3d
000003e0: e91a 1d3d 4302 ffbc c577 b4bd 08d7 efbc
000003f0: 080f cd3c cf73 43bd 48bd cbbc 8d97 1dbd

fc2.bias f4 [256]
-0.09561803 -0.09787971 -0.07844185 -0.10936785 0.25122312 -0.08954923 -0.0630701 -0.03419914
-0.14961344 -0.029125705 -0.018997636 0.05319828 -0.2537399 0.36600378 0.56094456 -0.081508204
-0.04656653 -0.12225465 -0.11702037 -0.119604945 -0.081487834 -0.09235634 0.00953281 -0.08486515
-0.024938224 -0.052966252 0.52024037 -0.093687594 -0.0609693 1.5935006 0.38878083 -0.08949515
-0.041554127 -0.0048624813 2.6548836 -0.05146506 -0.070802964 -0.15861315 -0.11908607 -0.059343334
0.0033968335 -0.038888797 -0.020672644 0.26373106 -0.08134928 0.20630695 0.20254003 -0.09493424
-0.047117162 -0.025818434 -0.37553176 0.19687253 0.46448275 -0.076099634 -0.0027540938 -0.12362467
-0.10066963 -0.06858776 -0.089145645 0.35702318 -0.06760692 -0.03437699 -0.04027395 -0.15171802
-0.059961345 0.027711578 0.11751109 0.15352783 -0.095849805 -0.12792857 -0.06466365 -0.07806603
-0.12281159 -0.08960465 -0.07519594 0.96183753 -0.028165499 -0.046322983 -0.094309725 -0.060277794
-0.18000822 -0.12399735 -0.25236467 -0.052727684 -0.050659087 -0.007300933 -0.014838243 -0.14355823
0.52068263 -0.07141332 -0.058620878 -0.25629815 0.41582257 -0.11590983 -0.08061781 -0.029615179
0.47073182 -0.10391447 -0.10650162 -0.09788933 -0.08142244 -0.04204747 -0.08081555 0.058063235
-0.0888041 -0.1301473 0.3085556 0.09858596 -0.048763167 -0.07470631 -0.05105278 -0.012863306
-0.3481406 -0.09186412 -0.094281726 0.063726105 0.077350534 0.33100358 -0.0085184155 -0.037064772
0.22667357 -0.062188946 -0.08642896 -0.07387711 -0.085564114 -0.17244072 -0.03410904 -0.19329768
0.9657111 -0.10937413 -0.00014049659 -0.043095253 -0.045167394 -0.008132371 -0.075741045 -0.090985276
0.13785176 -0.084561594 -0.015805757 -0.07479244 -0.09940709 -0.09461166 -0.17552087 0.19986688
0.20033179 -0.07888736 -0.12256874 0.003254513 -0.0447972 -0.037017785 -0.04042766 -0.08479572
0.88199615 -0.1389165 -0.03802538 -0.083465435 0.20325434 -0.023147374 -0.12614511 -0.02375078
0.6323319 -0.05946097 0.4351882 0.5897802 -0.051490363 -0.04676455 -0.19524728 -0.05673331
-0.012535243 -0.04097063 -0.0975319 -0.040037464 -0.103260696 -0.09674365 -0.0112846615 -0.038889445
0.21766013 0.70181704 -0.00052667054 0.14194947 -0.036405005 -0.034766782 -0.06652721 -0.08528046
0.1612526 0.09005175 -0.024699565 -0.09117238 -0.15265703 -0.08724373 -0.09859902 -0.10409023
-0.004361942 -0.094610386 0.24354015 0.24134737 -0.11272559 -0.08280346 -0.051895045 -0.034755476
-0.08423439 -0.07982889 0.12705296 -0.03858898 -0.07522109 -0.107988074 -0.061026786 0.30449933
0.955116 -0.008659573 -0.058807395 -0.16363406 0.3105558 0.14763123 0.082134485 0.024849437
-0.16947675 -0.10317887 -0.10009564 -0.11784235 -0.106345646 -0.074415006 -0.03460573 1.0633744
-0.089573085 -0.03439265 -0.043267157 -0.024358163 0.38139775 -0.19610591 -0.110522 -0.18661112
-0.11965205 -0.077845626 -0.040929135 -0.06911183 -0.06916614 -0.047878586 -0.06987108 -0.06719883
-0.05407563 3.221693 0.471912 0.16991925 -0.10911278 0.20499428 -0.07754659 -0.081473716
-0.10365474 -0.06627952 0.4225116 -0.062203623 -0.071791835 0.08437757 -0.091847494 -0.11090674
00000000: 63d3 c3bd 2875 c8bd 1fa6 a0bd 40fc dfbd
00000010: 51a0 803e 9665 b7bd e62a 81bd 6614 0cbd
00000020: 4434 19be 0899 eebc eea0 9bbc 71e6 593d
00000030: 32ea 81be d964 bb3e 109a 0f3f c6ed a6bd
00000040: 8cbc 3ebd a560 fabd 60a8 efbd 70f3 f4bd
00000050: 18e3 a6bd 5225 bdbd 812f 1c3c c8cd adbd
00000060: 3f4b ccbc 24f3 58bd 792e 053f 48df bfbd
00000070: f2ba 79bd d4f7 cb3f 480e c73e 3c49 b7bd
00000080: a934 2abd 7355 9fbb 9de9 2940 07cd 52bd
00000090: 2501 91bd 7c6b 22be 66e3 f3bd ff11 73bd
000000a0: 699d 5e3b dc49 1fbd ad59 a9bc c207 873e
000000b0: 749a a6bd 2142 533e a766 4f3e e26c c2bd
000000c0: edfd 40bd 2e81 d3bc b345 c0be f498 493e
000000d0: afd0 ed3e 20da 9bbd 077e 34bb ee2e fdbd
000000e0: e12b cebd bd77 8cbd fe91 b6bd becb b63e
000000f0: 7f75 8abd e3ce 0cbd 4cf6 24bd f85b 1bbe
00000100: 079a 75bd 6403 e33c a8a9 f03d 6636 1d3e
00000110: e74c c4bd b5ff 02be 606e 84bd 15e1 9fbd
00000120: a584 fbbd a582 b7bd 5400 9abd fc3a 763f
00000130: 55bb e6bc 2bbd 3dbd 7525 c1bd d9e5 76bd
00000140: 1354 38be 53f2 fdbd f135 81be fcf8 57bd
00000150: e77f 4fbd aa3c efbb 1a1c 73bc ee00 13be
00000160: 754b 053f 2641 92bd 721c 70bd 8339 83be
00000170: b2e6 d43e 2262 edbd f31a a5bd 889b f2bc
00000180: c303 f13e 1cd1 d4bd 851d dabd 337a c8bd
00000190: cfc0 a6bd f839 2cbd a082 a5bd b7d3 6d3d
000001a0: edde b5bd 5545 05be 00fb 9d3e 70e7 c93d
000001b0: e3bb 47bd 9fff 98bd b81c 51bd 9ec0 52bc
000001c0: 7c3f b2be 4123 bcbd c716 c1bd d582 823d
000001d0: f569 9e3d 4d79 a93e d390 0bbc 3bd1 17bd
000001e0: 1e1d 683e d6b9 7ebd ab01 b1bd e24c 97bd
000001f0: 3d3c afbd 4d94 30be ecb5 0bbd d4ef 45be
00000200: d838 773f 8bff dfbd 4452 13b9 a684 30bd
00000210: 7201 39bd a33d 05bc 1f1e 9bbd 7d56 babd
00000220: 0329 0d3e a12e adbd 137b 81bc c72c 99bd
00000230: f295 cbbd c2c3 c1bd bebb 33be e7a9 4c3e
00000240: c723 4d3e b28f a1bd 5205 fbbd ab49 553b
00000250: 457d 37bd f69f 17bd 7997 25bd 61a9 adbd
00000260: 80ca 613f 2140 0ebe 80c0 1bbd edef aabd
00000270: e821 503e 909f bdbc 2f2c 01be ff90 c2bc
00000280: 81e0 213f 598d 73bd fdd0 de3e d6fb 163f
00000290: 8fe7 52bd 2f8c 3fbd e7ee 47be 3061 68bd
000002a0: 9f60 4dbc d2d0 27bd cebe c7bd 53fe 23bd
000002b0: 587a d3bd 8921 c6bd 4de3 38bc 8a4a 1fbd
000002c0: 4ce2 5e3e 48aa 333f 4310 0aba 345b 113e
000002d0: 6a1d 15bd 9d67 0ebd 6b3f 88bd 86a7 aebd
000002e0: 671f 253e 0d6d b83d be56 cabc 96b8 babd
000002f0: 2052 1cbe d7ac b2bd 48ee c9bd 422d d5bd
00000300: 9fee 8ebb 17c3 c1bd 9762 793e c423 773e
00000310: addc e6bd dc94 a9bd e68f 54bd c25b 0ebd
00000320: 1483 acbd 547d a3bd 2c1a 023e 7a0f 1ebd
00000330: 840d 9abd da28 ddbd 39f7 79bd 56e7 9b3e
00000340: 7b82 743f e2e0 0dbc 06e0 70bd b08f 27be
00000350: 2b01 9f3e a42c 173e 2036 a83d 0c91 cb3c
00000360: 508b 2dbe 724f d3bd f1fe ccbd 5457 f1bd
00000370: bfcb d9bd e566 98bd bdbe 0dbd a71c 883f
00000380: 1872 b7bd 4fdf 0cbd e738 31bd c58a c7bc
00000390: 9146 c33e fdcf 48be 5c59 e2bd fc16 3fbe
000003a0: 220c f5bd 876d 9fbd 4fa5 27bd 818a 8dbd
000003b0: faa6 8dbd 561c 44bd 9218 8fbd 8a9f 89bd
000003c0: 687e 5dbd 3830 4e40 739e f13e 50ff 2d3e
000003d0: 8576 dfbd 05ea 513e bfd0 9ebd b1db a6bd
000003e0: f048 d4bd 8fbd 87bd 7153 d83e 3ac9 7ebd
000003f0: 9907 93bd 26ce ac3d 8a1a bcbd 1323 e3bd

fc3.weight f4 [4, 256]
0.024220359 0.027022604 0.012115237 0.021627082 0.10240793 0.00856753 -0.061042365 -0.058354087
-0.017538387 0.003160198 -0.009993424 0.082582496 -0.0017834719 -0.010055048 -0.10381016 -0.02300826
-0.056456987 0.022151928 -0.0002365791 0.03254416 -0.041807037 -0.08686063 0.0070414366 0.06408976
0.009833351 0.075863935 -0.020460805 0.057556883 0.018232385 0.1084987 -0.0050876546 0.007985816
-0.050541904 -0.0054884055 0.2589242 0.027593682 -0.06769496 0.03658252 -0.05311319 -0.0063451473
-0.15600242 -0.0091600185 0.01718121 0.0041318126 0.008540202 -0.00014706122 -0.11175797 -0.028203057
0.022086317 -0.077116854 -0.072587766 0.03417348 0.08358591 0.0119560035 -0.0214476 0.0030861646
-0.0014099929 0.0070536914 -0.037061974 -0.022558486 0.020097941 -0.023059081 -0.055553325 -0.10275722
0.017188637 -0.030199671 -0.022618484 -0.013169442 0.0029556938 -0.006970883 0.026855297 -0.028995834
-0.0052068913 0.038727734 -0.030473309 0.023470353 0.035022687 -0.020885592 -0.04773204 -0.0045711496
0.10764133 0.030586109 0.078963004 -0.025549995 0.022299409 -0.0628818 0.057927933 -0.029628485
0.040376592 -0.0099095395 0.011637036 0.053905286 0.0360105 0.03435437 0.03845339 -0.03509116
0.02333211 -0.021122817 0.011308762 -0.031443514 0.037868842 0.016987802 -0.0025501119 -0.014757303
-0.0010562278 0.013583754 0.04844025 -0.031613145 -0.011878187 -0.015453847 0.04523615 -0.002777823
0.026701037 0.050744426 -0.007182596 -0.00073149044 0.022860212 -0.009159578 0.013505862 -0.03441215
-0.12176679 0.019289171 -0.011320516 -0.01475628 -0.054013874 0.052310966 -0.00051148346 -0.06791835
0.123851776 -0.0030366804 -0.022316914 0.019537274 -0.014976221 -0.11708141 -0.029779382 0.048672296
-0.017171523 0.008982537 -0.01813585 0.009282148 -0.0022929057 -0.055239715 -0.065486364 -0.13340792
0.01604049 -0.020975204 -0.018558206 -0.044908963 0.0035701564 -0.008851232 -0.03152103 -0.032074712
-0.07658805 0.01231952 0.0033780655 -0.018858857 0.0029859385 0.0003899283 -0.010085208 0.032643467
0.03174834 -0.0070024426 0.05495603 0.012496603 -0.0071099307 0.004983931 -0.02291547 -0.035946745
0.009513213 0.014887809 -0.05932667 -0.011653991 -0.025839856 -0.026138205 0.0003383571 -0.015781375
0.011698055 0.013687048 -0.0043459525 -0.059984434 -0.022404704 0.12009775 -0.024814209 -0.034820776
0.05488503 0.01901423 -0.03200499 0.007254993 0.007334036 0.03388843 -0.041502148 -0.028060975
0.049863413 0.015345285 -0.030180046 0.13735467 -0.017456427 -0.0006320739 0.020058865 0.008477819
-0.020826325 -0.052834976 -0.079913825 0.035334796 -0.008546322 -0.022330767 -0.012098205 0.012099481
0.1324253 0.00033912095 -0.00069966016 -0.005797789 0.029722653 0.05083847 -0.0732928 0.02032609
0.0051412997 0.0033787943 0.015867196 0.033641603 -0.026609717 -0.025576899 0.0014136613 0.03814564
-0.00030093984 0.007069988 -0.043475483 -0.015310342 0.023195574 0.0039408286 -0.021651795 -0.0033184863
0.005137441 0.014059079 -0.02160186 0.040069208 -0.024398638 -0.0031074015 -0.003353081 -0.020033477
0.009770452 0.28252822 0.10421386 0.058625754 -0.0057423324 0.011608857 0.001438544 0.011702459
0.020611202 0.0029174236 -0.042699136 0.028580371 -0.05132709 -0.05273894 0.0066860337 0.045689777
00000000: c669 c63c 825e dd3c fd7e 463c 472b b13c
00000010: 40bb d13d d35e 0c3c 8f07 7abd b204 6fbd
00000020: aaac 8fbc 531b 4f3b 75bb 23bc 0321 a93d
00000030: 63c3 e9ba eebd 24bc 6c9a d4bd d27b bcbc
00000040: 713f 67bd f677 b53c 3812 78b9 064d 053d
00000050: db3d 2bbd fce3 b1bd dabb e63b 7e41 833d
00000060: 101c 213c 8d5e 9b3d 6b9d a7bc c4c0 6b3d
00000070: 155c 953c 9134 de3d 57b6 a6bb f1d6 023c
00000080: 0705 4fbd 15d8 b3bb b691 843e 250c e23c
00000090: a8a3 8abd 8dd7 153d 378d 59bd f4ea cfbb
000000a0: 19bf 1fbe e713 16bc 9cbf 8c3c 2864 873b
000000b0: 34ec 0b3c 7234 1ab9 5de1 e4bd 190a e7bc
000000c0: 5dee b43c 71ef 9dbd e5a8 94bd 7ef9 0b3d
000000d0: 172f ab3d 1de3 433c e1b2 afbc 4041 4a3b
000000e0: 83cf b8ba a722 e73b 4cce 17bd 93cc b8bc
000000f0: 70a4 a43c 66e6 bcbc e28b 63bd 6172 d2bd
00000100: 2fcf 8c3c 4d65 f7bc 664a b9bc a5c4 57bc
00000110: 50b4 413b 016c e4bb a4ff db3c ac88 edbc
00000120: 929e aabb f9a0 1e3d 29a3 f9bc e644 c03c
00000130: f373 0f3d 4318 abbc ac82 43bd 95c9 95bb
00000140: 0f73 dc3d b88f fa3c 5bb7 a13d 394e d1bc
00000150: 40ad b63c 2cc8 80bd d745 6d3d 70b7 f2bc
00000160: ed61 253d 9f5b 22bc 44a9 3e3c cacb 5c3d
00000170: bf7f 133d 2bb7 0c3d 4d81 1d3d c0bb 0fbd
00000180: fb22 bf3c c209 adbc 6348 393c eaca 00bd
00000190: 5c1c 1b3d 012a 8b3c c71f 27bb 9dc8 71bc
000001a0: 2071 8aba 658e 5e3c 4969 463d c97c 01bd
000001b0: ba9c 42bc 2232 7dbc 8b49 393d 230c 36bb
000001c0: 22bc da3c 63d9 4f3d fb5b ebbb 7ec1 3fba
000001d0: 5745 bb3c 0e12 16bc b147 5d3c c1f3 0cbd
000001e0: de60 f9bd 5304 9e3c af79 39bc 53c4 71bc
000001f0: a73d 5dbd 0644 563d 1315 06ba c718 8bbd
00000200: 00a6 fd3d 0b03 47bb f6d1 b6bc a20c a03c
00000210: d35e 75bc 61c8 efbd e4f3 f3bc 9a5c 473d
00000220: 4bab 8cbc 7e2b 133c a291 94bc 2714 183c
00000230: 9344 16bb 0a43 62bd b71d 86bd 169c 08be
00000240: 5867 833c 31d4 abbc 6107 98bc 76f2 37bd
00000250: 49f9 693b c204 11bc 321c 01bd c660 03bd
00000260: 32da 9cbd d0d7 493c 8962 5d3b e47d 9abc
00000270: bcaf 433b 4a6f cc39 6e3c 25bc 28b5 053d
00000280: 8c0a 023d bf74 e5bb 9319 613d 8dbe 4c3c
00000290: 6cfa e8bb 3e50 a33b 39b9 bbbc e53c 13bd
000002a0: 4fdd 1b3c ffeb 733c 8600 73bd 62f0 3ebc
000002b0: 1bae d3bc ca1f d6bc 8565 b139 f147 81bc
000002c0: 33a9 3f3c a43f 603c 7e68 8ebb 3db2 75bd
000002d0: 128a b7bc cff5 f53d 2b47 cbbc 3ba0 0ebd
000002e0: 20cf 603d bbc3 9b3c aa17 03bd 4bbb ed3b
000002f0: 5a52 f03b 98ce 0a3d 28fe 29bd 21e0 e5bc
00000300: 943d 4c3d ca6a 7b3c 253c f7bc b4a6 0c3e
00000310: c800 8fbc c3b1 25ba 7d52 a43c 8de6 0a3c
00000320: f89b aabc 7d69 58bd dca9 a3bd 38bb 103d
00000330: df05 0cbc 03ef b6bc 8d37 46bc e73c 463c
00000340: 7f9a 073e 0bcc b139 6669 37ba 61fb bdbb
00000350: ec7c f33c 003c 503d 891a 96bd e682 a63c
00000360: 5978 a83b c36e 5d3b ecfb 813c c7cb 093d
00000370: 9ffc d9bc a586 d1bc 9a4a b93a 9a3e 1c3d
00000380: 76c7 9db9 5cab e73b 5913 32bd 3bd8 7abc
00000390: a504 be3c 1122 813b 1b5f b1bc f67a 59bb
000003a0: fb57 a83b 0d58 663c 62f6 b0bc 9c1f 243d
000003b0: a7df c7bc 8ca5 4bbb 5dbf 5bbb 3f1d a4bc
000003c0: 3f14 203c 8aa7 903e 146e d53d 8f21 703d
000003d0: 2d2a bcbb 1333 3e3c 878d bc3a acbb 3f3c
000003e0: d3d8 a83c 3f32 3f3b 4ae5 2ebd 6221 ea3c
000003f0: 5b3c 52bd c904 58bd 8416 db3b 3425 3b3d

fc3.bias f4 [4]
0.3736195 0.3974838 0.43069047 0.34683582
00000000: 0e4b bf3e ff82 cb3e 7683 dc3e 7794 b13e
