Model/DDQN/[S4][ego]net_Q(param).pt (torch, 507668 bytes, 6 tensors)

fc1.weight f4 [256, 231]
00000000: c650 65be 1385 5dbe 1418 0fbd 19cc 023d
00000010: 576c 79bc 76ec 98be ebb1 94be 8106 ba3b
00000020: 6609 1fb9 d9ac ad3d 6e24 533d 6d7c 0cbe
00000030: e22e 71be b64a 4d3b ca3f d8be ccaf 89be
00000040: ff55 f5bd a7e6 8cbc f570 6e3b c6b6 3dbc
00000050: 924c e8be 1da6 e0be b9b1 7bbe 1bf8 00be
00000060: d370 fc3b 0bf2 5b3e ceb4 7ebe e810 71be
00000070: 4ef0 b53d 9d72 dfbd 8d9c 03bf c09c 0cbd
00000080: b722 183e b366 16be b04e febe b10d 1abf
00000090: 341c f3be b2c5 a8be 7577 b5bd 3678 13bd
000000a0: c836 a73d 22f8 f8bd 595a 36be 7bb4 aebc
000000b0: 21ad 23be ad6a 0abf 44cc 35be 0757 58bd
000000c0: fbdf d0be 6df5 a5be ee2d 8bbe f8d0 babd
000000d0: 6a78 cebe 1283 50be 5bf5 bdbd 41d5 a5bd
000000e0: 3b41 82be c0c9 3fbd f925 dabd 957a 0d3c
000000f0: a5b3 4bbe 3965 1fbe ab65 81be 7037 4ebe
00000100: f8c0 c8bd c871 52be d871 dabd d31f 0ebf
00000110: 5a8b 0dbf 3576 8dbe fea7 a6be 921c 79be
00000120: 65ae c03d cc40 b4be 0acd 11bf bb24 39be
00000130: 66a2 babc 56a7 8bbe 4b43 72be 4de7 82be
00000140: e749 f6be 88d7 b3be 4ad0 43bf 6c8c 7dbf
00000150: 4a73 fcbe 9448 63be f088 16bf 9610 adbe
00000160: ffb8 eabe f827 61bf 5986 98be 3e03 14bd
00000170: 1bb1 80be 03cf 2abe 3f2e 60be 6e2d 8fbe
00000180: ac20 16bf 7ae7 35bf 615d febe f74f 4ebe
00000190: e25d 3ebe bbaa 87be 776d 6cbe 5817 0dbe
000001a0: 1ef2 ccbe fcca 13bf 1287 03be 29e2 193e
000001b0: 74a7 0cbd a2db 1ebf c0ea 0cbf 5956 22bf
000001c0: bd35 8cbe 9352 39be 4758 11be f09a 7abe
000001d0: 5541 95be 87ad 6dbe 3457 99bd 7bba d8bd
000001e0: 24a1 bcbe ad5f c2be 3f97 8dbe 7efa febd
000001f0: 9772 e3be d7fb bebe a794 95be 0acb c1bd
00000200: 65af 2e3c 9f67 ce3c db15 b2bc 8ff1 29be
00000210: bf1b 1ebf 5042 c8bd 2cda 7bbe 9943 ecbe
00000220: ffa0 3dbe 3992 82be a3b1 98be 684f 01bf
00000230: 49d7 15bf 5fb3 d0be 6af1 aebe 4d47 3cbe
00000240: 7d64 c6bd 324e dd3a 09b5 a5be 1db0 0fbf
00000250: 90ea f5bd d154 f1be cc52 0abf 6c82 aebe
00000260: 11d5 dabe be50 36bf 7b95 dcbe 61a6 c3be
00000270: a780 c4be edb3 20be f6a2 c9be 4ee7 45bf
00000280: 5dee 0bbf 0997 b3be 2df7 b2be 1ac2 a5be
00000290: fa59 09bf 7e03 c2be 29eb 4fbe d4ec 82be
000002a0: 65e8 e6be 634f a0be 6d15 ecbd 7625 943d
000002b0: 3588 793d 3ba6 87bd 5829 fdbd 26fa 15bf
000002c0: bd9b 23bf 9283 86be 3f36 6ebe f479 a7be
000002d0: e441 4fbe 419c fc3c ee2f 17be acef 98be
000002e0: 0c75 9bbe f263 94be 7b4b ddbd 1ba3 92bd
000002f0: 159d c63e f28a c03e b85d 92be ea05 3fbf
00000300: 8e9c d2be 2bf0 96be 5550 9fbe 2f5d 02be
00000310: 7d4f cbbd 4165 85be b74f edbe b507 79be
00000320: aa3c edbe f5d7 e0be 7566 13bc 9182 f03d
00000330: b288 b9bd 308f 56be d6a5 58be e259 71be
00000340: 7b7d aabe 771a 44be cb32 a5be 9409 34be
00000350: 8451 c9be b220 00bf d8f8 6bbe b232 8ebc
00000360: 4697 62be f4e4 923d 8292 533e f6da 153e
00000370: 7ab3 11be 7004 01be 60f1 7bbd ec80 ffbd
00000380: cf18 a0bd 67cf 12bf 02c3 553d e8e2 433d
00000390: fa27 09bf 0ffd a2bc b292 253b 01c5 1fbe
000003a0: ab2b 44bd 02ef 45be c282 81be 0f2a 02be
000003b0: 403a bebd 79d7 60be f115 63be 1c83 98be
000003c0: 679c 85be 8b29 c4be ec01 bebe 9115 91be
000003d0: d236 a4be ef64 a5be d3c3 ef3d a910 e8bd
000003e0: edde a0bd 9efd 53bd a933 7fbe fbf9 80be
000003f0: 7ebb 18be 73cc 80be 5906 29be 9e64 10be
-0.22394094 -0.21632795 -0.034935072 0.031932924 -0.015223584 -0.29867905 -0.2904199 0.005677045
-0.00015166923 0.08480234 0.051548414 -0.1371934 -0.2355304 0.0031325049 -0.42236167 -0.26891935
-0.11979293 -0.017199827 0.0036383246 -0.011579221 -0.4537092 -0.43876734 -0.24579515 -0.12594645
0.0077038794 0.21479051 -0.24873659 -0.23541605 0.08883725 -0.109105326 -0.5141075 -0.034329176
0.14856993 -0.14687614 -0.4966941 -0.6017714 -0.47482455 -0.3296333 -0.08860675 -0.036003314
0.081647456 -0.121567026 -0.17807902 -0.021326294 -0.15984012 -0.54069024 -0.17753702 -0.05281737
-0.40795884 -0.32413808 -0.2718348 -0.09121889 -0.40326244 -0.203625 -0.092753135 -0.080973156
-0.25440392 -0.046823263 -0.10651774 0.008635183 -0.19892748 -0.15565957 -0.2527288 -0.20138335
-0.09802431 -0.20551217 -0.10666245 -0.5551731 -0.5529076 -0.27629247 -0.32550043 -0.24327305
0.09408263 -0.35205686 -0.5695349 -0.18080418 -0.022782516 -0.27276105 -0.23658483 -0.25567093
-0.48103258 -0.35125375 -0.764897 -0.9904239 -0.4930671 -0.22195655 -0.588027 -0.33801717
-0.45844266 -0.8795161 -0.2979 -0.036135904 -0.2513512 -0.16680531 -0.21892641 -0.27964348
-0.58643603 -0.7105633 -0.49680617 -0.20147692 -0.18590501 -0.26497445 -0.23088633 -0.13778436
-0.4002847 -0.57731605 -0.12844494 0.1502768 -0.034339383 -0.62053883 -0.550457 -0.63413006
-0.2738475 -0.18097906 -0.14193831 -0.24473166 -0.29151407 -0.23210727 -0.07487336 -0.10582443
-0.3684169 -0.3796362 -0.27654454 -0.12450121 -0.44423363 -0.37301514 -0.29214975 -0.09462555
0.0106619345 0.025195895 -0.021738937 -0.16596054 -0.6176109 -0.09778273 -0.24594945 -0.46145323
-0.18518446 -0.25502184 -0.29823026 -0.5051179 -0.58531624 -0.4076185 -0.3416856 -0.18386574
-0.09687135 0.0016884266 -0.3236468 -0.561281 -0.1200763 -0.47135022 -0.5403259 -0.3408388
-0.42740682 -0.7121695 -0.43082795 -0.38212875 -0.38379404 -0.15693636 -0.39382142 -0.7730607
-0.5466059 -0.35076168 -0.34954205 -0.3237465 -0.5365292 -0.3789329 -0.2030455 -0.2557131
-0.45099178 -0.31310567 -0.11527524 0.072337076 0.060920913 -0.06623503 -0.12361401 -0.5858482
-0.6390951 -0.26272255 -0.2326288 -0.3271023 -0.20239979 0.030836226 -0.14764377 -0.29870355
-0.30362737 -0.28982502 -0.108054124 -0.07160016 0.3879172 0.37606007 -0.28587127 -0.746184
-0.41135067 -0.2948011 -0.31115976 -0.12730859 -0.099272706 -0.26053813 -0.4634988 -0.24319346
-0.46335346 -0.43914762 -0.008996596 0.117436536 -0.09059276 -0.20953059 -0.21157011 -0.23569444
-0.3329886 -0.1915072 -0.32265314 -0.17581779 -0.39320004 -0.5004989 -0.23044145 -0.017358158
-0.22128019 0.071725756 0.20661357 0.14634308 -0.14228621 -0.12599349 -0.06150949 -0.12475762
-0.07817232 -0.5734772 0.052187927 0.047823817 -0.53576624 -0.019896058 0.002526444 -0.15602495
-0.047893208 -0.19329455 -0.25295073 -0.12711357 -0.09288454 -0.21957196 -0.22176339 -0.2978753
-0.26095888 -0.38312945 -0.3711084 -0.28336766 -0.32073075 -0.3230357 0.117072724 -0.11331303
-0.0785502 -0.05175554 -0.2492205 -0.2519072 -0.14915273 -0.25155982 -0.16506328 -0.14100882

fc1.bias f4 [256]
00000000: 6ff6 a73e 280c a1be 3c5c be3e 78ed 79be
00000010: eb29 3ebd f62c dfbd 3876 42bd f16f 4c3e
00000020: 9f0a 94bd dced 22bd 8aba 6cbe fd4d d63f
00000030: 954e 293e 4b5a 123c 38f9 febd 03fa 8bbd
00000040: 0dea 3abe e864 a1be 2153 cbbe 5795 cfbd
00000050: 900d 0abe 12e6 cf3e 0e46 b140 e168 06be
00000060: d8fa 003c 889f 6fbe 2ff7 5ebd b7ae 2dbe
00000070: fed3 5bbe dd43 fabe 0f7f 22bf beeb edbd
00000080: d57e 153e 250a 413e a618 a5be 7547 85be
00000090: 4814 a7be c4ab 1bbf a879 c73d 6f6d abbe
000000a0: 2c0d d63f 9a50 a7bd da93 b7bd 05cc 1a3e
000000b0: df6f fdbd c529 34be 3d58 f43f 8a7e d6be
000000c0: 90d7 e03f 4a42 c6bd 2280 9dbe e5bb cabe
000000d0: ba33 d0bc 7457 09be a9d1 f13d 146b 31bd
000000e0: 479b 66be 0b2f f13f 5913 07be 94e6 673d
000000f0: 3a68 c23d 9cb9 c6bd a282 583e cb2e 83be
00000100: d636 5a3e dea4 84be 8385 9cbe 2dff 2bbe
00000110: 7944 36be 4fa0 04bd fc71 b53d a7e9 213e
00000120: 201e d4be 82bb 47bd 4ee7 af3e fdc9 3b3f
00000130: 14ae b5be babd a3bd 50ae 943f 77e6 c0bd
00000140: 2f55 803e 47c2 9dbe 7a42 65bd 6a17 723d
00000150: 3ed6 88be d4b4 e4bc 3c0b f13f 556c 54bd
00000160: 9d16 113e 7929 3dbe 6d73 89be e735 e6be
00000170: 678f c53f e7b8 74be 0036 c6be 57e2 e2be
00000180: 1f0c 203a fed1 083d ae65 ddbe e4bf 303f
00000190: a5b8 b6bd 1728 093e c43f f1be b980 a8bd
000001a0: e6c1 86be 2013 bf3d f3b1 ed3d 45e9 86be
000001b0: 0093 e93e 1778 51be afb4 e6be 9ce8 23be
000001c0: a004 75be ebe0 45be cc47 c1be 3f4e bebd
000001d0: a964 073d 99d2 143e c8f4 893f a64f 74be
000001e0: fc36 c93e 8b1d 88be ce18 45be 812a a7be
000001f0: 6e73 fe3d 3884 b33d ff15 90be 8e00 d73f
00000200: 5f1a ec3e 9aa3 203c 6e35 0bbf 489c 313f
00000210: 3ea8 86be cea4 5bbe 7d59 4abe 45b3 9fbd
00000220: 279f 093d 5fbd 103f 1b91 b2be e69b 2fbf
00000230: c781 a5bd b99d 8ebe 7ca7 68be 05b0 aabe
00000240: 88b5 173e 8e52 6ebe 9886 34bd 6f66 803e
00000250: 997a 0ebe 4605 4a3c 02bc d2bd 6505 6bbe
00000260: 442a 863f e883 f53e 3a7b cc3d 106b 77be
00000270: 8698 95be 9739 78bd ccdc 51be 2d7b 08be
00000280: bfe0 9f3e 582b b73e 8666 c6bd 68c5 2fbd
00000290: 5d10 0cbe 6177 893d 04b2 78be b350 a63f
000002a0: b005 04bd ccb2 a0be f2dd 8c3d dd17 47bd
000002b0: 7edb acbe d520 d6be 8f76 073e 9550 5ebe
000002c0: d3aa 9bbe 1aed a73d 14b6 db3e d436 a7be
000002d0: 8f6e d0be d592 943e e2de e1be 1693 98be
000002e0: ff36 c9bd 23bb 8d3d 62c0 8abe d62c 053d
000002f0: 6a5f ff3a c7ec 80be 286b 24be 7424 f73f
00000300: 1f97 59be d7ff f7bd be7c b8be b2f5 15bf
00000310: a66c 153d 88fe 663e 917c 833f 4580 103d
00000320: 67a8 e5bd 700a a7be 9f9a 1bbe cee5 01be
00000330: a38e 193c e72c 4bbe e58a d83e 4cc4 26be
00000340: 89f8 46be 402c 9c3e 2efd 7fbe 4cef 9a3f
00000350: 9e27 bd3e 52e2 1f3e 259b a43d 4fc3 2ebf
00000360: a03e 0abf 52d5 9cbe 97fd 883e c821 d7bd
00000370: e363 193f 58e5 bebe b96f 11be 4b08 84be
00000380: 9b38 66be 179c bdbb 878d 8abe 8cfd 0d3c
00000390: 55bf 6fbe 8e27 97be f443 7b3e a4e6 8e3e
000003a0: d114 4abe 20c9 b73e 3558 c6be 4700 93be
000003b0: de17 953f 64b1 113f 24a3 a5be 46c9 8cbe
000003c0: 0931 a4bd 0743 b5bd 7049 1e3e 1adb 5fbe
000003d0: a4a5 cebe 5fb2 c6be 0af0 f23e 141c 13be
000003e0: b5a1 583f 090d 943e e4b6 33be 0546 8c3e
000003f0: 85fb 433d 2ada 2cbe 8b97 dabe 4f34 b63e
0.328052 -0.31454587 0.37179744 -0.24406993 -0.046426695 -0.108972475 -0.047476023 0.19964577
-0.07228588 -0.03977762 -0.23118034 1.674255 0.16533883 0.00893266 -0.124498785 -0.06834795
-0.18253346 -0.31522298 -0.3971186 -0.10135906 -0.13481736 0.40605217 5.5398016 -0.13125946
0.007872306 -0.234007 -0.05443495 -0.1696118 -0.21467587 -0.488799 -0.63475126 -0.1161723
0.14599164 0.18851526 -0.32245368 -0.2603108 -0.3263266 -0.6080897 0.09740001 -0.3348193
1.672277 -0.081696704 -0.08963747 0.1511689 -0.12374853 -0.17594059 1.9089428 -0.41893417
1.7565784 -0.096806124 -0.3076182 -0.39596477 -0.02541529 -0.13412267 0.118075676 -0.04331501
-0.22520171 1.8842481 -0.13190974 0.05661638 0.09492536 -0.09703371 0.21143582 -0.25621638
0.21309981 -0.25907034 -0.3057061 -0.1679656 -0.17799558 -0.032379445 0.088596314 0.15811788
-0.41429234 -0.048762806 0.3435616 0.73355085 -0.35484374 -0.07995172 1.1615696 -0.09418958
0.2506499 -0.30812284 -0.0559716 0.05910436 -0.26725954 -0.027918257 1.8831553 -0.051861126
0.14168783 -0.18472852 -0.26845875 -0.44963 1.5434388 -0.2389866 -0.38713074 -0.4431331
0.0006105322 0.03340339 -0.43241638 0.690428 -0.08921937 0.133942 -0.47118962 -0.08227677
-0.26319808 0.0932982 0.11606207 -0.26349846 0.45619965 -0.20455967 -0.45059726 -0.16006702
-0.23927546 -0.1932408 -0.3775009 -0.09292268 0.03305498 0.14533462 1.0777826 -0.23858508
0.39299762 -0.2658504 -0.19247743 -0.32649615 0.1242436 0.08765453 -0.28141782 1.6797044
0.4611387 0.009804631 -0.543784 0.6937909 -0.26300234 -0.21449587 -0.197607 -0.07797865
0.033599045 0.5653896 -0.34876332 -0.6859726 -0.08081394 -0.27854708 -0.2272014 -0.33337417
0.14815342 -0.2327368 -0.04407367 0.2507815 -0.13913955 0.012330359 -0.10289766 -0.22951277
1.0481648 0.479522 0.09984441 -0.24161935 -0.2921793 -0.060601797 -0.20494384 -0.13328238
0.31226155 0.35775256 -0.096875235 -0.04291287 -0.13678117 0.06712223 -0.24286658 1.2993377
-0.032231987 -0.3138641 0.0687827 -0.048606742 -0.3376121 -0.41821924 0.1322882 -0.21710427
-0.30403766 0.081995204 0.42912352 -0.32659018 -0.4070935 0.29018274 -0.4411536 -0.29799718
-0.09824943 0.06920459 -0.270999 0.032513462 0.0019483392 -0.25180647 -0.16056502 1.9308
-0.21249054 -0.121093445 -0.3603267 -0.58578026 0.03648057 0.22558033 1.027239 0.035278577
-0.11213761 -0.3262515 -0.15195702 -0.1268532 0.009372386 -0.19841348 0.42293468 -0.16285819
-0.19430746 0.3050251 -0.24998924 1.2104278 0.36944288 0.15613678 0.08037404 -0.6826677
-0.5400181 -0.306315 0.26755974 -0.1050449 0.5991804 -0.3728435 -0.14202775 -0.25787577
-0.22482531 -0.0057864296 -0.27061102 0.008666407 -0.23412831 -0.29522365 0.24537641 0.2791034
-0.19734503 0.35895634 -0.38739172 -0.2871115 1.1647909 0.569113 -0.3235103 -0.2749731
-0.08017165 -0.08850675 0.15457702 -0.21860924 -0.4036075 -0.3880796 0.4744876 -0.1436618
0.84621745 0.28916195 -0.17550236 0.2739717 0.04784729 -0.16880098 -0.42693743 0.35586783

fc2.weight f4 [256, 256]
00000000: c7c7 9b3d 637f d4bc fd3f cf3c de14 9d3b
00000010: 5e96 143a f62c 82bc 9143 89bd 23d6 053d
00000020: 9307 803d 1eb5 8fbd 90d9 1c3b 1191 7bbd
00000030: 23d4 26bd ce58 e6bc 04f4 7ebd 85be 39bc
00000040: 0c69 a8bd 4c22 96bd 3598 723d 3a14 ae3d
00000050: 600f 20bc 575f 98bd 5838 51bd deeb bdbc
00000060: f787 12bd 38b6 abbd 026e 0c3d 454b fbba
00000070: dfc4 d83c fb3e 7a3b b0a4 bfbd cc23 10bd
00000080: 8372 bbbd 2a88 15bb 85c4 7bbd b2af 73bd
00000090: c9e4 043d d718 5fbd 1abc 3fbd 6b9b 8abd
000000a0: 6648 023d 41c9 093c 7319 cdbd e68e 213c
000000b0: c786 b8bd d8a0 c6bc eae6 c7bd a3e7 20bd
000000c0: d313 9f3c 23e3 d0bc f86a 47bd 22ad 8b3c
000000d0: cf71 d63b 1ac9 2ebd 85fa c8bd 5534 2c3b
000000e0: 0e53 cabd c4f9 57bd 5de4 fdbc aed6 d5bc
000000f0: 6c8c 983d 8a20 03bd 8ddf 303d f0bf 6abd
00000100: 3b2b 873d 6f41 833d 575a 99bd bd03 9fba
00000110: 338b ac3c 2d7f e4bb acf5 2dbc b02a 64bd
00000120: 73da 0cbd 281e 943d d722 52bc e5f0 833c
00000130: 2c89 cfbd 8bac 49bd b9b5 5bbc 5240 b9bd
00000140: 67ba 673d f951 16bd c900 52bc 75aa 6d3d
00000150: 319b afbd a8b1 b9bd 4d97 5ebd 527e 72bc
00000160: 93bc 5fbd 335e 5f3d 4a3b a7bd 55ca 2f3c
00000170: 017c 863d ad81 393c 6472 873c 3200 913c
00000180: c528 59bd 8971 febc 334e b6bd afd6 1b3b
00000190: 936b 083e ced1 d8bc 6ca4 aabc ee8b c9bc
000001a0: 257b bcba 4d53 8dbd 8fe3 11bd 23d6 eebd
000001b0: eb32 a6bd d61a 84bd 5baa 52bd 78c6 05bc
000001c0: 51e0 abbc 97fc 763d e4e2 67bd 5f38 94bc
000001d0: 915a e83c c73d 3e3d b38e ed3b 03bf 7abc
000001e0: a1c5 9f3c 904e b1bd 4672 d6bb 2ed2 b7bc
000001f0: c47e 87bd 2248 93bd b321 f3bc 4e32 34bd
00000200: 6057 8ebd 04cd 68bd 932d 57bc b53d acbc
00000210: 98f3 bebd 7eb9 033d 8859 d1bc ad86 313d
00000220: f7d7 65bd ec60 95bd 4d2c 9abd ec00 5b3d
00000230: 0cc0 c5bc d4c8 97bd 7287 54bb b516 aebd
00000240: eea1 063d 31e8 cbbc f34e 5b3b e229 5abc
00000250: 0ce2 83bd e4cb 8ebc a5c7 dd3c f96f 66bd
00000260: 43f1 153d 3e0c 27bd f171 25bc cdd3 f0bc
00000270: 6b3e 13bd 6373 973d ca98 1cbd 4f0b 6ebd
00000280: 5910 b53d 57d8 54bd a127 8dbd aa2b 493d
00000290: b0be 59bc c62b c4bc e982 1d3c 775e 00be
000002a0: bbcd 9dbd d59d 63bd 39b7 5ebd 04df 6f3d
000002b0: c49b 7bbd 985e 09b9 c725 063d b2df ddbc
000002c0: 9351 49bc 21c6 9fbc 23eb 8abd 36c8 46bd
000002d0: b1fe acbc f44a 84bc 06f0 0d3d 4300 e33c
000002e0: 0d50 623d f6ba 833d 218a 93bb 043b 94bd
000002f0: 0484 56bd d280 1abd 6205 8d3c cc3d cdbc
00000300: f9a9 ad3c c10c eabb 1b22 e63c 0c42 03be
00000310: 306c 2bbd 429d 43bd e064 76bb 5db0 e3bc
00000320: 3493 d4bb b80e 93bd f879 a6bc c9aa 1ebd
00000330: cae3 043c 1633 afbc 47ce c1bc 5f3f 47bd
00000340: 81e0 473c c046 7dbd 802b 123c aa29 d6bd
00000350: df5e bdb9 f87e 3cbd f977 713c ec94 86bd
00000360: 1791 51bd 8262 a9bd 9da7 13bd 7111 9fbd
00000370: d708 45bd e7dc 423c 6de1 8cbd 9718 af3d
00000380: b054 77bc d936 6ebd 87fc 11bd dbfa f93c
00000390: 1c2c 8bbd e31e cc3c 6dc2 97bd 4f4e ca3c
000003a0: d9f5 3fbd 26ec b6bc 0346 09bd 6f65 28bc
000003b0: a257 c3bc 500c 8ebd 951c 6a39 31a4 a6bc
000003c0: 5309 453c 4368 10bd b5f4 7b3d 07bf 64bd
000003d0: 0971 43bc 546b 8cbd fa6b cabc 687a ecbd
000003e0: 91f7 0fbb c0d0 ac3b 96e5 eabc a5b9 3abc
000003f0: 1d13 efbc cd61 91bd cf25 3dbc d9f5 cc3d
0.07606464 -0.025939649 0.025299067 0.0047937473 0.00056681584 -0.01589058 -0.067023404 0.03267492
0.06251445 -0.07016967 0.0023933388 -0.061417643 -0.040729653 -0.028118517 -0.06224443 -0.011336927
-0.08223161 -0.0733076 0.059227187 0.08499952 -0.009769291 -0.0744006 -0.051079124 -0.02318376
-0.035774197 -0.08384365 0.0342846 -0.0019172212 0.026461063 0.0038184512 -0.093575835 -0.03519039
-0.09152701 -0.0022816756 -0.061466713 -0.059493728 0.03244475 -0.05446705 -0.046810247 -0.06767925
0.031807326 0.008409799 -0.1001462 0.00986073 -0.09010082 -0.024246618 -0.0976084 -0.039283406
0.019418633 -0.025498932 -0.048685998 0.01705033 0.0065443288 -0.042672254 -0.09813408 0.002627631
-0.09879123 -0.05272843 -0.030992681 -0.026103344 0.07448658 -0.032013454 0.043181945 -0.057311952
0.066000424 0.06408965 -0.07487934 -0.0012131851 0.02106247 -0.0069731683 -0.010617655 -0.055704772
-0.034388017 0.07232314 -0.012825689 0.016106078 -0.10133585 -0.049236815 -0.013410025 -0.09045471
0.05657425 -0.03669927 -0.01281757 0.05802389 -0.08574522 -0.09067088 -0.05434351 -0.014800625
-0.054623198 0.054533195 -0.08165605 0.010729392 0.065666206 0.011322421 0.016534038 0.017700288
-0.053017396 -0.031059997 -0.08901634 0.0023779084 0.13322286 -0.02646723 -0.020830356 -0.024602856
-0.0014379962 -0.06900654 -0.035617407 -0.11661937 -0.081151806 -0.06450431 -0.051431995 -0.008164994
-0.020980986 0.060299482 -0.056612864 -0.018093286 0.028363498 0.046445634 0.007249677 -0.01530433
0.019503416 -0.08657563 -0.006544384 -0.022439089 -0.066159755 -0.071914926 -0.029679155 -0.043993287
-0.06950259 -0.056836143 -0.013133424 -0.021025518 -0.093238056 0.03215932 -0.025555387 0.043341327
-0.056114163 -0.07293877 -0.07527981 0.053467676 -0.024139427 -0.07411352 -0.0032429365 -0.08500425
0.032869272 -0.02489099 0.0033463805 -0.01331565 -0.064395994 -0.017431207 0.027072737 -0.05625913
0.03660704 -0.04078316 -0.0100979665 -0.02939787 -0.0359482 0.07395055 -0.03823165 -0.058116253
0.08841009 -0.05196413 -0.06892324 0.049113907 -0.013290092 -0.023946654 0.009613731 -0.12536035
-0.077052556 -0.055570442 -0.054373953 0.058562294 -0.061427847 -0.00013100577 0.03275087 -0.027084205
-0.012287515 -0.019503655 -0.0678313 -0.04853078 -0.02111754 -0.016149022 0.034652732 0.027710086
0.055252124 0.06432144 -0.0045025502 -0.07237819 -0.052371994 -0.03772051 0.01721448 -0.025053881
0.021199213 -0.0071426337 0.028092435 -0.12818164 -0.041851223 -0.047757395 -0.0037596747 -0.027794058
-0.0064872745 -0.07180542 -0.020321831 -0.038737092 0.00811095 -0.021386664 -0.023657931 -0.04864442
0.012199522 -0.06183505 0.008921504 -0.104571655 -0.00036119574 -0.046019524 0.014738076 -0.06571373
-0.05116376 -0.08270742 -0.03604852 -0.077669986 -0.048104133 0.011893488 -0.06878934 0.08549612
-0.015095875 -0.058157776 -0.03564122 0.030515125 -0.067955226 0.024917072 -0.07410131 0.024695544
-0.046865318 -0.022329401 -0.033514034 -0.01027809 -0.023845498 -0.06935942 0.00022326627 -0.020341964
0.012026149 -0.03525568 0.061512668 -0.05584624 -0.011928805 -0.06856409 -0.02470969 -0.11546785
-0.002196763 0.0052739084 -0.028673928 -0.0113968 -0.029183919 -0.07098732 -0.011544659 0.10007829

fc2.bias f4 [256]
00000000: fe3c fdbc ff79 dbbd 6d89 95bc a405 d0bd
00000010: e003 d5bd e357 fc3d f77d 643e 01e5 1b3d
00000020: 8d90 76be fbf6 65bd cbe0 fbbc 1926 8dbd
00000030: 9c28 e93d 7550 1bbd daf2 d63b 0116 093f
00000040: ad7d 003f a581 b7bd 52af 2bbe 86a7 a0bd
00000050: 97f3 03be c0dc 18bd dbda c1bd 8812 e03c
00000060: f396 a7bd 9d71 9bbd ab14 39bd c446 dabd
00000070: 2d96 90bd 4a18 d53d 6934 babd c679 033e
00000080: d556 84bd 7929 09be f811 2ebd decf 64bc
00000090: 2578 5940 87a1 f3bc 9e16 d0bd 6a6f 68bd
000000a0: 7f49 b3bd 77eb 88bd 993f dcbd 520c 96bd
000000b0: 9a3a d8bd 9eb5 dbbd e4d4 dfbd 579e 2abd
000000c0: 0316 8fbe 3395 bfbd e27e 8cbe a81c e7bd
000000d0: 7967 c9bd cfb2 c3bd 49aa b0bd 872d 17bd
000000e0: d6db 763c a3d9 f0bd 0bf1 dcbd de83 f2bd
000000f0: ff69 2fbd d09b 8fbe d7e0 a6bd b653 b5bd
00000100: eaed 25bd f14c 82be d621 89bd 0f45 bebd
00000110: df7c 72bd 0429 8fbd c230 c7bd 7be2 5dbd
00000120: 76c0 0dbe 749d bf3c a8cb acbd 32cd 9a3e
00000130: 1033 dcbd f6c7 c33e 4808 bfbd 203d aebd
00000140: cbd8 d0bd 47e1 0a3d 680e 0abe 4ba0 e8bd
00000150: 2dc9 02be f4c0 a8bd 7ec6 1a3f 8593 e5be
00000160: 2f11 d8bd b9eb e0bd 27aa 8cbd 729d 8ebd
00000170: 211d 3b3c 6141 b1bd 702e c7bd cd74 99bd
00000180: 93cc babd 8ba3 52bd b25c 8a3f a765 03bf
00000190: 9238 9fbc fa14 bcbd 64fc 14bd da0c d3bd
000001a0: c501 dbbe 53cf 803d 75a8 67be c947 00be
000001b0: fce4 29be e834 03be abc5 a6be 9b06 b8b9
000001c0: e23a b5bd 625e 5a3e fc95 ddbd 24f0 d3bd
000001d0: 6495 8bbd c940 99bd 0b07 f03e 7bdc 863d
000001e0: 981f 283d 402e 743e 138f 313e b6c0 7eba
000001f0: 031f 8fbd 00d1 94bd 05c1 e0bc b784 1cbd
00000200: 811b 31be 5005 cbbd d45d 4ebd be90 953c
00000210: d95a 78bd 3dcc e93e 98e2 95bd 4ef4 16be
00000220: 41fa 83bd e433 b43f 8541 f3be 9504 6e3d
00000230: 9c42 c7bd 6d26 bf3e abd8 f9bc 0eb0 fdbc
00000240: 2123 cdbc 0fa4 743e 3ac4 83bd cc23 e4bc
00000250: ab56 25be 5a11 d03d 8059 98bc 4a34 273b
00000260: 1dd6 d5bd 8e09 00bd 95ec 923d 9c7e 1a40
00000270: a282 1a3f 930a f4bd 5ddf ec3e 70f1 bbbc
00000280: 886b b4bd 4c2a afbe c5f5 90bd dc79 d7bd
00000290: 74c5 c33c 1f4e 15be d9a0 e8bd 7cec b1bd
000002a0: 568b 99bd d129 eebd 4db5 5fbd 7f4d 97be
000002b0: c7aa a7bc f0ab 8bbd 6ed4 51bd c036 bbbd
000002c0: e410 8fbd d97d 0dbf 6c12 c4bd 9b20 e7bc
000002d0: 050f d4bd 1ad5 84bd 657c 88bd fb57 d13d
000002e0: e77f d4bc de35 88bd e4ce 00be 1df2 dabd
000002f0: 85a1 2abd 43b8 73bc f005 72bd 66ff 30bd
00000300: 0850 6ebd 4a84 c8bd 34a2 993d c10a 1bbd
00000310: c9ba 98bd d1dd d5bd 6c9e dfbd 2108 afbe
00000320: 9d2a 7dbd 34d3 873f a9cf 19bd d502 cfbe
00000330: 1bdb f1bd 57c8 303d 810c 01be 8e5f d2bd
00000340: c626 f1bd 068f 28bd f9aa a3bd 9697 103e
00000350: b7a4 20be b0ba c1be 3008 a93c 2a79 16bf
00000360: 324d a8bd 14a6 a2bd bf33 81bd 1cb8 6fbd
00000370: 21ab 58be d9b1 20be 581e 7fbd faf6 44bd
00000380: 290a 00bd 62aa 8a3e acbe 5fbd 726d ad3e
00000390: c277 99bd db02 97bd 9d51 fcbd 1f90 aabd
000003a0: ac9f 1bbe 6d6d 61bc 14a1 55bd 7643 c6bd
000003b0: d031 2fbd 577a 88bd 3252 883d 3daa 25bb
000003c0: 6eed 86bd 6e0a 47bd 5418 433e 2c0a e9bd
000003d0: d626 8ebe 5c61 c3bd f566 a1bd 890d 2fbf
000003e0: 809c 0f3d d9e4 85bd cdea 35bd 754f 21be
000003f0: 67a7 7ebe 06f1 1f3e 9553 b9bd 93b2 d2bd
-0.030912872 -0.10716628 -0.018254006 -0.10157326 -0.1040113 0.123214506 0.22313677 0.038060192
-0.24078579 -0.056143742 -0.030746838 -0.06892032 0.11384699 -0.037918527 0.006559712 0.535492
0.50191766 -0.089602746 -0.16766098 -0.078444526 -0.12885891 -0.0373199 -0.094655715 0.027352586
-0.08183088 -0.075900294 -0.045185726 -0.10658029 -0.07059894 0.104050234 -0.09092028 0.12839422
-0.064618744 -0.13394727 -0.042497605 -0.013965575 3.397958 -0.029740108 -0.10160564 -0.056746878
-0.08754253 -0.06685536 -0.10754318 -0.07326569 -0.10558052 -0.10728 -0.109292775 -0.04165491
-0.2794648 -0.09354629 -0.27440554 -0.112847626 -0.09834189 -0.095555894 -0.08626229 -0.036908653
0.015067061 -0.11760261 -0.10788163 -0.11841558 -0.042825695 -0.28048563 -0.081483535 -0.08853857
-0.040510096 -0.25449327 -0.06695907 -0.09290516 -0.059201118 -0.06990245 -0.09726097 -0.054171067
-0.1384295 0.02339051 -0.08437282 0.30234677 -0.10751927 0.38238496 -0.093277514 -0.085077524
-0.101976 0.033906247 -0.13482058 -0.113586985 -0.12772055 -0.08239928 0.60459125 -0.4483911
-0.105501525 -0.109824605 -0.068683915 -0.06963624 0.011420519 -0.08655048 -0.09725654 -0.07492981
-0.09121051 -0.051425498 1.0809538 -0.51326984 -0.019436155 -0.091836885 -0.03637351 -0.103051856
-0.42774788 0.06289544 -0.22622855 -0.12527384 -0.16591257 -0.12813151 -0.32572684 -0.00035100136
-0.08849122 0.21325067 -0.10819623 -0.103485376 -0.068156034 -0.0748306 0.46880373 0.06585022
0.041045755 0.23845768 0.17339735 -0.0009718047 -0.06988337 -0.07266426 -0.027435789 -0.038212504
-0.17295648 -0.09913123 -0.05038245 0.018257495 -0.060633514 0.45663634 -0.0731861 -0.14741632
-0.064442165 1.4078336 -0.47510925 0.05810984 -0.097295016 0.37334004 -0.030498823 -0.030967738
-0.025041165 0.23890708 -0.064339116 -0.0278491 -0.16146342 0.101595595 -0.018597364 0.0025513344
-0.104412295 -0.031259112 0.07174031 2.4139776 0.6035558 -0.11916079 0.46264163 -0.022942275
-0.088095725 -0.34211957 -0.07078127 -0.1052129 0.023897864 -0.14580582 -0.11358804 -0.08687684
-0.07497279 -0.116290696 -0.05461626 -0.29551312 -0.020467175 -0.06819904 -0.05122798 -0.09141302
-0.069856435 -0.55270153 -0.09573826 -0.02821379 -0.10354427 -0.064859584 -0.066643514 0.10221859
-0.025939895 -0.06650899 -0.12578923 -0.10690711 -0.041657943 -0.014875474 -0.059087694 -0.043212317
-0.058181792 -0.09790857 0.07501641 -0.037852053 -0.074575014 -0.10442699 -0.109188884 -0.3418589
-0.061808217 1.0611329 -0.037551556 -0.40431848 -0.11809369 0.04315981 -0.12602426 -0.10272132
-0.117749736 -0.041152023 -0.07991595 0.14120325 -0.15687834 -0.37837744 0.020633787 -0.5877863
-0.08217849 -0.07941833 -0.06308698 -0.05852519 -0.2115903 -0.15692843 -0.062284797 -0.048087098
-0.03125969 0.27083117 -0.0546252 0.33872563 -0.07493545 -0.073735915 -0.12320254 -0.0832827
-0.15197629 -0.013758999 -0.05215557 -0.09680836 -0.042772114 -0.066639595 0.066563025 -0.0025278472
-0.06588255 -0.04859393 0.19052249 -0.11378893 -0.27764004 -0.09540054 -0.078809656 -0.6838003
0.03506136 -0.0653779 -0.044413377 -0.15752967 -0.24868546 0.15619287 -0.09049145 -0.102879666

fc3.weight f4 [4, 256]
00000000: 1473 973c 1106 a9bc 8f9b bcbb fe50 bcbc
00000010: e66e 48bc 7faa ee3d 702c 093d a488 eabb
00000020: d200 443c e8c3 a83c 2eb1 a8bc f3b9 2e3c
00000030: aba8 1e3c 6f3c 2bbc 1313 34bd 4f5b 9539
00000040: c99a d33c 9928 d73b 67fe a93d 8843 303c
00000050: ad49 eb3b d652 2bbc e4c5 9abb c96f 163e
00000060: 8f9e f7bc 033c 56bc 155d ad3c 6a14 a8ba
00000070: f11c 943c 910a acbc dd2a 1e3c 8ae5 9dbd
00000080: f5b5 a4bb 9d79 15bd 4787 083d 1208 e1bc
00000090: 76e2 883e f289 0bbd 7df3 4e3c 9308 153d
000000a0: 34b5 92bc 1d5a 413b 2d2a 353d d45f 25bd
000000b0: 38d4 513c 421d 9abb a281 16bc ff98 a0bc
000000c0: b160 593b 4d2a 45bd 4766 5f3c b848 49bc
000000d0: b548 cbbc 2c1b e93c dec4 3b3b 9a46 1339
000000e0: 028d a4bb 3dfc 14bd f91a 853d 3f10 fc3c
000000f0: fe8f 09bd 9769 103e c298 3dbc 738c 2d3b
00000100: 06d9 7c3d 0177 48bd 5d6f c23c 2c87 b43a
00000110: 9aea 0ebd 5e3c 34be 5259 e7bc d2f1 a3bb
00000120: 92d9 17be 3373 d2bc 656c a63c 21e7 5fbe
00000130: 1788 fcbb b80b 7d3d 4e67 723c cdea e83c
00000140: 91dd 4b3d c445 173d 1f3c 083c 4b95 623a
00000150: c42f 42bd e6a5 483d 6e70 e9bc 4323 9a3c
00000160: 031b 0fbd d3e2 573d eb39 c63b 6d3e 0d3c
00000170: a2d8 0abe 24f9 e4bb a8e3 f93c 442c ccbd
00000180: 9840 753c d3df 41bd d158 223d e156 b53d
00000190: cfa4 05bc 0c2e 40bc fce2 0cbc 9aac 4fbc
000001a0: 6a99 493d 0b09 9fbd 791e b93d 5b13 133d
000001b0: 5a8a c63c 8827 75bb 5738 d23c d597 0a3e
000001c0: ce96 59bb a727 593d cb76 f53c ddda acbc
000001d0: cf4c a7bc 6e37 8cbb 4cd3 2fbd a17e 033c
000001e0: 5847 d23d 64b8 223d a758 fd3c 01df 01bc
000001f0: 0de9 68bc 771a 0cbb 008d 513c 035b ecbc
00000200: abbc 59bd a281 91bc e66a 713b 7d6f 76be
00000210: a710 e9bb 90fd c7bd 945e 403c 13dd 103e
00000220: 7975 743c f431 1e3e 3f52 84bd 0895 613b
00000230: c996 973a f556 5e3d bab9 d2bc a400 0ebe
00000240: b250 4ebc f094 88bd b98e 08bd 7a82 71bb
00000250: 1514 d6bb 72a6 ecbd 9064 d3b9 4e9b c7bc
00000260: 6cee 7c3c 71be 9a3b 75f3 033e 9ca4 903e
00000270: 4587 933c 1fe7 0dbd 3602 8f3b 1060 123c
00000280: 5634 303b 48f9 b43d 1918 023c 4149 5c3d
00000290: 7ef3 e13c ce70 763b fbe6 f2bc 8f97 28bd
000002a0: ca90 033a 9a4c 59bc 2965 0fbd a750 e13c
000002b0: 63b2 43bd 6bf4 0fbc e858 a2bc 7d6a eb3c
000002c0: e56f efbc 0674 703d f6da e0bc 011b bdbc
000002d0: 42e5 1eba 3593 f7bc 0be9 2a3c 2ab2 f6bd
000002e0: 5de8 553d eade dcbc edaf 1dbc 9018 64bc
000002f0: 8edc 0d3c 6de3 2dbd f8b7 3ebb d79b 39bc
00000300: 8ed1 593c 66ea 78bc 2fec 513e 9a1a 71bc
00000310: 3cad 9c3b 803a 873c 2f6a 35bd 0512 4dbb
00000320: 055f 043c 8838 9c3d f264 b4ba 73e0 073d
00000330: 77dc 393c 1ece 63bd b697 653b 2388 e6bc
00000340: 4e60 573c 2165 25bd 526b 33ba 7058 983c
00000350: b974 b0bc ffff 213d 7f8b 94bc becf c43d
00000360: 2737 81bc 4bab 80bd 7e7c 8dbd 85fa 9b3c
00000370: fa4e 5fbe c13d ae3c 5133 b839 6000 35bc
00000380: 8c0b eb3b ce52 e03c 6d6e 0b3d ff7b d33b
00000390: 4e37 503d c46b b5bc 31ac f0bd bf82 20bc
000003a0: 892c e2bc 2587 7dbc e36a f13c 5ab1 943b
000003b0: 6d32 003d 293b 53bd e5c7 793b 6de6 8f3d
000003c0: 7ac4 263d 044e 5b3c 5ed6 c7bd f474 003d
000003d0: ec95 b03d ab77 a3bc f00b f1bc 0c02 383d
000003e0: 67de 9f3b bd3e a2bc c75b 463a 13e2 f23c
000003f0: 143b ecbd d955 f9bc 4a40 c83c c324 b1bc
0.01848749 -0.020632776 -0.0057558487 -0.022987839 -0.0122334715 0.11653613 0.033489645 -0.007157402
0.011963086 0.020601228 -0.020592298 0.010664451 0.009683768 -0.01045142 -0.043963503 0.00028487525
0.025830643 0.006566119 0.083004765 0.010758288 0.0071804137 -0.010456761 -0.0047232974 0.1469108
-0.030226974 -0.013075831 0.021162549 -0.0012823467 0.018080207 -0.021001132 0.009653774 -0.07709797
-0.005026574 -0.036492933 0.033332136 -0.027469669 0.26735276 -0.0340671 0.012631294 0.03638513
-0.01790867 0.0029503175 0.044229675 -0.040374592 0.012806945 -0.004703195 -0.00918618 -0.019604204
0.0033169205 -0.048136044 0.013635225 -0.012285404 -0.024814943 0.02845534 0.0028651278 0.00014045314
-0.0050216923 -0.036373366 0.06499285 0.030769465 -0.033584587 0.1410278 -0.011572065 0.002648142
0.061730407 -0.048941616 0.023734743 0.0013773195 -0.034891702 -0.17601153 -0.028240833 -0.0050031925
-0.1482909 -0.025689697 0.020315358 -0.21865512 -0.007706653 0.061778754 0.014795138 0.028432274
0.04977185 0.036931768 0.008315115 0.0008643462 -0.047408834 0.048986338 -0.028495993 0.018815642
-0.03493787 0.05270655 0.006049385 0.0086208405 -0.13559201 -0.0069877077 0.030504063 -0.099693805
0.014969014 -0.047332596 0.039635483 0.088544615 -0.008156969 -0.011729728 -0.008599039 -0.012675429
0.049218573 -0.07765397 0.09039015 0.03590713 0.024235893 -0.0037407596 0.02566163 0.13534482
-0.003320146 0.05301633 0.029963871 -0.021100456 -0.020422367 -0.0042790687 -0.042926118 0.008025796
0.10267514 0.03972663 0.030926062 -0.007926703 -0.01421572 -0.002137808 0.012789965 -0.028851992
-0.053158443 -0.017762009 0.0036837398 -0.24065967 -0.007112581 -0.0976516 0.011741299 0.14146833
0.014920586 0.15448743 -0.06461 0.0034421105 0.0011565323 0.054282147 -0.025723327 -0.13867432
-0.012592481 -0.066690326 -0.033339236 -0.0036851452 -0.0065331557 -0.115551844 -0.0004031998 -0.024366047
0.015437704 0.0047224094 0.1288584 0.28250587 0.018008837 -0.034644242 0.0043642772 0.008934036
0.0026886663 0.08836609 0.007940316 0.053780798 0.027581926 0.0037603858 -0.029651156 -0.041160163
0.00050188287 -0.013262892 -0.035008583 0.027504278 -0.047777545 -0.008786301 -0.019817784 0.028737301
-0.02922816 0.0587044 -0.027448159 -0.023084166 -0.0006061384 -0.030221561 0.010431538 -0.12045701
0.052223552 -0.026961762 -0.0096244635 -0.013921872 0.008658541 -0.04245322 -0.0029101353 -0.011328659
0.013294591 -0.015192604 0.20500253 -0.014715815 0.0047813933 0.016507387 -0.044290718 -0.0031291258
0.008079295 0.0762797 -0.0013762994 0.033173036 0.011344067 -0.05561649 0.0035033054 -0.028141087
0.013145519 -0.040379647 -0.00068443 0.018596858 -0.021540033 0.039550778 -0.018132923 0.09609936
-0.015773369 -0.062826715 -0.069085106 0.019040355 -0.21807471 0.021269681 0.0003513345 -0.011047453
0.0071730074 0.027383234 0.034040857 0.0064539905 0.050833993 -0.022146113 -0.11751593 -0.009796797
-0.027609127 -0.0154741155 0.029469913 0.0045377435 0.03129809 -0.05157009 0.0038113531 0.07026372
0.04071472 0.0133853 -0.09757684 0.031361535 0.08622345 -0.019954523 -0.029424638 0.044923827
0.0048788073 -0.019805307 0.00075667765 0.029648816 -0.11534706 -0.030436443 0.024444718 -0.021623975

fc3.bias f4 [4]
00000000: 3ac8 d73e 78a9 cb3e e8fd b33e c866 b53e
0.42144948 0.39777732 0.35154653 0.35429978
